tests/fixtures/drop_in_model_artifacts/onnx_bin.onnx (onnx, 22664 bytes, 5 tensors)

fc1.bias f4 [50]
-0.32056892 0.3708912 0.38725638 0.2588625 -0.33483213 -0.22935383 0.2078256 0.40184745
0.35477185 -0.07774916 0.4727289 0.14828086 0.09257038 0.2005255 0.031288028 -0.11395561
-0.015924688 -0.25031444 0.045165077 -0.04944784 -0.41434988 -0.13360289 -0.11404626 0.41423327
0.31958595 0.30560064 -0.10273989 -0.4043003 0.2893376 0.38378236 0.00089761615 0.39036775
0.22249521 -0.03944088 -0.16655464 -0.4489577 0.11718607 0.025885224 0.10879599 0.16664791
-0.29036367 0.49385524 0.3377018 0.09215726 0.0846082 -0.35617453 -0.39272884 0.3672945
-0.1928158 -0.10839435
00000000: 9c21 a4be 74e5 bd3e 7846 c63e a089 843e
00000010: 1e6f abbe bbdb 6abe 3cd0 543e f3be cd3e
00000020: a8a4 b53e f43a 9fbd 8609 f23e f0d6 173e
00000030: 8a95 bd3d 8f56 4d3e e027 003d 8f61 e9bd
00000040: 7e74 82bc 3729 80be 04ff 383d d189 4abd
00000050: ab25 d4be 32cf 08be 1691 e9bd 6216 d43e
00000060: c5a0 a33e b077 9c3e 4b69 d2bd 7300 cfbe
00000070: 0f24 943e 1f7f c43e 004e 6b3a 48de c73e
00000080: c9d5 633e c38c 21bd 4d8d 2abe c9dd e5be
00000090: 40ff ef3d 400d d43c 6fd0 de3d c0a5 2a3e
000000a0: 8caa 94be 98da fc3e 40e7 ac3e f2bc bc3d
000000b0: 1047 ad3d 825c b6be c113 c9be 060e bc3e
000000c0: 8171 45be dbfd ddbd

fc1.weight f4 [50, 5]
-0.06139487 -0.42897663 0.09735918 -0.21133196 -0.32220262 -0.2946767 -0.09745225 0.46479273
0.22863571 -0.35856733 0.16380925 -0.004125761 0.47162145 0.2986223 -0.015658118 0.1371105
-0.0886707 0.40113956 -0.33235106 0.24998458 0.41536963 -0.41787657 -0.015208932 -0.22664237
-0.15842122 -0.14978 0.23840821 -0.3721371 0.14205325 -0.23617058 0.26761773 -0.2495419
-0.031155355 -0.4353658 -0.016978385 0.42256367 -0.26677132 -0.4438291 0.3525856 -0.1665558
-0.1420426 0.013356745 -0.25772023 -0.24587885 0.14926666 -0.37598145 0.31320518 -0.44532555
-0.2190515 0.019952983 -0.057001714 0.38590544 -0.26133424 0.27151597 0.20309593 -0.43102422
0.336982 -0.44388798 -0.014295667 0.20550287 0.10337038 -0.21477573 -0.20474555 -0.16772303
0.06688756 0.36999187 -0.3390071 0.118290156 0.045451883 -0.26583788 -0.11711913 -0.2990741
0.22879493 -0.22952518 -0.29189795 0.1730993 -0.01499331 0.43956298 0.30500588 -0.2393362
-0.09107597 0.17146021 0.16839772 0.31033257 -0.32710913 0.38490543 -0.39317313 -0.43426841
0.19199158 0.23833993 0.0007232171 -0.18261117 0.1252641 0.33297676 0.102930084 -0.26055267
-0.0010980432 0.4005575 0.15866323 0.4649213 -0.18987298 -0.44389817 0.43976343 0.38830203
0.09938967 -0.43368557 0.22322309 -0.369115 -0.283786 0.4277612 0.02795957 0.08112915
0.34502947 0.039206978 -0.26585665 -0.3903111 0.14818054 0.31976837 -0.21639636 -0.12309408
0.26853433 0.31209862 -0.2480357 0.24383117 0.028809268 0.28838143 -0.2045499 -0.28473958
-0.35710266 -0.29072404 -0.2617034 -0.006018087 0.22117619 -0.3096989 -0.05521039 0.12695456
0.28214628 0.1322856 0.2065496 0.3812638 -0.22549629 0.3149895 0.20951922 0.21196401
-0.3961644 -0.38418424 0.421146 0.19198436 0.409135 0.16445206 -0.10822159 -0.28204796
-0.24370052 -0.3178978 0.22796959 0.025199745 -0.014285065 -0.35282525 0.32482162 -0.34150332
0.2953359 -0.26199645 0.2252482 0.3063942 -0.20407386 0.038477458 0.14562358 0.385252
-0.3012421 -0.0051506753 -0.42243537 0.009428592 0.4511305 -0.21674536 0.12002247 -0.16403139
0.36744875 0.29567736 0.11031352 0.21748169 -0.34177166 -0.2862283 0.12118375 0.3268628
0.059396267 -0.3133254 -0.15243825 0.21670514 -0.06924805 0.056710064 0.11925309 -0.11307289
-0.2825587 -0.3757213 -0.18904302 0.028867342 0.32596797 -0.29682207 -0.34854698 -0.12887992
0.2660512 -0.35830963 0.22105502 0.06273679 -0.3306409 0.43948942 0.25292578 0.33117002
-0.18615946 -0.42354983 -0.32208374 -0.0124143865 0.18091933 0.33240363 0.00361143 -0.03129157
0.22839622 0.46839637 0.03815593 -0.071680866 0.42284632 -0.18508492 -0.12325602 0.39099956
0.40254965 -0.44408658 -0.30618787 -0.045495987 0.24860716 -0.11124995 0.085963584 0.3884291
-0.27924618 -0.04808834 -0.009326128 -0.23280707 0.11322856 -0.20755477 0.09973051 -0.2931019
0.3222872 0.33387825 -0.18069682 -0.30865917 -0.045606103 -0.109569654 0.44044128 0.08189026
0.27260172 -0.37383118
00000000: 3079 7bbd d3a2 dbbe 4064 c73d 6867 58be
00000010: bef7 a4be dddf 96be 0c95 c7bd 50f9 ed3e
00000020: 7b1f 6a3e 2396 b7be 9dbd 273e 6431 87bb
00000030: 5e78 f13e 06e5 983e 7445 80bc b266 0c3e
00000040: fc98 b5bd 2a62 cd3e eb29 aabe f5fb 7f3e
00000050: 54ab d43e ebf3 d5be e22e 79bc f014 68be
00000060: 2c39 22be ee5f 19be 4821 743e c188 bebe
00000070: 6876 113e b3d6 71be 3105 893e e987 7fbe
00000080: 8439 ffbc 44e8 debe 4116 8bbc 445a d83e
00000090: 4096 88be 913d e3be 1a86 b43e 9b8d 2abe
000000a0: 9e73 11be 40d6 5a3c e8f3 83be aac7 7bbe
000000b0: 5cd9 183e a480 c0be 6e5c a03e b601 e4be
000000c0: 094f 60be 7074 a33c a17a 69bd 6695 c53e
000000d0: 9acd 85be 2404 8b3e 61f8 4f3e 35af dcbe
000000e0: e888 ac3e 4945 e3be 6038 6abc 586f 523e
000000f0: dab3 d33d 2bee 5bbe d1a8 51be 96bf 2bbe
00000100: 58fc 883d 936f bd3e 5792 adbe 1c42 f23d
00000110: c12b 3a3d e71b 88be 28dc efbd 3e20 99be
00000120: 3849 6a3e a608 6bbe a673 95be f140 313e
00000130: 80a6 75bc 660e e13e bb29 9c3e 8c14 75be
00000140: 0a86 babd 4493 2f3e 7470 2c3e e9e3 9e3e
00000150: d97a a7be 5312 c53e fd4d c9be 6e58 debe
00000160: 7199 443e 620f 743e 4796 3d3a 6cfe 3abe
00000170: 3b45 003e ee7b aa3e 02cd d23d 2967 85be
00000180: 37ec 8fba df15 cd3e 9d78 223e 2a0a ee3e
00000190: 106e 42be 9f46 e3be ac28 e13e 86cf c63e
000001a0: d08c cb3d 090c debe 9894 643e a4fc bcbe
000001b0: 664c 91be 8403 db3e 780b e53c 0a27 a63d
000001c0: b4a7 b03e 7f97 203d 5d1e 88be dbd6 c7be
000001d0: a4bc 173e aeb8 a33e 0297 5dbe c018 fcbd
000001e0: 557d 893e 64cb 9f3e 12fd 7dbe e1ae 793e
000001f0: 6a01 ec3c bba6 933e 8775 51be 63c9 91be
00000200: 29d6 b6be c8d9 94be fdfd 85be 5f33 c5bb
00000210: 037c 623e db90 9ebe 4a24 62bd 6000 023e
00000220: 7a75 903e e075 073e bd81 533e 0235 c33e
00000230: 80e8 66be 4e46 a13e 358c 563e 180d 593e
00000240: 0fd6 cabe ccb3 c4be 73a0 d73e 8c97 443e
00000250: 257a d13e 1f66 283e 48a3 ddbd 9768 90be
00000260: a18c 79be 80c3 a2be dc70 693e b26f ce3c
00000270: e80b 6abc 83a5 b4be 054f a63e 86d9 aebe
00000280: 4436 973e 6624 86be 77a7 663e b3df 9c3e
00000290: bdf8 50be 8a9a 1d3d 591e 153e c03f c53e
000002a0: 683c 9abe ffc6 a8bb 7349 d8be 627a 1a3c
000002b0: 94fa e63e 7ff2 5dbe 57ce f53d d8f7 27be
000002c0: 3e22 bc3e 0663 973e 0eec e13d 85b3 5e3e
000002d0: b2fc aebe 848c 92be 302f f83d 905a a73e
000002e0: 8049 733d 306c a0be c618 1cbe f4e7 5d3e
000002f0: ecd1 8dbd d048 683d f73a f43d c292 e7bd
00000300: 89ab 90be 8b5e c0be 7e94 41be 347b ec3c
00000310: 46e5 a63e 10f9 97be c074 b2be 19f9 03be
00000320: dd37 883e 5c74 b7be 3f5c 623e 257c 803d
00000330: c449 a9be c204 e13e 7d7f 813e 1e8f a93e
00000340: 96a0 3ebe 86db d8be 29e8 a4be b665 4bbc
00000350: eb42 393e cf30 aa3e bead 6c3b 972b 00bd
00000360: b3e0 693e a6d1 ef3e 6449 1c3d 6bcd 92bd
00000370: 507f d83e e786 3dbe a76d fcbd 1831 c83e
00000380: fd1a ce3e 515f e3be a8c4 9cbe 005a 3abd
00000390: e092 7e3e 04d7 e3bd ad0d b03d 2ee0 c63e
000003a0: 5bf9 8ebe 47f8 44bd 9ecc 18bc fa64 6ebe
000003b0: 60e4 e73d 3d89 54be 823f cc3d 7411 96be
000003c0: d402 a53e 17f2 aa3e 9608 39be 9308 9ebe
000003d0: 77cd 3abd 0e66 e0bd 8581 e13e 15b6 a73d
000003e0: 7492 8b3e cd66 bfbe

fc2.bias f4 [100]
-0.09315327 -0.1344717 -0.04254171 -0.035407353 0.06626914 0.03847679 -0.053101026 -0.028353598
0.10221079 0.13817699 0.08723233 -0.02593372 -0.092748016 0.023077399 -0.09801279 0.071626835
-0.1200923 -0.06835827 -0.13438433 0.14538124 0.06700235 -0.17327754 0.1767776 0.03375094
0.16766979 0.058275107 0.0077836392 0.12611616 -0.07919669 -0.085631035 0.15998748 0.117384754
-0.07322666 -0.11605439 -0.034447897 0.14643413 -0.010548568 0.1608607 -0.065680034 -0.13924365
-0.1399367 -0.08567483 -0.0052529923 -0.13544416 -0.03737298 0.03898044 0.010432506 0.0016075086
-0.052182656 -0.1399619 -0.09810438 0.09311724 -0.08033987 0.022635387 0.14872582 0.13319221
-0.13959411 -0.05989191 0.012667673 0.09040177 -0.033571407 0.13603348 -0.032122105 0.0060179424
-0.055947013 0.13974094 -0.14223066 0.017997894 0.16545503 0.05673771 0.09666225 0.06388007
0.05727207 0.011803134 -0.10543485 -0.030371223 0.14408945 0.029675538 0.12620485 0.032366246
0.011505867 -0.16150063 -0.074513584 0.11381926 0.00915034 0.051054835 0.15682061 0.0703558
0.0035748393 0.017412577 -0.034913406 0.11246898 -0.16130927 0.089138575 0.09632442 0.06595429
-0.063177615 0.0021619175 -0.10720226 -0.138308
00000000: 24c7 bebd f3b2 09be 3740 2ebd 4d07 11bd
00000010: 1db8 873d d799 1d3d 7680 59bd ce45 e8bc
00000020: e453 d13d 457e 0d3e dda6 b23d f472 d4bc
00000030: acf2 bdbd d00c bd3c eeba c8bd 17b1 923d
00000040: f4f2 f5bd 6cff 8bbd 0c9c 09be d2de 143e
00000050: 8738 893d ab6f 31be 3005 353e 6d3e 0a3d
00000060: a1b1 2b3e e1b1 6e3d e60d ff3b 9824 013e
00000070: e031 a2bd 535f afbd c2d3 233e 6b67 f03d
00000080: dcf7 95bd edad edbd 3d19 0dbd d4f2 153e
00000090: e7d3 2cbc abb8 243e 4183 86bd e395 0ebe
000000a0: 914b 0fbe 4976 afbd 4b21 acbb e0b1 0abe
000000b0: 6914 19bd f4a9 1f3d 1aed 2a3c 0ab3 d23a
000000c0: 7bbd 55bd 2c52 0fbe f3ea c8bd 40b4 be3d
000000d0: 3b89 a4bd d96d b93c 954b 183e 8a63 083e
000000e0: c2f1 0ebe 3851 75bd 128c 4f3c 9024 b93d
000000f0: 2c82 09bd 5c4c 0b3e 7892 03bd 2932 c53b
00000100: b228 65bd 4018 0f3e eaa4 11be 5270 933c
00000110: 0b6d 293e cd65 683d dcf6 c53d 8ed3 823d
00000120: 1e96 6a3d ef61 413c 3aee d7bd 12cd f8bc
00000130: 2f8c 133e 1d1a f33c d83b 013e 7892 043d
00000140: 1b83 3c3c 6c60 25be 949a 98bd 121a e93d
00000150: 4feb 153c e01e 513d 9595 203e b416 903d
00000160: da47 6a3b d2a4 8e3c 5c01 0fbd 2356 e63d
00000170: 422e 25be 498e b63d bd45 c53d 0b13 873d
00000180: 4463 81bd f5ae 0d3b dc8c dbbd 9da0 0dbe

fc2.weight f4 [100, 50]
0.024091437 0.048932485 -0.08386535 -0.07755019 0.005979624 0.10468182 -0.04207793 0.007107207
-0.005965486 0.016434029 0.05405691 0.060975283 -0.07405574 0.042306136 -0.011469841 0.019197395
-0.1744345 0.1019251 -0.095393054 -0.16161425 0.12060331 0.08089453 -0.1450059 -0.14542979
-0.11594255 0.03140987 0.0023240258 -0.012614727 -0.13414697 -0.06035886 -0.13915527 0.13671744
0.12604865 -0.054082017 -0.116409905 0.021431213 0.082329884 0.08384566 0.09590698 -0.0037844537
-0.08229203 0.022087136 -0.026622577 0.047016956 -0.025859829 0.12245907 0.019182878 -0.0026173089
-0.071909934 0.022190785 0.090005994 -0.09507044 -0.037940137 -0.044546206 -0.099423654 -0.006277263
-0.013771851 -0.120496705 0.10164034 0.100787476 -0.12464007 0.06665678 0.13621543 0.03823614
0.015976086 -0.118203335 -0.09985455 -0.021272214 -0.09855798 -0.12912631 -0.044945084 0.14045762
-0.1392533 0.09655025 0.019391796 0.12426925 -0.0682347 0.044272806 0.087846994 -0.0014040086
0.012780696 -0.016800214 0.12723528 0.01953892 -0.036880072 -0.00516701 0.11177544 -0.06463838
-0.072782025 -0.05295073 0.0734025 -0.029768718 0.0373279 -0.1642746 0.030123688 -0.024492092
0.05853723 -0.14886303 -0.070369124 0.010826254 0.06762053 0.09259013 -0.023545792 0.005039981
-0.07275841 0.11707719 -0.006197326 -0.09024648 0.04687418 -0.048377253 0.19089158 -0.088615894
0.029601308 0.048640832 -0.11216723 0.0076300567 0.08835046 -0.025734777 0.06686278 0.0631811
0.07697144 0.040308475 0.11229204 0.111285664 -0.052757576 -0.103660785 0.07026027 0.06145373
0.02986144 -0.03627564 -0.025135808 -0.1517661 0.14921433 0.11673639 0.010000494 -0.02249696
0.13959865 0.051101774 0.075967066 0.04610984 0.11058027 0.0004777283 0.010885963 0.013014678
-0.11607212 0.063550055 0.03319073 0.042776436 0.07285413 -0.077507235 0.00092834234 0.04837072
-0.03314754 0.052129842 0.015862707 0.0680348 0.055500127 -0.14149979 0.006710589 -0.06199556
0.16199124 0.10175642 -0.004857956 -0.016398318 0.13160034 -0.0978248 -0.026532168 -0.08394902
-0.061885424 0.08416866 -0.0811031 0.054976135 -0.01363448 0.14399236 0.052088473 -0.031612106
0.1379905 0.11686802 0.13835455 0.059272535 0.07855387 -0.07053117 0.108995765 -0.113532096
-0.012916404 -0.07954994 0.078044206 0.0068502426 -0.047763854 0.012916876 -0.06992419 -0.12867081
-0.080341674 -0.07988218 0.06310948 0.12823804 0.0862451 -0.045832165 -0.09201341 0.0779578
-0.09484788 0.024997015 -0.043878686 0.10103743 0.015697924 0.061947092 0.01580645 0.12921862
0.043995947 0.044386327 -0.05185747 0.12553601 0.03402651 0.12888733 0.13007061 0.0513607
0.06158308 -0.09662834 0.005427564 -0.0069857943 -0.075228974 0.015693814 0.11662474 0.011809976
0.05382581 -0.0067540803 0.009154076 -0.12599821 -0.043825205 0.09257534 -0.033231325 0.00089759147
-0.016977051 0.0020927722 -0.012186352 -0.0034298133 0.054491565 0.11765288 -0.12268832 -0.1352145
0.018992357 -0.0087322425 -0.14009205 0.09784906 -0.038397584 0.028272256 0.08710861 0.01084433
-0.03157219 -0.12215879 0.0359603 -0.14295596 0.014387839 0.12751104 -0.08280343 0.013857186
00000000: 685b c53c 6e6d 483d 99c1 abbd a2d2 9ebd
00000010: b9f0 c33b 6c63 d63d e859 2cbd 93e3 e83b
00000020: 207a c3bb a8a0 863c c76a 5d3d 38c1 793d
00000030: 89aa 97bd 3349 2d3d 00ec 3bbc db43 9d3c
00000040: f59e 32be 1bbe d03d 6f5d c3bd 357e 25be
00000050: defe f63d 08ac a53d 6d7c 14be 8ceb 14be
00000060: 4a73 edbd a3a7 003d af4e 183b 00ae 4ebc
00000070: d35d 09be da3a 77bd b87e 0ebe a8ff 0b3e
00000080: e612 013e 1b85 5dbd 5168 eebd 8390 af3c
00000090: 929c a83d 46b7 ab3d e16a c43d 9904 78bb
000000a0: b988 a8bd 15f0 b43c 9717 dabc da94 403d
000000b0: fed7 d3bc d2cb fa3d 6925 9d3c 2887 2bbb
000000c0: 8445 93bd 73c9 b53c 1055 b83d 4ab4 c2bd
000000d0: 1e67 1bbd 1576 36bd a19e cbbd 80b1 cdbb
000000e0: 54a3 61bc fac6 f6bd d028 d03d aa69 ce3d
000000f0: 4b43 ffbd 5a83 883d 0f7c 0b3e 809d 1c3d
00000100: 48e0 823c 9714 f2bd 8b80 ccbd 1143 aebc
00000110: c4d8 c9bd b039 04be 5618 38bd 1fd4 0f3e
00000120: 6b98 0ebe 23bc c53d 8bdb 9e3c e080 fe3d
00000130: a2be 8bbd 6757 353d 20e9 b33d b606 b8ba
00000140: 2066 513c 9aa0 89bc f749 023e 1610 a03c
00000150: 8f0f 17bd 0550 a9bb 86ea e43d 2161 84bd
00000160: be0e 95bd dde2 58bd 0d54 963d 87dd f3bc
00000170: 24e5 183d 9a37 28be f4c5 f63c a4a3 c8bc
00000180: bcc4 6f3d 8d6f 18be b01d 90bd 9a60 313c
00000190: a27c 8a3d e59f bd3d 1be3 c0bc 6d26 a53b
000001a0: 5c02 95bd 2ac6 ef3d f012 cbbb 26d3 b8bd
000001b0: 24ff 3f3d 3a27 46bd 1579 433e 407c b5bd
000001c0: 717e f23c 9c3b 473d efb7 e5bd 8e05 fa3b
000001d0: 16f1 b43d bdd1 d2bc 5aef 883d 1865 813d
000001e0: 34a3 9d3d 801a 253d 5ef9 e53d bde9 e33d
000001f0: 5418 58bd 1b4c d4bd 9ee4 8f3d e8b6 7b3d
00000200: fb9f f43c c495 14bd 9ce9 cdbc 9368 1bbe
00000210: a4cb 183e 7d13 ef3d 1dd9 233c 8b4b b8bc
00000220: f3f2 0e3e 1850 513d 9f94 9b3d acdd 3c3d
00000230: e977 e23d 9b77 fa39 0a5b 323c 843b 553c
00000240: 38b7 edbd 8826 823d 01f3 073d 5836 2f3d
00000250: 8c34 953d 1dbc 9ebd 005c 733a 6020 463d
00000260: b7c5 07bd 1a86 553d 82f2 813c d455 8b3d
00000270: 1a54 633d 52e5 10be 80e4 db3b 0eef 7dbd
00000280: 08e1 253e ac65 d03d 7d2f 9fbb c455 86bc
00000290: 3dc2 063e 5e58 c8bd fd59 d9bc 77ed abbd
000002a0: 927b 7dbd 9e60 ac3d 6219 a6bd a82e 613d
000002b0: 2763 5fbc bc72 133e b95a 553d b27b 01bd
000002c0: 624d 0d3e 8058 ef3d d1ac 0d3e c2c7 723d
000002d0: dae0 a03d a572 90bd 2c39 df3d 8483 e8bd
000002e0: 539f 53bc 14eb a2bd a4d5 9f3d 0078 e03b
000002f0: 08a4 43bd 4ea1 533c 6a34 8fbd 48c2 03be
00000300: 2d8a a4bd 4599 a3bd 8b3f 813d d550 033e
00000310: 45a1 b03d 82ba 3bbd 8771 bcbd 57a8 9f3d
00000320: 9b3f c2bd 8ac6 cc3c 23ba 33bd b6ec ce3d
00000330: ef98 803c 3cbc 7d3d 877c 813c e351 043e
00000340: 1835 343d 70ce 353d 8068 54bd 838c 003e
00000350: 625f 0b3d 0afb 033e 3b31 053e 995f 523d
00000360: 8a3e 7c3d 14e5 c5bd b5d9 b13b 17e9 e4bb
00000370: a611 9abd 5090 803c f4d8 ee3d a17e 413c
00000380: 7478 5c3d 5551 ddbb fafa 153c ad05 01be
00000390: 0f82 33bd 2498 bd3d 921d 08bd 584c 6b3a
000003a0: 7513 8bbc e426 093b 44a9 47bc b8c6 60bb
000003b0: 8c32 5f3d fef3 f03d 0444 fbbd ab75 0abe
000003c0: dc95 9b3c ae11 0fbc 4a74 0fbe 1765 c83d
000003d0: c946 1dbd 389b e73c 0066 b23d 6bac 313c
000003e0: d751 01bd 632e fabd 1c4b 133d 0c63 12be
000003f0: f8ba 6b3c 4192 023e d894 a9bd 4009 633c

out.weight f4 [1, 100]
0.079360776 0.08155287 -0.055983637 -0.08855404 -0.0039881784 0.059314642 -0.036953464 0.026319508
-0.015017944 -0.038405392 -0.05055054 -0.023266628 -0.12821947 0.07172567 0.035173606 -0.0810199
0.004685055 -0.011806622 0.051709946 -0.044434085 0.017503878 0.03509373 -0.09071033 0.03938681
-0.045633998 0.039432466 -0.0094981715 -0.08772726 0.011984938 0.034602538 -0.028670816 -0.06021987
-0.013371222 0.06959827 0.05238053 -0.013727395 -0.053056125 -0.04625727 0.06913459 0.08629189
0.064926535 0.010780439 -0.033253435 0.0806098 0.041600116 -0.05681604 -0.07063221 -0.013446163
0.06241671 0.013940745 0.073188156 0.069694236 -0.06606859 -0.0848121 -0.078438774 -0.0104863215
0.059866916 -0.032217536 -0.0060418868 -0.06994007 -0.00629856 -0.0079000285 -0.07337323 0.016889676
0.056457527 -0.058740247 0.051971767 0.07098935 -0.0016656693 0.08166248 0.050479066 -0.036936373
0.048873644 0.0020442305 0.06871642 0.06413147 -0.08931496 0.062293172 -0.001087122 -0.07673067
-0.04019807 0.010991884 -0.07798804 -0.06647255 -0.10506344 -0.05235736 -0.024678757 0.0035715892
0.092828594 -0.06690858 0.047057066 -0.019216476 0.0035746887 -0.0046465998 0.08976229 0.01289129
-0.0014254093 -0.0845907 0.016437776 -0.011557334
00000000: e787 a23d 3105 a73d 194f 65bd d25b b5bd
00000010: 44af 82bb e9f3 723d 845c 17bd 029c d73c
00000020: d30d 76bc f94e 1dbd 150e 4fbd a899 bebc
00000030: f74b 03be e8e4 923d 3312 103d c3ed a5bd
00000040: 1785 993b 9070 41bc cfcd 533d 8400 36bd
00000050: 4b64 8f3c 71be 0f3d 56c6 b9bd 1054 213d
00000060: b7ea 3abd f083 213d 389e 1bbc 5aaa b3bd
00000070: 795c 443c 64bb 0d3d 0fdf eabc 1ca9 76bd
00000080: f812 5bbc 8a89 8e3d f78c 563d dee8 60bc
00000090: 6151 59bd 4378 3dbd 7096 8d3d cdb9 b03d
000000a0: 34f8 843d 70a0 303c c134 08bd c016 a53d
000000b0: e264 2a3d f0b7 68bd 9fa7 90bd 4c4d 5cbc
000000c0: aaa8 7f3d b967 643c ace3 953d dabb 8e3d
000000d0: f84e 87bd f7b1 adbd 82a4 a0bd d2ce 2bbc
000000e0: 0337 753d 89f6 03bd 05fb c5bb bd3c 8fbd
000000f0: 2764 cebb 1f6f 01bc b444 96bd 385c 8a3c
00000100: 0240 673d 9d99 70bd 59e0 543d dd62 913d
00000110: 9652 daba a93e a73d 23c3 4e3d 984a 17bd
00000120: bb2f 483d 7ff8 053b 32bb 8c3d 5c57 833d
00000130: c3ea b6bd 2027 7f3d c37d 8eba f824 9dbd
00000140: bba6 24bd 4e17 343c 32b8 9fbd c322 88bd
00000150: 802b d7bd ac74 56bd 1b2b cabc 5311 6a3b
00000160: eb1c be3d 5e07 89bd e9be 403d df6b 9dbc
00000170: 5345 6a3b 8142 98bb 4bd5 b73d fd35 533c
00000180: cdd4 baba e43d adbd 84a8 863c f95a 3dbc
