tests/fixtures/drop_in_model_artifacts/torch_reg.pth (torch_old, 33542 bytes, 5 tensors)

weight f4 [50, 13]
000000 c9 b9 23 3e 47 98 ad 3d 87 9a b8 bd 67 03 ff bd
       0.1598884 0.0847631 -0.09013849 -0.12451821
000010 e9 9c 4e 3e fc 4c da bd 66 d2 6b 3e e1 8e 7f 3e
       0.20177044 -0.10659215 0.2302948 0.24956848
000020 5c 96 4b 3e a9 71 18 be 08 8a 0c be 87 ec 85 3e
       0.19881576 -0.14887108 -0.1372453 0.2615702
000030 84 30 1e be 26 e2 36 be 0e 8b ad bd bd 19 c7 3d
       -0.15448195 -0.17859706 -0.08473788 0.09721706
000040 4b c9 3b be 56 93 16 3e 4e 3e 2e be 10 78 45 bd
       -0.18338506 0.14704642 -0.17015955 -0.048210204
000050 7b d6 26 3e 9e e5 77 3e c0 24 79 3e 55 45 49 3e
       0.16292755 0.24208686 0.24330425 0.19655354
000060 ca 62 17 be e0 99 5e be f2 97 90 bc 07 7e 51 bd
       -0.14783779 -0.21738386 -0.017650578 -0.05114558
000070 f4 83 c9 bd 13 62 21 3e ff c3 e2 3d a6 4d a7 3d
       -0.09839621 0.15760069 0.110725395 0.08169107
000080 95 9a 73 be b1 5d 3b 3e 6d 53 1c be c3 71 6f be
       -0.23789437 0.18297459 -0.152662 -0.2338324
000090 0f cc 56 3c 6a b9 5e 3e 7b 5b 75 bd 03 55 4e 3e
       0.013110175 0.21750417 -0.059901696 0.20149617
0000a0 ed 3e 8b 3e 2d 43 96 be 52 b3 a4 3c 1b 6a 17 be
       0.27196446 -0.29348126 0.020105038 -0.1478657
0000b0 34 2e b3 bd ab 69 46 be 77 10 16 be 42 3f a3 bd
       -0.08749047 -0.19376247 -0.14654718 -0.0797105
0000c0 ac 1e 1c 3d 59 e5 83 be ea c6 9c 3c d7 d1 6a be
       0.03811519 -0.25760916 0.019137818 -0.2293161
0000d0 33 c3 0e 3e d5 cb ec 3d a8 c3 e8 bd 9c 74 9c 3d
       0.1394165 0.115623154 -0.113654435 0.07639429
0000e0 87 53 2e 3d 1d a3 ce 3d d5 44 de 3d 72 62 14 bd
       0.042560127 0.10089705 0.108529724 -0.036226697
0000f0 26 b5 41 bd 23 ac 77 3b 2f 3d 91 bd 8c d8 e7 3d
       -0.047291897 0.003779181 -0.07091748 0.113206
000100 0c 86 a6 bd 9c 13 31 be 47 e5 6e 3e ea fd 5e 3d
       -0.08131036 -0.17292637 0.2332965 0.05444137
000110 49 5e 49 3c 0f dc cc bd 71 a6 02 3e b0 68 eb 3d
       0.012290546 -0.1000291 0.12758805 0.11494577
000120 a8 5b 5e be 3a bd c3 3d 17 a9 49 3e bf 91 2f 3d
       -0.21714652 0.095575765 0.19693409 0.042863604
000130 fe 7c 56 be 28 97 7c be 47 1b 0c be ce 9e 6d be
       -0.20946118 -0.24667037 -0.1368228 -0.2320511
000140 20 50 72 bd 3e 28 59 be 50 d2 4f be 58 8c 5c 3d
       -0.059158444 -0.21206757 -0.20295072 0.05384478
000150 5c 83 f8 3d 78 f2 27 3d b4 0b e3 bd 56 95 9a bd
       0.1213443 0.04100272 -0.110862166 -0.07548015
000160 4c 66 42 be 60 c3 26 3c 44 04 a6 3d 67 fe 13 be
       -0.18984336 0.010178417 0.08106282 -0.14452516
000170 cb c7 c6 3b bb 0a 51 3d 5e f9 92 be 5e 52 ab bd
       0.0060662976 0.051035624 -0.28705877 -0.0836532
000180 ca bb 81 be b3 03 d2 bc 25 76 85 3e c5 da 36 be
       -0.25338584 -0.02563653 0.260667 -0.17856891
000190 46 90 68 3e 77 24 86 3e 94 82 81 be 0c 89 70 3e
       0.22711286 0.26199695 -0.25294936 0.23489779
0001a0 f1 1f aa 3d 2f 3a 92 be 90 37 80 be c4 5a 2f 3d
       0.083068736 -0.28560016 -0.2504239 0.04281117
0001b0 e9 0e 51 3e 18 d4 d5 bd 81 36 2f be 41 a8 1f be
       0.20415844 -0.10440844 -0.17110635 -0.15591528
0001c0 62 cf f9 3c bf e4 31 3e f4 78 2a 3e f7 99 e8 bd
       0.030494396 0.17372416 0.16647702 -0.113574915
0001d0 9c 22 be 3d 28 27 1b 3e 2f 9c 46 be 68 c3 93 be
       0.09283945 0.15151656 -0.19395517 -0.2886002
0001e0 1e ef 34 3c a2 58 e9 3d 6d e4 14 be 83 b9 e7 bd
       0.011043338 0.113938585 -0.14540263 -0.113146804
0001f0 54 9e 0d 3d 4a e1 11 3e 38 2a f8 3d 53 8a f4 bc
       0.03457482 0.14246097 0.121174276 -0.029851114
000200 43 35 b0 bd d6 a0 0d 3b b2 96 42 be 6f 04 88 be
       -0.08603909 0.0021610758 -0.19002798 -0.26565883
000210 ea 3e 67 be 7f 63 2c be 8f b5 8c 3e b4 43 1d 3e
       -0.22582594 -0.1683483 0.27482268 0.15357858
000220 6a 7e 2b be 36 a4 60 3e 10 1e 96 3c 20 26 07 3c
       -0.16747442 0.21937642 0.018324882 0.008248836
000230 c8 50 61 3d 8b 9f 87 be f0 86 3e be d3 aa f8 3c
       0.05500868 -0.2648891 -0.18606162 0.030354893
000240 00 76 0b 3e a1 60 4a be 4e a4 89 bd 73 0f 69 3e
       0.13619232 -0.19763424 -0.06720792 0.227598
000250 35 58 c8 bd 02 06 da 3b 54 34 96 3e 85 30 04 be
       -0.09782449 0.006653548 0.29336798 -0.12909134
000260 b5 d9 50 be f2 f2 f0 bd 4f 6e 7f 3e 5d 34 56 bd
       -0.20395549 -0.11765088 0.24944423 -0.05229603
000270 eb b7 3e bd e6 f1 cb bd c7 26 0e 3d 6f c1 c6 3d
       -0.046562117 -0.09958248 0.03470495 0.09704863
000280 0c 72 dd 3d 0d bb 11 3c c5 80 26 be 22 cd 81 bd
       0.10812768 0.008894694 -0.16260059 -0.06337954
000290 cc cb 65 3d e7 b7 7d 3d cc 00 4d be 5a 06 7c 3e
       0.05610256 0.06194296 -0.20019835 0.24611798
0002a0 0b 80 83 3e 23 ce 8e be ea d8 72 3e 3c 58 01 be
       0.25683627 -0.27891645 0.23715559 -0.12631315
0002b0 30 20 0a be 36 c2 16 3e 72 94 69 be ad b0 82 bb
       -0.13488841 0.14722523 -0.22810534 -0.0039883466
0002c0 3f d6 58 3e 4d 6c 9b bd ab 7d 4e 3c 18 38 f8 3c
       0.21175478 -0.07589016 0.012603204 0.030300185
0002d0 ec fd 4b be 82 74 23 be ec 3b ac bd 65 5e 2a be
       -0.19921082 -0.15962413 -0.08409867 -0.16637571
0002e0 30 e9 72 bd b0 6c c0 3d 22 b7 68 be d7 f6 86 be
       -0.059304416 0.093957305 -0.2272611 -0.263602
0002f0 40 dc e6 3c 6c 8f 44 3e 75 93 40 be e4 3f 98 bd
       0.028181195 0.19195336 -0.1880625 -0.07434061
000300 cc 42 96 bd a0 af 37 be ea 84 28 be 0e ff e5 bd
       -0.07336959 -0.1793809 -0.16456953 -0.112302884
000310 81 71 6a be 41 82 15 be 34 82 cb 3d fd ef 1e 3c
       -0.22894861 -0.14600469 0.09936944 0.009700772
000320 b5 22 80 3e e7 0f 91 be 4d c9 b5 3d 47 b3 3a be
       0.2502648 -0.28332445 0.08876286 -0.18232451
000330 54 f7 91 3d a1 a4 88 be 30 6b 1c be e6 fe ff bd
       0.07127252 -0.26688102 -0.15275264 -0.1249979
000340 6b 5c 55 be d0 fc f3 3d fb 7c 5d bd 34 8a 8c bd
       -0.20836036 0.119134545 -0.05407427 -0.06862298
000350 f9 c2 75 3e 83 b0 b4 3d 96 2d ae 3d f9 84 c4 bd
       0.24000157 0.088227294 0.085047886 -0.09595675
000360 b7 31 bd bd ba 0a 5e bd 47 9c 19 be da 8f 79 3e
       -0.09237998 -0.05420945 -0.15001021 0.24371281
000370 25 08 e9 bd 4a 5e 63 3e 03 a3 41 3e e7 ff d6 bd
       -0.113785066 0.22203937 0.1890984 -0.10498028
000380 b3 8e 6e 3e 1c 64 33 be 1d af b3 bd a0 6a 78 3e
       0.23296623 -0.17518657 -0.087736346 0.24259424
000390 8b 0e 80 3e 06 5c 47 3e 86 64 a8 3d f8 76 9a 3d
       0.25011095 0.19468698 0.08222298 0.07542223
0003a0 c0 d2 1f 3e 6e ed 6e be e4 e4 3a 3e ba 1e 36 3e
       0.15607738 -0.2333276 0.18251377 0.17785159
0003b0 38 e5 1f 3d 5a 89 9e bd 76 61 67 be 98 9c fe bc
       0.03903696 -0.077410415 -0.22595772 -0.03108053
0003c0 3e e2 17 3e 8e 26 d1 bd c4 28 e4 bd a8 74 38 bd
       0.14832398 -0.10212432 -0.11140588 -0.045033127
0003d0 c0 90 b1 3d 63 64 83 be a0 73 00 be 38 a5 82 3e
       0.08670187 -0.25662526 -0.12544107 0.25516677
0003e0 17 c9 74 be 88 42 0b 3e 76 b9 ad 3d 2e 97 83 3e
       -0.23904835 0.13599598 0.084826395 0.25701278
0003f0 8e 51 ad bc 46 38 04 be 7d 3f c9 bd 78 28 85 3e
       -0.021157052 -0.12912092 -0.098265626 0.26007438

bias f4 [50]
000000 f3 5c a2 bc 42 60 be bb bb da f3 bd 5c 05 0b be
       -0.019819712 -0.0058098147 -0.11906954 -0.13576263
000010 55 2c 64 3e b7 47 2d 3e 00 11 8a bc fb a6 a7 bc
       0.22282536 0.16921888 -0.01685381 -0.020465365
000020 28 3f a8 3d 56 b9 61 3e 58 55 17 be 8a 2c b9 3d
       0.08215171 0.22043356 -0.1477865 0.09041698
000030 4f c3 60 bb 31 92 27 3e 60 21 bd 3d d0 71 c6 3d
       -0.00342961 0.16364361 0.092348814 0.09689677
000040 ba d1 25 bd 69 2e ab 3b 9c 37 8e bd c6 cd bb 3d
       -0.040483214 0.0052240384 -0.069442004 0.091701075
000050 9c 4d 82 3e 16 2c 2e 3e 6c 8e 85 bd 5a 33 87 bd
       0.25449836 0.17009005 -0.065213054 -0.066015914
000060 8d f2 83 be 28 ad 2d 3d ff bf 32 be 08 6f 51 3e
       -0.2577099 0.042401463 -0.17456053 0.20452511
000070 f0 a6 e2 bd df 8c 4b 3d 47 56 64 3c f3 5b 53 be
       -0.11066997 0.049694892 0.013936586 -0.20640545
000080 f1 69 8d 3e ff 49 27 bd 23 f4 88 3e 31 04 7f be
       0.2761989 -0.040842053 0.26748762 -0.24903943
000090 9e cd ff bc 21 24 b7 bd f6 9d 3d 3e 2c 03 2c 3c
       -0.031225976 -0.08942438 0.18517289 0.010498803
0000a0 30 ea 64 bd 5d 48 88 3e d2 8e 34 3d da 45 14 3d
       -0.0558874 0.2661771 0.044081517 0.03619943
0000b0 28 11 0a 3e 84 ff 6d be af 94 58 be 9e e4 b6 bd
       0.13483107 -0.23242003 -0.21150468 -0.08930324
0000c0 e1 31 b0 3d 4a 16 6b 3e
       0.08603264 0.22957721

weight f4 [100, 50]
000000 b3 0b 9a bc c3 be 52 3d 00 a8 d1 3d 5f cf e6 bd
       -0.018804407 0.051451456 0.102371216 -0.11270022
000010 0c fa c2 bd de fc f9 bd 41 ee 0f 3e 9c 48 b8 3c
       -0.09520349 -0.12206434 0.1405573 0.02249556
000020 c9 30 54 bc 85 80 e4 bc 82 0a 9b 3d 55 fa 9f bd
       -0.012951084 -0.027893314 0.075703636 -0.07811419
000030 76 15 ae bd 0e 6c 91 bd a0 ac 80 3b c1 53 12 3d
       -0.08500187 -0.07100688 0.0039268285 0.035724405
000040 ae 21 11 be 3c 58 21 3d 51 b9 05 3e 22 1a 89 bc
       -0.14173004 0.039390787 0.13058974 -0.016736094
000050 2c e6 0b 3e 4d 4e 82 3d c6 aa 0a be a6 13 c3 3d
       0.13662022 0.06362591 -0.13541707 0.09525232
000060 fc 6a 93 3d 40 12 fc bd 6d 35 dd 3d 00 c0 b5 39
       0.0719814 -0.123081684 0.10801206 0.0003466606
000070 30 5e 41 bc ed 4e 6d bd 30 b5 ca bd 6f 56 f1 3d
       -0.011802241 -0.057936598 -0.0989784 0.11784064
000080 b4 43 02 3d 09 b1 ce bb 52 50 ab 3d 06 c9 99 3d
       0.031802848 -0.0063077253 0.08364929 0.07509045
000090 30 f4 53 b8 ed 52 c6 3d a1 e3 00 3e c4 c3 03 3e
       -5.0533738e-05 0.096837856 0.12586834 0.12867647
0000a0 64 7d 13 3e 70 40 9f bd dc 4b e2 3d db b1 e3 3d
       0.14403301 -0.07775962 0.11049625 0.111179076
0000b0 b5 58 72 bd 7a c1 f0 3d 83 ff 57 3d fa b5 f7 bd
       -0.05916663 0.11755653 0.05273391 -0.12095256
0000c0 18 b8 9c bd ac b5 85 bd c6 fe e0 3d 53 3b 2c bd
       -0.076523006 -0.06528792 0.10986094 -0.042048763
0000d0 c3 ba db 3b 47 b7 36 bd bc b2 c8 3d 87 65 ba bd
       0.0067056133 -0.04460838 0.09799716 -0.09101396
0000e0 80 52 50 3b a7 61 4d 3b 35 1a 3b 3d a7 74 fc bd
       0.0031787455 0.0031338723 0.04567929 -0.12326937
0000f0 7f ef 01 3e 9d d7 93 3d 6d 95 b5 bd 21 70 c5 3d
       0.12689017 0.07218859 -0.08866391 0.096405275
000100 7c d3 c3 bd eb a6 2c 3e d5 96 ad 3d 01 39 dc bd
       -0.09561822 0.16860549 0.084760346 -0.1075306
000110 ef 5d 04 3e 67 ac 5b bd f8 ff ab bd cd 44 14 3e
       0.12926458 -0.053631213 -0.083984315 0.1447937
000120 94 35 0f be de 8e 99 3d a7 ff 51 3b c9 c8 33 bd
       -0.13985282 0.07497953 0.003204325 -0.043892656
000130 db 7f 81 bd 8e ba a3 3d 51 48 0c 3e ff c5 dd 3c
       -0.063232146 0.07994567 0.13699462 0.027071951
000140 23 ba ab 3d c2 58 ce bd 1f b0 84 bd b0 b2 f3 bd
       0.08385112 -0.10075523 -0.06478905 -0.11899316
000150 d8 bd 9d 3d 1a 17 48 bd 23 00 83 3d 1e 6a d7 3d
       0.077022254 -0.048850156 0.063965105 0.10518287
000160 df 20 b8 3d f0 8b 12 bd 56 4d 7d bd 10 f1 b8 bd
       0.08990645 -0.035777986 -0.06184133 -0.09030354
000170 0e a3 c1 3d 65 6f 81 bd 47 8a 49 bd 4e ff 06 be
       0.09454928 -0.06320075 -0.049204137 -0.13183329
000180 b1 3f 65 bd c8 63 7a bd 90 11 c9 bd 20 f8 23 bd
       -0.055968944 -0.061130315 -0.09817803 -0.040031552
000190 f3 bd 91 3d 87 18 db 3d d1 9d a5 bd e3 a5 8e 3d
       0.07116308 0.106980376 -0.08086742 0.06965234
0001a0 8b ed 7b bc 81 48 e9 3d 5c 2e 77 3d 86 22 c6 bd
       -0.015376459 0.11390782 0.060346946 -0.096745536
0001b0 aa d6 82 bd e6 cc e0 bc 2a 2c 03 be 1b 27 cf bc
       -0.063886 -0.027441453 -0.12809816 -0.025287202
0001c0 e2 ff 17 3d 3c 36 1c 3d 68 5c 90 3d ec db 11 be
       0.037109263 0.03813766 0.07048875 -0.1424405
0001d0 8a db 5f 3d 9f 04 e0 bd 06 54 9f bd 1b 4e 0a 3c
       0.05465273 -0.109383814 -0.07779698 0.008441473
0001e0 d5 87 bb bd 1b f7 99 3c f8 ba 38 bd da 40 4e bd
       -0.09156767 0.018794587 -0.045100182 -0.050354816
0001f0 0e f2 84 38 11 b9 9a 3c 5b 78 6a 3b 8c a2 5c bd
       6.339337e-05 0.018887075 0.0035777304 -0.053865954
000200 2b be 8b bd 56 d5 25 bd 4e 4f 31 bd b8 b9 e6 bd
       -0.06823381 -0.040486656 -0.04328852 -0.11265892
000210 70 ff 62 3c 22 85 9c 3d 00 dd 81 ba 89 c1 47 bd
       0.013854846 0.076425806 -0.0009907782 -0.048768554
000220 a1 d7 3e bd d8 b4 a3 bd 8e 23 98 bd c1 61 82 bd
       -0.04659236 -0.079934776 -0.074286565 -0.06366301
000230 12 7f a9 3d 54 11 2a 3d 12 a8 e8 bd de 42 37 bd
       0.0827619 0.04152043 -0.11360182 -0.044741504
000240 45 07 de bd 5d 9a a1 3d f7 a1 7f 3d ac ce ce bc
       -0.1084123 0.078907706 0.06241032 -0.025245033
000250 50 3c ed bd 37 80 a3 bd 8d 76 cb bd c3 3a ae bd
       -0.11583769 -0.079834394 -0.09934721 -0.08507302
000260 8b 06 dc 3d 2a 48 bc bd fb 37 62 bd 37 a3 c8 bd
       0.107434355 -0.09193452 -0.05522917 -0.09796756
000270 8c db cb 3d 2c 75 96 3b b8 85 62 3d 6a 59 3a 3d
       0.099539846 0.0045916047 0.055303305 0.04549543
000280 3a 8e f7 bd 7f 60 7a bc 82 78 18 bc f1 eb 35 bd
       -0.120876744 -0.0152817955 -0.009306075 -0.044414464
000290 7e 8a fc bd 3d 30 99 3c 96 70 83 bc 13 3a db bc
       -0.12331103 0.01869976 -0.016044896 -0.02676109
0002a0 8c 71 d9 3d 63 9b db 3d 38 c8 2a bb aa 4f fd 3d
       0.106173605 0.10722997 -0.002605928 0.1236871
0002b0 d8 6c 7b 3d b7 f7 00 be 14 e2 b3 3d 41 0f 7c 3d
       0.0613831 -0.12594496 0.08783355 0.061537985
0002c0 b3 c4 e3 3d 0c 27 87 bc 0a 73 cd 3d 08 b2 61 3d
       0.11121502 -0.016498111 0.100317076 0.055101424
0002d0 d1 ac 0f be c5 27 a9 bd 60 9c c5 bd 3d 1f 72 bd
       -0.14030768 -0.082595386 -0.09648967 -0.059111822
0002e0 9c ad d3 bd a5 ac c6 bd 3d e5 25 bd f7 91 2d 3d
       -0.10335848 -0.09700898 -0.04050182 0.04237553
0002f0 eb 0c b7 bd eb 15 e0 3d 34 ce 91 bc 80 6d 6f 3b
       -0.08938011 0.109416805 -0.01779852 0.0036533773
000300 f3 37 11 be 90 a0 0f be 96 53 8a 3d 9a 8c ee bc
       -0.14181499 -0.14026093 0.06754224 -0.029119778
000310 f8 b2 49 bd 0d 73 88 bd 5a 04 b1 3d 82 ce e3 3d
       -0.049242944 -0.06662569 0.08643408 0.111233726
000320 ae 33 e0 bd 9e 46 a1 bd a2 14 0f 3d 35 48 20 3e
       -0.10947357 -0.07874797 0.034931786 0.15652545
000330 d3 de 64 3d db 20 c4 3c ea 0d df 3d 23 0f c6 bc
       0.055876564 0.023941448 0.10891326 -0.02417714
000340 60 b9 66 bd 1a 6b bc 3b 0c 78 ee bd 32 84 1a bd
       -0.05632913 0.005750072 -0.11643991 -0.037723728
000350 82 85 df bd fe 3c 95 bd 7a 0f fd 3d eb 41 2b 3d
       -0.109141365 -0.07287024 0.123564675 0.04181091
000360 42 39 74 3d 9e 83 f4 3c 6e 20 80 3d b9 78 8c 3c
       0.059624918 0.029847916 0.062561855 0.017147409
000370 78 38 70 bd 84 9a 6e 3d 2a d2 a6 bd 39 fd 9a 3d
       -0.058647603 0.058252826 -0.08145554 0.0756783
000380 96 31 27 3d 84 22 95 bc 6d 68 d2 3d e4 33 8d bd
       0.040818773 -0.018204935 0.10273824 -0.06894663
000390 4a 64 d0 3d 87 f9 d9 bd 44 b7 a6 bd cc 14 18 bd
       0.101753786 -0.10643297 -0.08140424 -0.03712921
0003a0 00 7d 2e 3d 26 02 78 3c 87 5d 02 be a2 f9 b5 3c
       0.042599678 0.015137231 -0.1273099 0.02221376
0003b0 26 3d c4 bd 26 1f d2 bd ac b4 ea bd 0e df 63 3d
       -0.09581976 -0.10259847 -0.11460242 0.055632643
0003c0 cc b3 31 3d fe b2 a4 3d 52 2a ea 3d 72 0c f5 bd
       0.04338436 0.080419526 0.11433853 -0.119652644
0003d0 a6 e3 84 bd 0f 38 6c bc 31 16 a7 bd 4c af 38 3d
       -0.06488733 -0.014417662 -0.081585295 0.04508905
0003e0 15 80 81 bd 00 35 c4 ba 08 a8 8d 3d 9b 91 dc bd
       -0.06323258 -0.0014969409 0.06916815 -0.107699595
0003f0 97 60 95 3c f4 25 c4 bd 33 21 76 bd fb bf 0c be
       0.018234534 -0.095775515 -0.060090255 -0.1374511

bias f4 [100]
000000 bf 68 c0 3d a7 a0 9e 3c 8f 06 97 bd ac 1d 21 bd
       0.09394979 0.019363714 -0.07374298 -0.039334938
000010 de db a9 bd d4 6e d0 bd 25 95 aa 3c c8 e6 78 bd
       -0.082938895 -0.10177389 0.02082307 -0.060766965
000020 04 96 bd bd 07 d6 87 bd 73 0f a3 3d b3 e6 22 3c
       -0.09257129 -0.06632619 0.07961931 0.009942698
000030 98 4c 0d 3c 81 e8 93 bd 24 fd c1 bd e6 b4 d3 bc
       0.008624218 -0.07222081 -0.09472111 -0.025843095
000040 2d d2 e0 3d e8 aa f6 bd 9c 8b 0f 3b 62 d9 f3 3d
       0.10977588 -0.120443165 0.0021903282 0.11906697
000050 7c 8c 69 3d d6 57 a9 3d 85 fc 90 bd a6 dc 43 bc
       0.057018742 0.082687065 -0.07079414 -0.011954462
000060 44 27 8f 3d 90 34 b6 3d 8c 25 81 bc 3d e6 e5 bd
       0.06989911 0.08896744 -0.015764974 -0.11225555
000070 49 c4 1b be 8c 5f 8d bc c7 d4 96 bd 09 02 f3 3c
       -0.15211596 -0.017257474 -0.07364803 0.029664056
000080 18 f4 03 3e 12 9e 79 3c 2e cf e4 bc 29 dd ae 3d
       0.12886083 0.015235441 -0.027930822 0.08538277
000090 8c 5c af 3d 2b f5 0c 3e 3b cd f3 3a 97 f1 a5 bd
       0.08562574 0.13765399 0.0018600592 -0.0810272
0000a0 76 aa 0a be 69 87 df 3c 28 3b 80 3d 6b f0 4f bd
       -0.13541588 0.027286248 0.06261283 -0.05076639
0000b0 9c 75 de 3d 90 8a 99 bd 5a 78 92 bd 9f 98 3e bc
       0.10862276 -0.07497132 -0.071518615 -0.011633067
0000c0 26 17 db bd 75 10 16 bd b5 9c 8c 3d 00 1e d8 bd
       -0.106977746 -0.03663679 0.06865827 -0.10552597
0000d0 c5 fb 82 3d bb 14 90 bd 06 d3 74 bc d0 4c e2 3d
       0.063956775 -0.07035204 -0.01494289 0.11049807
0000e0 6b 44 40 3d db 8e 8a ba 20 bf 61 3d bc c6 04 3e
       0.04694025 -0.0010571139 0.05511391 0.12966436
0000f0 0c c8 5e bd 49 b2 0e bd 76 be 15 be c6 ad 90 3d
       -0.05439 -0.034837995 -0.14623436 0.07064395
000100 b7 af 35 3c fd 5d af 3d bb b2 cd 3d 41 85 d0 bd
       0.011089257 0.08562849 0.10043856 -0.10181666
000110 e5 0d a4 3c f8 90 14 3d 16 4e 03 3d 7e 1a cd 3d
       0.020026157 0.036271065 0.03205689 0.100148186
000120 03 7e 9a bd dd 38 06 3e d8 d8 ac 3d 5c 89 d2 3d
       -0.07543566 0.13107629 0.08439797 0.102801055
000130 57 7c 0e 3e 10 7a a5 bd 19 86 07 be e9 4b 8f 3c
       0.1391462 -0.08079922 -0.13234748 0.017492251
000140 26 2a b7 bd 70 6c c3 3d be f9 da 3d 68 ba c7 3d
       -0.08943586 0.09542167 0.10692166 0.09752351
000150 09 4c a6 bc 5e 67 59 bd b9 36 d7 3c 52 04 0d be
       -0.020299928 -0.053077094 0.026271211 -0.1377118
000160 a2 94 c1 3c ce f7 50 3c 0d 96 a6 3c ae f8 a8 3d
       0.023630444 0.012754394 0.020335222 0.08250557
000170 1d 2f d8 bd a2 e7 f0 3d d9 b1 bd bd a2 8e d7 bd
       -0.10555861 0.117629305 -0.092624374 -0.10525252
000180 69 d4 33 bc a1 38 a0 bd 55 13 90 3c 50 40 bb bd
       -0.0109759355 -0.07823301 0.017587343 -0.09143126

weight f4 [1, 100]
000000 d7 7d a0 bd e6 b8 b5 3c 2a e2 c6 bd 49 d9 d0 bc
       -0.07836502 0.022182893 -0.09711106 -0.025494235
000010 a5 2a 9e 3d fe d0 9c 3d 81 82 74 bd ee 37 9f bd
       0.077229775 0.076570496 -0.05969477 -0.077743396
000020 61 53 34 3d 29 20 4d bc 58 10 0d 3d 5c ab 9d 3c
       0.04402483 -0.012519875 0.034439415 0.01924675
000030 a3 15 7a 3c 04 76 f9 3c 60 d2 ed 3c ec a2 fa bc
       0.015263948 0.030451782 0.029030979 -0.030595265
000040 d8 26 95 ba 41 d5 ca bc 70 af ad bc bf 92 ac bc
       -0.0011379374 -0.02475989 -0.02120182 -0.021066068
000050 7f 46 79 bd a1 73 84 3d a6 09 3c bc 2f fd 6e bc
       -0.060858246 0.06467367 -0.01147691 -0.014586731
000060 81 c4 2d bd 92 ee 16 bd 7a 75 74 3d a5 6a 97 bc
       -0.04242373 -0.036848612 0.059682347 -0.01848347
000070 b2 a0 a9 bd 26 ac 9b 3d f0 29 97 3c ed 46 2b bc
       -0.08282603 0.07601194 0.018452615 -0.010453922
000080 37 50 56 bb 3e 8e aa 3d f5 eb fe 3b 28 27 8a 3d
       -0.003270162 0.08327912 0.007779593 0.0674575
000090 1b 91 b5 3d 4d 76 90 3d ff e3 b1 3d 92 d4 16 bd
       0.08865567 0.07053814 0.08686065 -0.036823817
0000a0 2e 3c 92 bd 1a 95 a7 3d 47 a0 b3 3d 91 f9 dc 3b
       -0.071403846 0.08182736 0.08770805 0.006743618
0000b0 e4 4b 1d 3d 23 0d d1 bb 52 48 89 bc ad 6b 94 bc
       0.038402453 -0.00637974 -0.016758118 -0.01811775
0000c0 bd d5 c7 bc 00 2b 92 3c 2f ed b7 3d 3c 96 c8 bd
       -0.02439391 0.01784277 0.08980786 -0.0979428
0000d0 61 d4 37 3d d5 c0 35 3d bf a6 98 bd d2 88 e1 bc
       0.044880275 0.044373352 -0.07453679 -0.027531061
0000e0 78 21 97 3c 85 93 44 3c f8 92 87 3d 17 9c 70 3d
       0.018448576 0.011998062 0.06619829 0.05874261
0000f0 b2 47 23 bd 83 7f 2b bd c5 7b a0 bc 48 65 b1 bd
       -0.039863296 -0.04186965 -0.019590268 -0.08661896
000100 a1 3a 6b 3d 69 f7 fd bc 85 cf 1e bd d3 6e 25 bd
       0.05742896 -0.031001763 -0.038772125 -0.040388893
000110 7e 5f cd 3c 7b fe 80 bd 4b a6 5f 3c 4b 17 df bb
       0.025069948 -0.06298538 0.013650487 -0.0068081967
000120 8b e8 08 bd 23 9a 99 3c c7 47 ac bd ba 43 16 3c
       -0.033424895 0.018750256 -0.08412128 0.009171421
000130 ad 15 28 3d 7a 9b 47 bd c8 e7 df bc d6 4e 80 3d
       0.041036297 -0.04873226 -0.027332202 0.06265037
000140 da b5 1c 3d b7 bb ec bc cf c2 ca bc de ed b6 3c
       0.038259365 -0.028898103 -0.024751095 0.02233022
000150 a2 54 24 3d 25 b9 57 3d 2d 3d a4 3d d6 7d 0d bc
       0.040119775 0.052666802 0.08019481 -0.008635959
000160 88 ee f6 bc e8 c3 88 3d eb 9f 14 ba 15 32 fb bc
       -0.030143037 0.06677991 -0.00056695816 -0.03066353
000170 d5 4c 06 bd 66 0c 83 bb 37 2b d9 bc 2f d6 80 3d
       -0.032788116 -0.0039992807 -0.026509864 0.06290852
000180 10 78 39 3c 00 fc 9c 3d 4b 7b 9b 3d 5f 8a 46 bd
       0.011320129 0.07665253 0.07591876 -0.048471805
