tests/fixtures/drop_in_model_artifacts/torch_multi.pth (torch_old, 8179 bytes, 4 tensors)

weight f4 [8, 17]
00000000: 94af 19bd ccd9 a23d d4c4 1abd e214 4f3e
00000010: 41e8 5fbe 3c24 263e 427b 2dbe 14ce 313e
00000020: 6476 04be 1231 6d3e dcdb 32be 80ba e73c
00000030: 8633 3d3e 12b6 3cbe 4410 c2bd ca53 64be
00000040: 8469 993d 4cef ca3d f4eb 6bbd 8ca3 bf3d
00000050: 99ba f2bd 0039 60ba a823 f63d 2059 1c3c
00000060: 1c8c e43d 1495 a43d 6002 83bc 1a80 b3bd
00000070: 4ad6 233e 4e05 0f3e c091 c03d e80f 3bbd
00000080: 7a58 65be a89f 023e e0eb 493d 74d0 743e
00000090: 812a 6fbe 00fe b83c 7851 8d3d e495 723e
000000a0: 084d ddbd e21a 043e 3aed 4dbe 80b0 ffba
000000b0: dcf1 ad3d f84b 27be 9ca6 c93d 0898 2e3d
000000c0: 5073 5a3d 7c19 cd3d 4004 ba3d d363 37be
000000d0: ec67 5f3e 664f 6b3e ec08 4e3e 4468 373e
000000e0: 6ed5 3f3e 703c 573d ce9d 58be 8c68 54be
000000f0: 9c75 5e3e 7ad0 0bbe c1ec 15be d4f5 c03d
00000100: 7870 ae3d afbb 75be 4007 663b 3c68 3dbe
00000110: a51e 2cbe e352 66be 08dc 553e d493 3f3e
00000120: 00f9 5fbb 141f 1dbd a03c 353d 8efc 28be
00000130: ba0c 683e f07f e13c 0055 063d 5d85 5cbe
00000140: 44c0 10be 94ce 38bd 486e 89bc a042 553c
00000150: 1031 123d f082 8d3c a493 d4bd ca87 453e
00000160: 34e2 17be 16b9 a9bd cc6d be3d 19c4 f3bd
00000170: 67f7 62be b881 713d 9de7 56be 080c 783d
00000180: 0072 933b 001f 903b daf5 0b3e f00d 4fbc
00000190: f80a 07bd 7005 473e 777f 40be b5ec 6fbe
000001a0: 8cd1 d0bd 58e6 eebd bce2 b83d c08e d1bb
000001b0: 902e 983d f8b7 e3bc 80b1 84ba 0c97 b1bd
000001c0: 84b7 093e d7f7 4cbe b0d0 c9bc aad5 f3bd
000001d0: e464 d23d da82 d6bd ff09 24be 32f9 e2bd
000001e0: 9708 78be 39fb 6abe c0de 4d3e c05c 043d
000001f0: 6e10 753e c649 0c3e d86e f7bc 301c fabc
00000200: 8a3e 3abe 31b8 45be 4094 33bb 1031 203d
00000210: 25c0 57be 02d6 313e 8c1a cc3d 700c 543e
-0.03752096 0.07951698 -0.037785366 0.2022281 -0.21865942 0.1622476 -0.1694155 0.17363769
-0.12935787 0.2316325 -0.17466682 0.028287172 0.18476686 -0.1842883 -0.09475759 -0.22297588
0.07490829 0.099089235 -0.05759807 0.09357366 -0.11851997 -0.00085534155 0.1201852 0.009542733
0.11159536 0.08036247 -0.015992343 -0.08764668 0.15999714 0.13966867 0.094027996 -0.045669466
-0.22397032 0.12756217 0.049297214 0.23907644 -0.23356058 0.022582054 0.069003046 0.23689991
-0.10805708 0.1290088 -0.20110026 -0.0019507557 0.08493397 -0.16337574 0.09846231 0.042625457
0.053332627 0.100146264 0.09082842 -0.17909174 0.21816987 0.22979507 0.20120591 0.17910868
0.1873376 0.052547872 -0.21153948 -0.20743006 0.21724552 -0.13653746 -0.14641096 0.09421888
0.085175455 -0.23997377 0.0035099536 -0.18496794 -0.16808565 -0.22492556 0.20884717 0.18708736
-0.0034175515 -0.038359717 0.04424727 -0.16502592 0.22661105 0.027526826 0.032795906 -0.21535249
-0.14135844 -0.045118883 -0.016776219 0.013016373 0.03569132 0.01727435 -0.10379723 0.1929008
-0.14832383 -0.082872555 0.09298286 -0.11902637 -0.22164689 0.0589616 -0.20986791 0.06055835
0.004499674 0.0043982267 0.13668004 -0.0126376 -0.032969445 0.19435668 -0.18798624 -0.2343014
-0.10196218 -0.11665028 0.09027621 -0.006395191 0.07430756 -0.027797684 -0.00101237 -0.08671388
0.13448912 -0.20016418 -0.024635643 -0.119059876 0.102731496 -0.10474177 -0.16019438 -0.110826865
-0.24222027 -0.22947396 0.20104504 0.032315016 0.23932049 0.13700017 -0.030204222 -0.030531019
-0.1818792 -0.19308545 -0.0027401596 0.03910929 -0.21069391 0.17366794 0.09966001 0.2070787

bias f4 [8]
00000000: 2827 5bbe ac21 2b3e 24d6 bc3d c813 c63d
00000010: a0cf 123d 3ec2 b6bd 46f3 2fbe ace5 e33d
-0.21401656 0.16712064 0.092205316 0.09671742 0.035842538 -0.089237675 -0.17182645 0.11127791

weight f4 [3, 8]
00000000: ba03 1a3e e881 29bd d11e 08be 4390 b33e
00000010: 8eb1 643e 39a1 a6be 96f7 223e 95f4 67be
00000020: 0958 823e f983 7fbe c59e adbe 8246 633e
00000030: 37f7 97be e6d9 343e 739e 4ebe a92f 8c3e
00000040: 9601 633e 60f0 4fbd 1c42 d0bd 4c4e 25be
00000050: 0c83 20be 0685 98be 1890 ce3d dbc8 893e
0.15040484 -0.041383654 -0.13293006 0.35071 0.22333357 -0.32544878 0.15914759 -0.22651894
0.2545779 -0.24952687 -0.33910194 0.22194865 -0.29680797 0.17661247 -0.20177631 0.27380112
0.22168574 -0.05076635 -0.10168859 -0.16143149 -0.1567499 -0.2978899 0.100860775 0.26911053

bias f4 [3]
00000000: 2d64 ac3e e83b 4e3d 5754 8b3e
0.33670178 0.0503501 0.27212784
