tests/fixtures/drop_in_model_artifacts/torch_bin.pth (torch_old, 32694 bytes, 5 tensors)

weight f4 [50, 5]
000000 b0 91 84 be b5 c1 d5 3e 18 41 be 3e c1 6d 0c be
       -0.258924 0.4174935 0.37159038 -0.13713743
000010 eb 05 25 be 28 20 c9 3e 57 ed f8 3d f7 97 e5 bd
       -0.16115539 0.39282346 0.12154644 -0.112106256
000020 a8 5e c3 be 55 40 71 be 59 bf 3a 3e d3 e9 c3 bd
       -0.38158154 -0.23559697 0.18237056 -0.09566083
000030 14 4c ab be d6 06 f9 3c 8d 3a a3 bd 61 66 96 be
       -0.3345648 0.030398767 -0.07970152 -0.29374984
000040 d4 b7 c7 3e 58 24 24 be 69 85 c8 bd 2c d6 d8 3e
       0.39007437 -0.16029489 -0.09791071 0.423509
000050 8b dc 70 3d 30 f5 d3 bc f3 73 63 3e b0 ac 81 bd
       0.058804076 -0.02587375 0.222122 -0.06331766
000060 91 cb 46 3e aa c7 9a be 40 6b 93 bc d2 47 86 3e
       0.19413592 -0.30230457 -0.017995477 0.2622667
000070 4c 51 b0 bd c5 0e d9 be 8e 4c 37 bd d6 27 d6 3e
       -0.08609256 -0.4239408 -0.044750743 0.41827267
000080 34 f0 bb 3d 66 c6 47 3e 53 0a 84 be 21 86 17 3d
       0.091766745 0.19509277 -0.25789127 0.03699315
000090 1b cd 04 3d a0 9a da 3e e8 0d 23 bd e3 43 37 be
       0.032422166 0.42696095 -0.039808184 -0.1789699
0000a0 b2 be bb be 4e 85 d4 3e 78 f9 86 3d ed 9a 51 3e
       -0.36668926 0.41507953 0.06590551 0.20469256
0000b0 a1 c4 ad be c4 a7 e0 bc 24 62 28 3d 76 28 94 3e
       -0.33939078 -0.027423747 0.04110922 0.2893712
0000c0 84 09 8b be 69 49 a7 be 8e ba 8b be 22 73 1b be
       -0.27155697 -0.32673195 -0.27290767 -0.15180638
0000d0 70 e1 46 be 00 24 1a 3d 7a 5e 46 be 28 94 8b 3d
       -0.19421935 0.03763199 -0.19371977 0.06815368
0000e0 f7 87 dd 3e 10 68 56 3e 3c 55 0d be 65 53 33 bd
       0.43267795 0.20938134 -0.13802046 -0.043780703
0000f0 60 37 04 bc c4 79 90 bd 00 0e 0f be 80 d9 32 be
       -0.008069843 -0.07054475 -0.13970184 -0.17465782
000100 a0 46 4b 3d 2a fd ab be 80 a3 11 3b 2a af 36 be
       0.0496279 -0.33591586 0.0022222698 -0.17840257
000110 74 f9 33 3e 20 21 e2 3e de ef c1 bd 13 0d df 3e
       0.17575628 0.44165897 -0.09469579 0.43564662
000120 10 c7 9e 3d 28 c9 2c 3e 78 17 1b 3d ef bd 43 3d
       0.07752812 0.1687361 0.03786418 0.047788557
000130 4f fe 60 3e cd 35 5f be 3b f2 02 be a2 df f6 3d
       0.21972011 -0.21797867 -0.12787716 0.12054373
000140 bf c8 40 3e 68 df 11 be 57 67 6b be 42 b6 35 be
       0.18826579 -0.14245379 -0.2298864 -0.17745307
000150 0d 5b e8 3e bc 43 13 3e ff 82 45 3e 21 60 2e bd
       0.45381966 0.14381307 0.19288252 -0.042572144
000160 ee 45 6d 3e 22 83 c6 be ef 66 4c bd f6 d5 9b bd
       0.23171207 -0.3877192 -0.049902853 -0.07609169
000170 dc 90 8e 3e 62 88 1c bb e7 9c 05 3e 26 92 bd be
       0.27844894 -0.0023885001 0.13048135 -0.37025565
000180 f0 31 61 3e a0 1f b0 bd 5c 7f 20 3d ef fa c2 be
       0.21991706 -0.08599782 0.03918396 -0.38082072
000190 d8 45 17 be b8 c2 1a 3d 7c ac a4 be b0 0b 5e bd
       -0.14772737 0.037783355 -0.32162845 -0.054210365
0001a0 49 ba af be 22 47 11 be 98 87 c7 bd 50 2b ef 3c
       -0.34321812 -0.14187291 -0.09742659 0.029195458
0001b0 22 26 a4 be 48 2b 53 bd b3 49 96 3b 67 f2 92 3e
       -0.32060343 -0.051554948 0.0045864224 0.28700563
0001c0 d0 a2 c1 3e 97 3c 76 3c 47 79 c2 3e cb d9 a8 3d
       0.3781953 0.015029094 0.37983152 0.08244666
0001d0 a5 1b 96 be 13 af bd 3e 63 01 1e 3e 5a 88 e3 3e
       -0.29317966 0.37047634 0.15430216 0.44439965
0001e0 a5 33 c4 3e 9d 42 ca 3e c5 3f e4 be 82 20 aa 3d
       0.38320652 0.39503947 -0.44579902 0.083069816
0001f0 78 e1 83 3e ca dc c3 be 1b 96 53 be d4 81 db be
       0.25757957 -0.38254386 -0.2066273 -0.42872488
000200 fd 48 d7 be 00 e4 69 3a 9d 95 88 be f9 26 ea 3d
       -0.42047873 0.0008922219 -0.26676646 0.11433215
000210 c4 9a 6b 3e 67 31 ba 3d 32 97 50 3d 6d 36 ba be
       0.23008257 0.09091454 0.05092544 -0.3636965
000220 e8 43 91 be 18 22 30 3e fe 83 35 be bc 4a 14 be
       -0.2837212 0.17200506 -0.17726132 -0.14481634
000230 cd d3 8e be 17 5b b1 3e db 50 e8 3d 04 78 b7 be
       -0.27895966 0.3463981 0.11343547 -0.35833752
000240 a3 b6 b8 be a0 95 8e be 40 2d 0b bc 10 b2 a3 bd
       -0.3607684 -0.2784853 -0.008494675 -0.07992947
000250 10 c6 9f be 4e 57 12 be ab 1d 57 3e 87 d6 d0 be
       -0.31205797 -0.14291117 0.21007411 -0.4078867
000260 57 1b 95 3e 2a 1b 99 be ec 40 a0 3e d2 c0 29 3d
       0.2912242 -0.29903537 0.3129953 0.041443653
000270 89 9a d9 3e bd 60 e4 bd 59 0f 99 3e 58 3f 2b 3e
       0.42500713 -0.11151264 0.29894522 0.16723382
000280 54 8a 37 be 66 f8 20 be 98 06 ad 3d 9a fc 90 be
       -0.17923862 -0.15719756 0.08448523 -0.2831772
000290 80 de bc bc 90 b5 9f bd db a3 20 3e 06 f0 38 3e
       -0.023055315 -0.07798302 0.15687506 0.18060312
0002a0 f6 7a 76 be 6d f5 b7 be 6f 02 a1 bd e5 d0 b2 3e
       -0.24070343 -0.35929433 -0.07861792 0.34925
0002b0 c2 53 e9 be af de be bd c0 0e 4c bd 47 dc 2a 3e
       -0.45571715 -0.09319817 -0.049818754 0.16685592
0002c0 f8 7d 89 bd 72 74 d6 be 58 a6 7b 3c 95 b0 ff 3d
       -0.0671348 -0.41885716 0.015359484 0.12484852
0002d0 87 e4 e1 3d da 83 af 3e b7 1a 92 3e 52 1e 43 3e
       0.11029916 0.34280282 0.28536007 0.19054535
0002e0 b8 df 9b be 6c 1b df 3e 98 e2 b5 be f3 7f f6 bd
       -0.3044412 0.4357561 -0.3552444 -0.12036123
0002f0 ca 03 34 3e 36 8b a5 3e eb 81 a6 3e 88 14 51 bb
       0.1757957 0.32332772 0.32520995 -0.0031903107
000300 a2 7e d3 3e 02 29 9b 3d f5 f6 81 bb 62 86 25 be
       0.4130755 0.07576181 -0.003966207 -0.16164544
000310 78 a1 3e 3d 30 c9 b5 bc 64 fb 82 be 00 0b 6c bc
       0.046540707 -0.02219066 -0.2558242 -0.0144069195
000320 43 e5 9f be 22 53 8f 3e 88 3a ab 3d c1 35 71 be
       -0.312296 0.27993113 0.08360773 -0.23555662
000330 87 3b dc 3e 90 e5 9a be a7 15 af be 37 f7 b6 be
       0.43014166 -0.30253267 -0.34196207 -0.35735485
000340 64 85 88 3e b2 8d b7 be 02 7c c2 3e 37 5c ea bc
       0.2666427 -0.35850292 0.37985235 -0.028608425
000350 dc 98 8f 3e 98 79 4c 3e a6 97 d8 3d 04 9d af bd
       0.2804631 0.1996826 0.105758 -0.0857487
000360 76 da bd be c6 1a 9b be 78 c1 2e 3e 40 b5 85 bd
       -0.37080735 -0.30293864 0.1706599 -0.06528711
000370 8c 83 8d be 4f c6 ca 3e b6 fb 2b 3e 7c 05 dc 3e
       -0.27639425 0.39604422 0.16795239 0.42972934
000380 dd 18 ce 3e b9 c1 e2 be 4c 3e 0b 3e a2 ca b5 be
       0.40253344 -0.44288424 0.13597983 -0.3550616
000390 e2 74 bc 3e f8 a0 19 be 3d 8c a0 3d cf 4a 16 3e
       0.36807925 -0.15002811 0.07839248 0.14676975
0003a0 80 69 76 be 59 80 86 3e b7 8d aa bb e7 c4 01 3c
       -0.24063683 0.26269796 -0.005204882 0.00792048
0003b0 9f 0d 7e 3e 23 a0 c0 be f8 ac 59 3e 8f 99 7d 3e
       0.24809884 -0.37622175 0.21257389 0.24765609
0003c0 9f a7 40 be e8 18 60 3e 1b 7c ed 3e 2f a3 23 3e
       -0.18813942 0.21884501 0.46383747 0.15980218
0003d0 c1 21 30 3d 9f 78 5d be e0 0e b2 be 28 47 58 bd
       0.04300094 -0.21628045 -0.34776974 -0.052802235
0003e0 38 04 90 3d 28 c6 dc be
       0.07032055 -0.4311993

bias f4 [50]
000000 9c d4 bc 3d c9 a8 f5 bd 4c c8 e7 be 0e 52 33 3e
       0.092202395 -0.11995084 -0.45270002 0.1751177
000010 7a 56 32 be d8 df cf be 13 0c c1 3d 46 55 ca be
       -0.174158 -0.40600467 0.09426131 -0.39518183
000020 6b 75 a1 bd 2e 82 94 bd e6 bb 8e be 51 c0 6d 3e
       -0.07883724 -0.07251392 -0.2787773 0.23217894
000030 80 51 b4 3b fa f6 02 be 10 d8 cb 3e bb 82 33 be
       0.0055028796 -0.12789527 0.3981328 -0.17530338
000040 e5 6d 40 be 83 58 64 3e 2c 92 d6 3e cb a9 e6 3d
       -0.18791921 0.2229939 0.41908395 0.11262854
000050 f8 d1 9d be 00 60 3b 3b dd 3d ca be f1 57 e5 be
       -0.30824256 0.0028591156 -0.39500323 -0.44793656
000060 80 96 7e be 38 48 f9 3d d8 8b 7b 3e c0 55 b2 be
       -0.24862099 0.12171978 0.24565065 -0.34831047
000070 fd d7 b6 be a3 0c 7d be 6b 9a 39 be 53 5b 23 3d
       -0.3571166 -0.24711852 -0.18125312 0.039882015
000080 06 4b bc be 3b dd 88 bd 0d a3 35 bd 0d 20 56 be
       -0.36775988 -0.06682821 -0.04434495 -0.20910664
000090 ca 21 a3 3d 1f ce b3 3e 80 67 7d be a8 3b d8 be
       0.07965429 0.35118195 -0.24746513 -0.42233014
0000a0 35 1c 9f be 30 31 b3 3e 8a 4b ef 3c 54 55 a1 bd
       -0.31076208 0.34998465 0.029210825 -0.07877603
0000b0 89 de cd 3d b8 4a ae 3d 55 d5 e3 3d d1 0f 9a be
       0.10052211 0.08510345 0.11124674 -0.30090192
0000c0 e4 26 c2 3e 5d d9 b9 be
       0.37920296 -0.36298648

weight f4 [100, 50]
000000 88 f7 92 b9 d1 48 ff 3d 61 65 f1 3c fc 35 0d 3e
       -0.00028031715 0.124650605 0.029467287 0.13790125
000010 34 06 a6 bd 74 da bf 3d 87 b1 29 3e 23 5e 79 3d
       -0.08106652 0.093678385 0.16571628 0.06088079
000020 d5 ee 94 bd e4 01 c0 3d 2e 65 b5 3d 4b 73 ca 3d
       -0.07272116 0.093753606 0.08857189 0.09885272
000030 d2 98 fd 3d bc 5c e1 bc a2 f7 01 3d 8e 03 5d 3d
       0.12382664 -0.02751004 0.0317303 0.05395847
000040 65 e3 d8 bc 97 5a 45 bd 02 17 22 3e 13 b8 a7 3d
       -0.026475618 -0.048182096 0.1582909 0.08189406
000050 32 a5 ac 3d d4 26 f9 bd 77 d9 06 bd e4 16 dd bd
       0.08429946 -0.12165609 -0.032922234 -0.10795382
000060 eb 56 ef 3d e4 ac 6a 3d 26 c4 e4 bd a8 70 ea 3c
       0.116865 0.057293788 -0.11170225 0.028618172
000070 7b c3 44 bd e0 59 27 3c 7d a9 78 3d c9 d9 a8 bd
       -0.048037987 0.010214299 0.06070851 -0.08244664
000080 80 96 c9 bd 76 82 29 3e 47 de 15 3e 7d ab 88 3d
       -0.09843159 0.16553673 0.14635573 0.06673334
000090 8a 58 33 3d 8f a5 31 bc 39 c4 b2 bd 37 fa 87 bd
       0.04378561 -0.010842695 -0.08728833 -0.066395216
0000a0 53 d9 2f bd 88 f9 2c 3d d3 49 b0 3d 40 6a be 3d
       -0.042931866 0.04223016 0.08607831 0.09297609
0000b0 61 d8 e5 3d a2 60 ea 3d 21 a4 e5 bd 36 23 aa 3d
       0.112229116 0.114442125 -0.11212946 0.08307497
0000c0 dd 36 04 3e 70 b0 cc 3c 4d 39 de 3c ba 36 e8 3d
       0.12911554 0.024986476 0.027126933 0.11338563
0000d0 6a f7 9f bb 8f 91 ee bd 62 c8 e4 bd 98 2a a3 bd
       -0.004881789 -0.11648857 -0.111710325 -0.079671085
0000e0 93 ba d7 3d fa 8c 6f bd 95 43 df 3d 89 30 fc 3d
       0.10533633 -0.058484055 0.10901562 0.12313945
0000f0 00 ce 6a 3b 13 0c 20 bd dc 1b 72 bd 00 ba 82 b9
       0.0035828352 -0.039074015 -0.0591086 -0.00024934113
000100 98 c2 15 3e 1d d4 05 be 73 da 07 3e 7a ad c3 bd
       0.14625013 -0.13069196 0.13266926 -0.095545724
000110 77 a2 9a 3d 76 50 1f 3e 00 38 bf bd ca 6b 55 bd
       0.07550519 0.15558037 -0.09336853 -0.05210475
000120 1d 52 cf bd 4b 6d 97 bd 6a 69 b6 bd ac d5 05 3d
       -0.10123084 -0.07393893 -0.08906825 0.032674477
000130 90 b0 e3 3d 60 2c c0 bb 95 06 0a 3e ae 2a 90 3d
       0.11117661 -0.005864665 0.13479073 0.070393905
000140 eb 96 07 3c 2e bf ce bd 10 35 32 bd f2 de dd bc
       0.008275728 -0.100950584 -0.043507636 -0.027083848
000150 f0 34 06 bd 00 25 f4 3d dc 2c 5a 3d 4f d2 f6 3d
       -0.03276533 0.1192112 0.053265437 0.12051832
000160 10 1e bd 3d 12 58 37 bd 51 30 ec 3a c0 c7 8d bd
       0.092342496 -0.044761725 0.001801977 -0.06922865
000170 d2 9e 9f bd b0 7c 76 3c 0b 1d 1f 3e f0 31 49 bc
       -0.077939644 0.015044376 0.15538423 -0.012279972
000180 0c 50 be 3d 0d 11 16 be 40 8e 0a bd f0 67 39 3c
       0.092926115 -0.14654942 -0.033827066 0.011316285
000190 18 c2 e9 bd 7e e7 0b 3c b2 be b3 bd a8 da 18 bb
       -0.114139736 0.008539079 -0.087766066 -0.0023323689
0001a0 e0 b9 8d 3d c0 2a 39 bc c7 57 a4 3d 83 1f 00 3e
       0.069202185 -0.011301696 0.08024555 0.12512021
0001b0 f5 66 00 bd 63 04 82 3d a0 d4 e8 bd 41 10 dd 3d
       -0.031348187 0.06348493 -0.1136868 0.10794116
0001c0 4d 87 05 be d0 22 cf bd 61 50 9f 3d c1 a5 b9 bd
       -0.13039894 -0.10114062 0.07779003 -0.09064818
0001d0 6b a1 ce bd 4f d0 fe bd 6d e2 14 3e 71 26 e2 bd
       -0.10089382 -0.124420755 0.145395 -0.11042488
0001e0 be 59 ec bd 2b 41 0a 3e fc c5 09 3d ae fe a6 3d
       -0.115405545 0.13501422 0.03363608 0.08154045
0001f0 6c 48 cd 3b 08 8b cb 3d 02 6f 01 3e 83 31 0d 3e
       0.006264737 0.099386275 0.12640002 0.13788418
000200 31 d5 4f 3d 72 ec a8 3d 69 6e 87 bd 6b b8 b5 3d
       0.050740425 0.08248223 -0.06612856 0.088730656
000210 48 18 8c bc 65 20 a0 3c 92 fc 89 bd ba 3e 4c 3d
       -0.017101422 0.019546697 -0.06737627 0.04986451
000220 57 4c 8d bd 3f a4 c8 3d c7 5d 7c 3c 96 d0 c6 bd
       -0.06899326 0.097969525 0.015403218 -0.09707753
000230 cc e2 70 3d 36 d2 0f be 9c 3c d0 3c 5a 14 0e be
       0.05881004 -0.14045033 0.025419526 -0.13874951
000240 46 dd 93 3b 10 50 88 3c 45 f0 7b 3c 65 a6 25 bd
       0.004512462 0.01663974 0.015377109 -0.04044189
000250 ba ec 2e bb 80 7d ad ba 88 2c 45 3b 64 46 dc bd
       -0.0026691393 -0.0013236254 0.0030086357 -0.107556134
000260 52 04 ee b8 24 a8 fe 3d 7b c8 01 be 26 2c ad 3d
       -0.00011349529 0.12434414 -0.12674133 0.08455686
000270 b8 85 3f 3c 37 0b a5 bd 5b 74 dd bd c2 14 e0 bd
       0.011689596 -0.0805878 -0.10813209 -0.10941459
000280 f4 b2 87 3d 46 02 02 be 7b 87 ba bd 9f c4 9f bd
       0.066259295 -0.1269618 -0.09107872 -0.07801174
000290 63 fd 85 bd 84 c7 1a 3d ff a3 9f 3d 55 76 d5 3d
       -0.0654247 0.03778793 0.07794952 0.10422961
0002a0 ac b3 88 bc 66 60 1b 3e 5e 9a bb bd a0 75 03 3d
       -0.016687237 0.15173492 -0.091603026 0.032094598
0002b0 9e 8e 05 3e a9 8d fa 3d dc be a0 bd b0 bd e9 bd
       0.13042685 0.12234051 -0.078489035 -0.11413133
0002c0 4c a6 05 3e 1a 8c 47 bd 2b 67 21 bb 2e d9 03 be
       0.13051718 -0.048717596 -0.0024628143 -0.12875816
0002d0 92 b0 96 bd 63 35 e9 bd fc 83 d9 bc c9 0f 8c bd
       -0.07357897 -0.11387136 -0.026552193 -0.06838948
0002e0 91 e5 aa bd 96 bd 1a be 1b 45 5b bd 63 f1 f9 bd
       -0.083445676 -0.15111384 -0.0535327 -0.12204244
0002f0 dd 43 92 bc 3d d2 0e 3e 1c f0 1e 3e 44 4d 2f 3d
       -0.017854625 0.13947387 0.15521282 0.042798296
000300 02 e7 24 bd 5e 23 51 bd c9 c3 cf bc 2a 2b e9 bd
       -0.04025937 -0.05105912 -0.025361912 -0.11385186
000310 6c 2c a4 bd 1f ba 12 3d ec 05 02 3e 60 07 c6 3b
       -0.08016285 0.03582203 0.12697572 0.0060433596
000320 e9 59 84 bd 3d b7 b7 3b c4 cd cf 3d e1 e1 7b 3d
       -0.064624615 0.0056065605 0.101466686 0.06149471
000330 b1 91 eb 3b 8c 9f 85 bd 2b 71 ae bd 70 8d e4 bd
       0.0071889986 -0.06524572 -0.08517679 -0.111597896
000340 e7 56 15 3e 85 e0 00 3e ba 1b ac 3d c2 8c 07 bd
       0.14583932 0.12585647 0.08403726 -0.03309322
000350 70 3b af 3d 89 4d 01 3e 44 7b 35 3d 91 6a 82 bd
       0.08556259 0.12627234 0.04430701 -0.06367982
000360 5b c0 65 bd 19 45 11 3d de f3 85 bd 69 9f b5 3c
       -0.056091648 0.035466287 -0.065406546 0.02217074
000370 17 4f 8c bd 11 4a 07 be a6 6a cb 3c ed 4a 78 3d
       -0.06851023 -0.13211848 0.024831127 0.06061833
000380 96 f6 05 be 55 f1 9a bd 2c da b0 3d e0 a9 f8 bb
       -0.13082346 -0.07565562 0.08635363 -0.00758861
000390 5e 82 1c 3e d8 e8 a3 bc 3e b1 a8 3d 0c 55 e0 3b
       0.15284106 -0.02000849 0.08236931 0.006846076
0003a0 ef a3 06 3e 00 90 e0 bc c4 bd 72 3d 8d f6 c3 bd
       0.13148473 -0.027412415 0.059263006 -0.0956851
0003b0 9d 31 a1 3d 4d 18 ec bd 02 fb 1c 3d 00 3a aa 39
       0.07870791 -0.115280725 0.038325317 0.0003246814
0003c0 2a 67 93 bd a0 76 e5 bb 47 4e ea bd 92 56 0b be
       -0.07197411 -0.0070026666 -0.114407115 -0.13607243
0003d0 9d 77 65 bd 8c 36 62 3d 97 61 9a 3c 8f f6 50 3c
       -0.056022275 0.0552278 0.018845363 0.012754097
0003e0 ee c4 1a 3e 19 ab 0e 3e 49 dd f1 bc a6 63 d8 bc
       0.15114185 0.13932456 -0.029524462 -0.026414704
0003f0 b1 a8 05 3e 94 c0 42 3c 91 0d 9f bd ce c5 e4 bd
       0.13052632 0.0118867345 -0.077662595 -0.11170541

bias f4 [100]
000000 6d 43 df bc c1 0b 10 3e 93 bb a2 3d 19 43 a4 bc
       -0.02725383 0.14066984 0.07945933 -0.020051526
000010 b5 d0 81 3d 02 d2 4e bb e3 ad a9 bd 07 61 c2 3d
       0.06338636 -0.003155828 -0.082851194 0.09491163
000020 ab e6 40 bd 42 ee d5 bd 1a 77 d6 bd 71 ec 89 bd
       -0.047094982 -0.10445835 -0.104719356 -0.06734551
000030 a8 bb 8d bd 72 22 05 3e c6 d5 0d bd a2 35 69 bd
       -0.06920558 0.13001421 -0.0346277 -0.056935914
000040 f6 b5 7a bd 75 bd 16 3e 9e c1 fb 3d b2 29 c1 bd
       -0.061208688 0.1472071 0.12292789 -0.09431781
000050 0a 44 46 bd 9e 00 38 3c 2c 50 a6 bd 00 f7 bb 3d
       -0.04840473 0.011230616 -0.0812076 0.09177971
000060 9a 5d 19 be 0d f5 59 3b 71 3e f6 bb 0e 12 da bd
       -0.14977112 0.0033257634 -0.007514768 -0.10647975
000070 db ec 5e 3c f2 4d 17 bd 05 73 92 3d 49 50 05 3d
       0.013606275 -0.03693957 0.071508445 0.03254727
000080 11 30 ba bd ea cb 04 3d 57 4c 84 bd 2f e2 94 bc
       -0.09091199 0.03242103 -0.06459873 -0.018174259
000090 fb 9f e1 bd 33 e9 95 ba 34 9d c1 bd 3a fa 63 bd
       -0.11016842 -0.0011437297 -0.09453812 -0.055658557
0000a0 99 94 b0 bd ab d1 98 3c fa 29 b4 bd dd 37 02 bd
       -0.08622093 0.018654665 -0.08797069 -0.031791557
0000b0 08 4a 02 3e 6a 6b 05 bd 22 11 d1 3b 40 84 8a bc
       0.12723553 -0.03257314 0.006380216 -0.016908765
0000c0 ff f3 53 bd 35 c5 9c 3d 27 66 67 bd 4c f6 97 3d
       -0.051746365 0.07654802 -0.056493904 0.07420024
0000d0 fe d7 0c 3e f0 bf 42 3d fd 37 f9 bd 74 90 a2 bd
       0.1375427 0.047546327 -0.12168882 -0.079377085
0000e0 79 55 44 3d fd ff b0 3d db 82 97 3b 1d 9a 85 3d
       0.047933076 0.08642576 0.0046237535 0.065235354
0000f0 80 77 c7 3c 6b b0 03 3e bf ff 73 bd 48 90 6e 3c
       0.024348974 0.12860267 -0.05957007 0.0145607665
000100 a0 b0 fa bd b7 bd a7 3d 7c c1 c1 3d 11 a2 11 be
       -0.1224072 0.08190482 0.09460732 -0.1422198
000110 f3 fc 3e 3d 5e 27 24 3d 55 de eb 3d 74 40 bb bd
       0.04662795 0.040076606 0.11517016 -0.09143153
000120 4a ac 22 bc 82 2e fc 3d 54 4c e2 3d a0 a7 02 3e
       -0.009928772 0.12313558 0.11049715 0.12759256
000130 9d 12 64 bd 49 68 e1 3c e0 5b b4 bd c1 2c 5e bb
       -0.055681814 0.027515547 -0.08806586 -0.0033901187
000140 e3 49 ba bd 3b 11 11 be a0 7e bb 3c 55 47 03 be
       -0.09096124 -0.14166729 0.022887528 -0.1282018
000150 41 9e c1 3c d1 c2 9a 3d 01 64 f6 bd 54 35 1e 3e
       0.023635032 0.075566895 -0.12030793 0.1545003
000160 d0 66 38 bd 4b 81 31 3d 37 0e e1 39 79 70 a8 bd
       -0.045019925 0.043336194 0.00042925935 -0.082245775
000170 27 4a 63 bc 8a 98 a0 3c f3 ff df bd 43 54 9e 3d
       -0.01387266 0.019603986 -0.1093749 0.077309154
000180 78 e9 dc bd 1a 88 6f 3c 9a 47 ed 3d 9b 73 ef 3d
       -0.10786718 0.0146198515 0.115859225 0.11691972

weight f4 [1, 100]
000000 80 1d 44 bd 54 f6 2e bd 0e 60 c3 bb b5 1a c4 bd
       -0.047879696 -0.042715386 -0.0059623783 -0.095754065
000010 81 0c b7 bc ba 07 46 3d f3 3e dd bd d9 f5 93 bd
       -0.02234483 0.048347212 -0.10803022 -0.07224626
000020 6a 65 52 bd a6 0e e1 3c a2 e9 e1 3c 6b b3 67 ba
       -0.051366247 0.027472805 0.027577225 -0.0008838686
000030 ee 91 43 3d 0b 65 dc bb 38 85 74 3b 5b 1a 77 bd
       0.04774659 -0.0067259124 0.003731085 -0.06032787
000040 05 be 66 bd 8a 5d 31 bd 83 29 ac bd 16 f0 bd bd
       -0.05633356 -0.043302096 -0.08406355 -0.092743084
000050 b0 07 6a bd 41 68 10 3c d1 49 64 bc b6 65 5c bd
       -0.057136238 0.008813919 -0.013933615 -0.053807937
000060 79 1f be 3c dd a9 0b bd 49 b5 2e 3d 2d 27 be 3c
       0.023208367 -0.03409754 0.042653356 0.02321204
000070 cf 06 84 3d 43 da 03 bd 16 3c 96 3d 09 f3 d3 bd
       0.06446611 -0.032190572 0.07335679 -0.1034909
000080 c2 89 86 3d e5 b2 ab bc 89 42 9b 3d 36 21 95 3d
       0.06569244 -0.020959327 0.0758105 0.07281725
000090 db fc cd 3d 6a 0f a9 3c 63 46 81 bd 4d 76 bc 3d
       0.10057994 0.020637233 -0.06312253 0.092022516
0000a0 ec f3 b0 3d 14 30 b5 bc b3 34 a1 bd 6d 3a 75 3d
       0.086402744 -0.022117652 -0.0787138 0.059870172
0000b0 a6 16 26 bd a0 95 6b 3d 64 f3 b1 3c ea dd a2 3d
       -0.040548943 0.05751574 0.021722503 0.07952483
0000c0 98 0e 8b 3d f4 52 26 b9 de 03 0f bc 27 7b 20 3d
       0.06789893 -0.00015861896 -0.008728949 0.039179947
0000d0 d5 a0 6f bb 51 83 23 bd c7 ef 26 bd 04 c8 57 bd
       -0.003656437 -0.039920155 -0.040756013 -0.052680984
0000e0 89 a9 bb 3d 89 4f d3 bc 44 0f 52 bd a3 93 af 3d
       0.09163196 -0.025794761 -0.05128409 0.08573081
0000f0 32 0a 11 3d dc 25 7e bd 96 06 28 3d 6f 44 9c bd
       0.035410114 -0.062047824 0.041021906 -0.0763024
000100 09 f3 a5 3c 41 93 68 3c 6a 4e 8e bd b4 5f f2 3c
       0.02025749 0.014195264 -0.0694855 0.02958665
000110 3d 37 5b ba 49 9f 78 bd ea 90 55 bd 5e 28 92 bc
       -0.0008362418 -0.06069878 -0.052140154 -0.017841514
000120 29 29 a5 3d 88 b9 84 bd c1 e4 ca 3d 7a 0e 83 bd
       0.08064491 -0.064807 0.099069126 -0.063992456
000130 74 10 34 bd dd eb 71 bd 9c 2c 62 3d ba ad 70 bd
       -0.043961003 -0.059062827 0.055218324 -0.05875943
000140 6b f6 c8 3c d5 56 36 3d f8 49 ba bd ba 5c 7a 3c
       0.024531564 0.044516403 -0.0909614 0.015280897
000150 2f bf e1 3d 39 bf 83 bd de 80 be 3d 7e 0e 28 bc
       0.110227935 -0.06432957 0.09301923 -0.010257361
000160 66 5a 50 bd 27 fe e1 bc 59 1d 91 3d 99 bf 90 bd
       -0.05086746 -0.02758701 0.07085676 -0.07067794
000170 05 d7 a9 3d 13 f2 13 3d c0 78 89 bc eb 91 70 bd
       0.08292965 0.03611953 -0.01678121 -0.05873291
000180 99 b4 e0 bb f2 d0 85 bd 5f f2 9b bd 16 90 9a bc
       -0.0068574664 -0.06533994 -0.07614588 -0.018867534
