tests/fixtures/drop_in_model_artifacts/torch_reg.pth (torch, 31172 bytes, 5 tensors)

weight f4 [50, 33]
000000 db fd c9 3d 76 cd ce 3c 89 00 4f 3d 5a 3c 1b bd
       0.09862872 0.025244456 0.05053762 -0.037899353
000010 13 7b d8 bc fa 4d 1c be c8 18 05 3e 84 dc 0f 3e
       -0.026425874 -0.1526412 0.12997735 0.14048964
000020 99 ad 54 3c 55 49 87 3e 81 7b 69 3d 6b 2f c1 bd
       0.012980842 0.26423135 0.057002548 -0.094328724
000030 e4 48 84 3d f6 86 0b 3e b3 83 92 3d 1f 59 cb 3d
       0.06459215 0.13625702 0.07154026 0.09929108
000040 7e ef 6b bd 5e dd fb bd 00 1c 29 3e e7 a8 50 3e
       -0.057601444 -0.12298082 0.16514587 0.20376931
000050 93 88 db 3d 12 8d 02 3e 69 db ca 3d e7 c5 5e bd
       0.10719409 0.12749127 0.099051304 -0.054387953
000060 2c 93 0d bd c1 66 1f 3e 26 16 0e 3e ef 61 86 bd
       -0.034564182 0.15566541 0.13875636 -0.06561648
000070 5f 5e f4 bd cd 7b 19 be 49 60 d7 3d 8b fd a5 3e
       -0.11932062 -0.14988633 0.10516412 0.3242
000080 c0 37 2a 3e 38 d2 03 be e4 e0 6e 3e 49 af c2 3d
       0.1662283 -0.12873161 0.23327976 0.09506089
000090 dc 1c a7 bd 92 f8 db 3d 74 7c f1 3d 78 60 41 3e
       -0.08159801 0.107407704 0.11791316 0.18884456
0000a0 f9 08 2e 3e 8c 60 e6 3d b2 f3 0f 3e 79 46 68 3d
       0.1699561 0.112488836 0.14057806 0.056707833
0000b0 65 c4 91 3d 34 7b 48 bd c7 ff 7d 3e 2c 87 a0 bc
       0.071175374 -0.04894562 0.24804603 -0.019595705
0000c0 84 aa 59 3e a9 8d f5 bd fc de a0 3b d8 f2 0a 3e
       0.21256453 -0.1198991 0.0049093943 0.135692
0000d0 f0 44 39 3e 3d 49 9e 3e e4 ee 00 3e 96 c4 32 3d
       0.18092704 0.3091525 0.1259113 0.04364451
0000e0 8f ca a6 bd 04 12 9c bd a0 e8 a3 bd d7 bb 2a 3e
       -0.08144104 -0.07620624 -0.08003354 0.16673218
0000f0 cb 35 f0 bd a4 e3 4d 3d 6b cf 0d 3a 43 74 8f 3e
       -0.1172901 0.050265923 0.0005409631 0.28018388
000100 08 34 b9 3e 88 6b 70 bd 36 e8 82 3c af 94 1a bd
       0.3617251 -0.0586963 0.015979867 -0.037739452
000110 72 1e b6 3d cc 3e 29 bd 1d fd 16 3e d1 e9 df bc
       0.08892526 -0.041319653 0.14744993 -0.027333172
000120 10 ea 18 bc e0 91 1a 3e 1c b3 ea bd 59 1f 9c bd
       -0.009333149 0.1509471 -0.11459944 -0.076231666
000130 e9 48 9c 3d 5c b7 16 be ad 8c 2d 3e 13 91 5d bd
       0.07631094 -0.14718384 0.16948195 -0.05409343
000140 e0 4c 63 bd f4 31 86 3d 81 f2 27 3d 29 a2 07 3e
       -0.055493236 0.065524966 0.041002754 0.13245453
000150 9a af d5 3c fa ea 16 3e 9c 53 c9 bd 39 42 7d 3d
       0.02608471 0.14738074 -0.098304 0.061830733
000160 7e 23 82 bd ce 2a 56 bd 53 f7 65 bc 05 91 2c be
       -0.06354426 -0.052286915 -0.0140360175 -0.16852196
000170 c1 37 04 3e 9d da c4 bb 39 8c ae 3d ca c1 5c 3c
       0.12911893 -0.006007506 0.08522839 0.013473937
000180 d0 b8 a8 3d b7 5c 0b 3e e2 77 bb 3d f3 a8 ee bd
       0.08238375 0.13609587 0.09153725 -0.11653318
000190 b2 fc 0c 3d 12 aa 01 be a4 d1 a4 b9 cf da 4c bc
       0.034420677 -0.12662533 -0.00031436712 -0.01250334
0001a0 bb ea 0e 3d 70 7b 08 be ec e8 1d 3e 76 87 0e 3c
       0.034891825 -0.13328338 0.15420884 0.008699289
0001b0 34 2c 30 be c3 9f 01 be 4a 91 31 be ab 3e e0 bd
       -0.17204362 -0.126586 -0.1734058 -0.10949453
0001c0 8e 6f d7 3d bf c9 2d 3d b6 76 e1 bc 40 8c 1c 3e
       0.10519324 0.04242873 -0.027522426 0.15287876
0001d0 d0 10 86 bd e0 8e 1b 3c 2e 57 e7 3d 40 6e 36 bb
       -0.065461755 0.009494513 0.11295925 -0.002783671
0001e0 82 2b c3 bd 1d 97 bd bb 0b e8 63 3c 36 8b f7 3d
       -0.09529783 -0.0057858364 0.013910304 0.12087099
0001f0 c2 16 b3 3d 08 e9 c1 bd 01 82 15 be ff cc 13 bc
       0.08744575 -0.09468275 -0.14600374 -0.009021043
000200 e6 b3 b8 3d 70 96 c3 bd 30 76 a9 3d 81 b4 fc 3d
       0.09018688 -0.09550178 0.082744956 0.12339116
000210 e6 23 22 bd 10 05 22 bd 00 90 5f bd 8e 2e 56 bd
       -0.039585017 -0.03955561 -0.05458069 -0.05229049
000220 68 ea 35 3d 8c 41 17 3e 9d 2b f5 bd 22 83 d6 3d
       0.044413 0.14771098 -0.11971209 0.1047423
000230 df 3d c4 3c c1 27 20 3e 75 d2 40 3e bc 92 0c 3e
       0.023955284 0.15640165 0.18830283 0.1372785
000240 d1 67 9e 3d ed 41 0c 3e 15 47 74 bd fd 6c c7 bc
       0.07734645 0.13697024 -0.0596381 -0.024343962
000250 d9 d6 02 3e 99 04 df bb 71 e1 b6 3d e2 d5 84 3d
       0.1277727 -0.006805968 0.08929718 0.064861074
000260 13 e0 81 3e 04 e5 30 3e 07 74 0b bd 8a d2 d2 3d
       0.25366268 0.17274863 -0.0340462 0.102940634
000270 00 20 46 3c 97 96 12 3e 5d e7 49 3e 60 4f b7 bd
       0.01209259 0.14315258 0.19717164 -0.089506865
000280 3b 18 da 3d 4f 75 39 3e c4 ff 00 3e 8b a2 84 3e
       0.10649153 0.18111156 0.12597567 0.2590526
000290 17 25 70 3d c9 6f 08 3e ec a0 a9 bd 77 cb 1d 3e
       0.05862912 0.13323893 -0.082826465 0.15409647
0002a0 56 31 8a bd 74 d7 22 3c 03 97 18 3e 6c 3a 94 3c
       -0.06747691 0.009939063 0.14901356 0.018094264
0002b0 f8 28 8a 3d 7f b1 3e 3e 1d 03 1a 3d f6 41 9d bd
       0.067460954 0.18622397 0.037600625 -0.07678597
0002c0 a6 b9 9e 3d d1 99 e6 3c 3a a9 cf bd 64 83 3f 3e
       0.077502534 0.028149517 -0.10139699 0.18702465
0002d0 13 f8 03 be a8 42 6a 3d b5 fb cb 3c 93 2b 8f 3d
       -0.12887602 0.057192475 0.024900297 0.06990733
0002e0 34 99 aa bd 64 98 d6 3d be e5 a8 3d 2e 1e 28 be
       -0.083300024 0.10478285 0.08246945 -0.16417763
0002f0 c4 0a ad 3c 4f 6a 47 3e ef 1d 9b 3c 4a 39 72 3d
       0.021123298 0.19474147 0.018935172 0.059136666
000300 74 12 59 3d e3 b2 4e bc 42 c0 0e 3e cc 3d b0 bd
       0.052996114 -0.012615892 0.13940528 -0.08605537
000310 d4 bf 67 3d 44 6c d3 3c d8 4a 7b 3d b7 2d 49 bd
       0.056579426 0.025808461 0.061350673 -0.049115863
000320 00 f4 ee 3d 18 9f 31 be 6f 7c 39 bc 49 92 97 bd
       0.11667633 -0.17345846 -0.011321171 -0.074009486
000330 a7 6e 32 bd 6c f4 6b bd 6c 43 e6 3c fc fb 0a be
       -0.043562558 -0.057606146 0.028108321 -0.13572687
000340 ab 60 15 3e 99 98 14 be d4 cc c6 bd 6c 98 3d bc
       0.14587657 -0.14511336 -0.097070366 -0.011571985
000350 3f 8f de bd 44 89 04 3e 0d ec 64 3a 5b d0 d6 bc
       -0.10867166 0.12942988 0.0008732684 -0.026222399
000360 29 d9 15 be 75 fa 2b be 85 f9 82 3d 22 c9 e3 3d
       -0.14633621 -0.1679476 0.06395248 0.111223474
000370 6a b3 88 bd b0 03 d8 3d 51 71 0b be e3 a1 ec bc
       -0.066748455 0.10547578 -0.13617446 -0.028885787
000380 db fc 12 bc 30 64 af 3d 84 0a 06 be d5 7f d3 3d
       -0.008971418 0.08564031 -0.13089949 0.103271164
000390 be ac b6 bc dc ba 8f bb 27 d8 cc bc e5 9d 9c bd
       -0.022299167 -0.004386289 -0.025005413 -0.076473035
0003a0 e0 6c 5d 3e e8 3e 36 3e e8 3a 23 3a 1a 7c 61 3e
       0.21623564 0.17797434 0.0006226734 0.22019997
0003b0 56 e2 16 3e 23 64 e4 3c 7e f6 34 3e 58 fc b9 bc
       0.14734778 0.02787978 0.17672154 -0.022703335
0003c0 0a 48 98 3e ab 81 4d bd f7 79 1a bd be d4 fe bd
       0.2974246 -0.05017249 -0.03771397 -0.12442921
0003d0 d9 16 4e 3e f2 3c 04 bd 1e 23 ba bd 14 2b 93 3c
       0.20125903 -0.032284684 -0.09088729 0.017964877
0003e0 d1 0a fc bc 5c b9 aa 3d c0 e3 86 3e c1 c4 3d 3e
       -0.030766876 0.08336136 0.26345634 0.18532087
0003f0 c3 01 ff 3d 32 57 04 3e 32 9a b6 bd 8b 33 2a bd
       0.12451508 0.12923887 -0.08916129 -0.04155306

bias f4 [50]
000000 b6 08 b8 3d e1 12 9c 3e 7d 11 02 bc 6a 61 a8 bc
       0.089860365 0.30483153 -0.00793874 -0.020554263
000010 38 2d 74 3e 89 df 92 3d f9 63 dc 3d a6 13 53 3e
       0.23845375 0.07171542 0.10761256 0.20612964
000020 48 13 94 3c a1 e8 01 3e a4 56 44 3d 84 a6 25 3d
       0.0180756 0.12686397 0.04793419 0.040442005
000030 59 49 cd 3d 01 03 56 bd cf d8 19 3b a8 ce 99 bd
       0.100237556 -0.05224896 0.0023475175 -0.0751012
000040 7b f9 29 3e 41 9e 0c 3e b0 65 17 3e bf d7 64 3b
       0.16599075 0.13732244 0.14784884 0.0034918634
000050 76 e5 27 3e a8 b6 86 3b d6 c9 6b 3e b6 3b e3 3c
       0.16396126 0.00411113 0.23026213 0.027738433
000060 6a 08 82 bd 19 be 06 3e ec 12 10 bd a6 c6 96 3e
       -0.06349261 0.13158454 -0.035174295 0.29448432
000070 ca 15 0f 3e 3c 0c 37 bd 7c 81 a6 bc 34 3c 44 3c
       0.13973156 -0.044689402 -0.020325415 0.011977244
000080 d7 de 98 3e c7 8b e3 bd 5a b8 3e 3e 8e 3f bd 3d
       0.29857513 -0.11110645 0.18625012 0.09240638
000090 03 37 b9 bc a2 7b 01 3d 6a e0 49 3e f7 ec c2 bd
       -0.02260924 0.031612046 0.19714513 -0.09517854
0000a0 3c cc c5 3d a9 2e 18 be 61 c7 dc 3d 09 66 bd bd
       0.09658095 -0.1486155 0.10780216 -0.09247977
0000b0 9c 8d 3a be be 8f 0d 3e 24 36 13 3e d4 6a a8 3e
       -0.18218082 0.13824365 0.14376122 0.32894003
0000c0 b8 b7 8c bc 2c b9 8e 3e
       -0.017177448 0.2787565

weight f4 [100, 50]
000000 f9 58 94 bb ef a8 93 3c 17 ae ee 3b cc b5 b9 3d
       -0.004527208 0.01802489 0.0072839367 0.09067878
000010 ff 1e 10 be 91 4b be 3d 37 84 c7 bd 1d 2c 19 3d
       -0.14074324 0.09291757 -0.09742015 0.037395585
000020 f2 99 98 3d cb 00 6e ba b4 27 d7 3c d8 d0 02 be
       0.07451238 -0.00090790977 0.02626405 -0.1277498
000030 f3 61 9d 3d 5b 60 12 3d 72 dd 02 be 59 49 0e 3e
       0.07684698 0.035736423 -0.12779787 0.13895167
000040 49 b7 e1 bc 19 84 c1 3d 8c 67 59 bd 52 db a3 3b
       -0.027553217 0.09449024 -0.053077266 0.0050005103
000050 17 4e ae 3c e1 48 28 be 98 df df 3d 23 67 f3 bd
       0.02127747 -0.16434051 0.10931319 -0.11884906
000060 11 31 f7 bd a2 6c c7 3d 2c 9c c5 3d 86 e5 27 bc
       -0.120699055 0.09737517 0.09648928 -0.010247594
000070 d0 28 10 bd fb 70 2b 3d 33 7c f5 bd f2 f6 a8 bd
       -0.03519517 0.041855793 -0.1198658 -0.08250226
000080 5b 45 03 bd 6c 33 8a 3d 51 42 b5 3d 94 48 8c bd
       -0.032048564 0.06748089 0.088505395 -0.06849781
000090 69 18 83 bd 45 ad 09 3e a3 3d 39 3d 62 ea 82 3d
       -0.0640114 0.13445003 0.045224797 0.06392361
0000a0 e0 6a cc bd b5 3e f3 bd c9 0f 4a bd 3d a0 ce 3d
       -0.09981322 -0.11877195 -0.04933146 0.10089157
0000b0 8a e1 aa 3b 03 89 60 bd 04 fd b8 3d de d6 6d 3d
       0.0052148746 -0.054818165 0.09032634 0.05806624
0000c0 a5 e8 13 be d3 b7 ad 3d 29 42 8a bd 71 43 23 bd
       -0.14444216 0.08482327 -0.067509 -0.03985924
0000d0 d5 c4 ce 3d 46 b6 51 bd cf 8e f4 3c 5e 1c 67 bd
       0.100961365 -0.05119922 0.029853253 -0.056423537
0000e0 a1 bf e0 ba df 78 c0 bd 61 a8 88 3b 85 7b 1d bd
       -0.0017146954 -0.09398054 0.004170463 -0.038447876
0000f0 b9 d6 8a bc 16 9c 7a bc d4 a9 05 be bb 55 92 bd
       -0.01694809 -0.015296003 -0.13053066 -0.07145258
000100 df 52 9b 3d f8 e0 cb bc 9f c9 5b 3b 1a c8 c8 bc
       0.07584166 -0.024887547 0.0033536924 -0.024509478
000110 1a 4c c0 bd f3 10 bc bc d8 e4 0a 3e c3 ca 21 3e
       -0.09389515 -0.0229573 0.1356386 0.15800004
000120 c5 c2 d0 bd 03 46 1b 3e ff 7c a5 bc fc b6 84 bb
       -0.10193399 0.15163426 -0.020201204 -0.0040501337
000130 3e be cb bd ed 3c bb bd 25 a3 b1 3c 0b ed 5c 3c
       -0.09948395 -0.0914248 0.021684239 0.01348425
000140 27 94 fd bd 6b 5f bf bd 5b 1a 16 bd 3e ce 9a bd
       -0.123817734 -0.093443714 -0.03664623 -0.07558869
000150 a8 5d 7f bd f1 06 bf bb e3 43 ff bd f8 29 a6 3d
       -0.062345177 -0.005829685 -0.1246412 0.08113474
000160 57 14 9c 3d 37 74 48 3d 20 b2 54 bd e7 75 2b bd
       0.07621067 0.048938956 -0.051927686 -0.041860487
000170 28 1d cd bd 3e 82 e3 3d 0b d5 b1 3c a0 8d 38 3d
       -0.10015327 0.11108826 0.021708032 0.04505694
000180 dc d8 70 bc 48 0e 7c bb 70 25 ba bb 38 18 bc 3d
       -0.014700141 -0.003846066 -0.0056807324 0.09184307
000190 e1 ca bb 3d 78 6a c6 3b 04 22 54 3d a1 7b b7 bd
       0.091695555 0.0060551725 0.051790252 -0.08959127
0001a0 6f 3f ec bd a4 f9 57 3d af 7e af 3d 95 ab 0c be
       -0.115355365 0.05272831 0.08569085 -0.13737328
0001b0 36 cd 98 3d c8 92 e1 3c 28 52 a3 bc c5 54 f1 ba
       0.07461016 0.027535811 -0.019936636 -0.0018412104
0001c0 69 4d 02 bc 81 67 88 3d a8 65 47 3d 79 84 b1 bd
       -0.007953026 0.06660367 0.04868093 -0.08667845
0001d0 8b fc b6 bd 76 df b8 bd e5 15 be 3d d0 ed 9a bd
       -0.089348875 -0.09026997 0.0928152 -0.075648904
0001e0 b5 b0 df bd b0 5d 8a 3d bf 30 ef 3d 2f 6d a6 3c
       -0.10922376 0.06756151 0.116792195 0.020315735
0001f0 1c 91 20 3d 8a 3c 3e bd 0e 02 92 bc 26 b5 b5 bb
       0.039200887 -0.046444453 -0.017823245 -0.005545276
000200 0c 36 31 bd c1 53 b8 bd e2 a0 f0 38 7f ed 7f bd
       -0.043264434 -0.0900035 0.000114740586 -0.062482353
000210 14 79 e1 bd 4b 89 9b bd ac b1 da bd c0 bb 3f 3c
       -0.11009422 -0.07594546 -0.106784195 0.011702478
000220 b7 a0 19 bc 32 72 8a bc 92 4c b5 bd 21 30 b5 3d
       -0.009376696 -0.016900156 -0.08852495 0.088470705
000230 d6 0d 10 bd 78 86 55 3c ff 69 c7 3d 35 a5 78 3d
       -0.035169445 0.013032548 0.09737014 0.06070443
000240 4e 4d 47 bd ed 5d 1d 3d d9 cb a2 3d 1b 10 29 be
       -0.048657708 0.038419653 0.07949037 -0.1651005
000250 a2 a0 81 3d 24 34 be bd a3 b2 22 3d 38 b9 29 be
       0.063294664 -0.09287289 0.039721143 -0.16574562
000260 c0 5d fb 3d 9f 91 02 3e 4f 9e b2 3d cd 98 e8 bd
       0.12273741 0.12750863 0.08721601 -0.113572694
000270 47 43 99 bb 96 80 26 bc e8 f1 dc 3d 41 6b 80 bc
       -0.0046772095 -0.010162493 0.107883275 -0.015676143
000280 4e f7 1c 3c cb 1a b3 3d d1 1d 05 be 0f 66 03 be
       0.009580446 0.08745345 -0.12999655 -0.12831901
000290 12 b3 d2 bd e8 b1 af 3d 45 4c c3 3d c9 4e 97 bd
       -0.10288061 0.08578855 0.09536032 -0.07388074
0002a0 25 07 8c bd b7 af 00 bd ff cf e6 3d b4 ef 33 bd
       -0.068373 -0.031417575 0.11270141 -0.04392977
0002b0 67 f2 1a be af dc ef 3d fb 81 11 3d 25 d9 23 3d
       -0.15131532 0.11712014 0.03552435 0.040002007
0002c0 d1 b2 cf bd a0 3f 11 3d dd 95 85 bd 71 c5 73 3d
       -0.101415284 0.03546107 -0.06522725 0.059514467
0002d0 81 86 0c be e5 8c f5 bd d0 62 b0 bb f0 11 49 bd
       -0.13723184 -0.11989764 -0.005382873 -0.049089372
0002e0 c3 c4 a9 3d db d6 8a 3d 2f 32 d4 3d 60 d5 f4 3d
       0.082894824 0.06779262 0.10361134 0.119547606
0002f0 65 bd 8a 3d 77 92 4a bd 70 10 19 bd b8 b1 9c 3d
       0.067744054 -0.049456086 -0.03736919 0.07651085
000300 28 fb e6 bd 2e 1c b5 bd af 47 44 bd 8d 14 ad 3d
       -0.11278373 -0.088432655 -0.047919925 0.084511854
000310 0a fd 5c bd d1 ec 85 bd 28 10 c5 3d 0e fa e5 bd
       -0.053952254 -0.0653931 0.09622222 -0.11229335
000320 5c 4a d1 bd d9 ff ba 3d 7c 12 05 3e 31 87 3f 3d
       -0.10219261 0.0913083 0.12995332 0.046759788
000330 ba 3b 43 3c d7 b7 c7 3c 09 a9 c6 ba 6f 23 05 3d
       0.011916095 0.024379654 -0.0015156578 0.032504495
000340 7f d1 ea bc ce ba 20 be 4f c3 be 3d 69 8a bf 3d
       -0.028664349 -0.1569626 0.09314596 0.093525715
000350 1c c1 51 bd 7d ae ec bc c8 81 0b be 2c 31 c9 bb
       -0.051209554 -0.028891796 -0.13623726 -0.006139895
000360 64 57 eb 3d 16 ab 51 3d 92 b3 0c be 2e 94 4e 3d
       0.11491278 0.05118855 -0.13740376 0.050434284
000370 7b 3f 4a ba 6c 4a b9 3c 13 72 2e bd e8 f5 3e bd
       -0.0007715148 0.022618495 -0.04258926 -0.046621233
000380 0d 4d a9 3d c6 c8 33 3d 19 3c c1 bd 7a 76 f0 bd
       0.082666494 0.043892644 -0.09435291 -0.117413476
000390 25 34 9f 3d ec 8a 39 bd 46 5d e9 3d a9 56 a8 bc
       0.07773618 -0.0452985 0.113947436 -0.020549135
0003a0 cc 2d f8 bc d5 93 ba bd 6c 60 16 be 13 95 b0 bd
       -0.030295275 -0.09110228 -0.1468522 -0.08622184
0003b0 8c cc f2 3d a5 e6 a3 3d 60 cf a6 bd cd 1e 80 3d
       0.118554205 0.08002976 -0.081450224 0.06255875
0003c0 f1 0c ae bb a8 62 d1 bd 1e 26 82 bd ea bc 97 bc
       -0.0053116013 -0.10223895 -0.063549265 -0.018522698
0003d0 5b 80 a6 bd 53 6f 0c 3d ac 26 a3 bd 3e b3 a4 3d
       -0.081299506 0.034285855 -0.079663604 0.08042
0003e0 0d 73 f5 bd 8a f3 8f 3c 93 bf ad 3d 93 ba 1a bd
       -0.11984835 0.017572183 0.084838055 -0.037775587
0003f0 b6 b6 fe 3d f3 79 fb 3d f5 1a 51 bb 9d b2 de bd
       0.12437193 0.12279119 -0.0031906937 -0.108739115

bias f4 [100]
000000 14 8f 27 3c 13 db 3e 3e 06 27 13 be 01 71 c2 3c
       0.010226984 0.18638258 -0.14370355 0.023735525
000010 f0 55 c1 3c 9d ab 49 3b c8 10 29 be f6 50 a6 3e
       0.023600549 0.0030772456 -0.16510308 0.32483643
000020 5e a1 f0 3d a2 4b 99 3d fb 99 0f 3e 2b be cd bd
       0.11749528 0.07485129 0.14023583 -0.10046037
000030 7b 2a a5 3d f2 99 40 3e ed 1d 2a be fd 6b 08 3e
       0.08064743 0.18808725 -0.16612978 0.13322444
000040 16 85 24 be 27 f9 c6 3c fd 34 7f 3d 84 a1 d9 bc
       -0.16066393 0.024288727 0.062306393 -0.026566274
000050 7a cf 1e 3e 31 9e d9 3d f4 f3 4a 3d da 24 47 3d
       0.15508834 0.10625876 0.049549058 0.04861913
000060 e5 43 36 3e 2e f3 d2 3d 44 38 31 3e fa 19 7f 3e
       0.17799337 0.10300289 0.1730662 0.24912253
000070 27 65 02 3e f3 cf 52 bd 06 4f 24 3c 98 49 5e 3e
       0.12733899 -0.051467847 0.010028606 0.21707761
000080 3e 04 73 3e 9d b8 e6 bd 6e 36 25 be 5f 77 9b bd
       0.23732087 -0.11265681 -0.16134045 -0.075911276
000090 46 4b ba 3b 51 30 cb bd c6 51 76 bc a8 9d 69 bd
       0.005685243 -0.09921325 -0.015034145 -0.05703512
0000a0 ae 8f 84 bc fd 20 15 bd 7c d0 5f be 4e 27 38 3d
       -0.016181793 -0.036408413 -0.21856874 0.04495936
0000b0 00 23 7d 3e 99 89 17 bb ed 1e a9 3d ea 6b 6e 3e
       0.24720383 -0.0023122786 0.08257852 0.23283353
0000c0 f9 cd 72 bd 9c 8d 88 bc d5 cf 02 3e ad 0e 3b be
       -0.059278462 -0.016669087 0.12774594 -0.18267317
0000d0 d3 b6 58 3e 48 3c 53 3e 18 65 0b be 4d 9f 85 3e
       0.21163492 0.20628464 -0.13612783 0.260981
0000e0 b5 10 18 3d 0f b9 73 be ab c1 a2 bc e6 74 cd 3d
       0.037125308 -0.23801063 -0.019867739 0.10032062
0000f0 7c 01 bb bb 4a 94 b3 3d 4b 6b 0b 3e f5 b1 5a 3e
       -0.005706964 0.08768518 0.13615148 0.21356948
000100 e4 78 71 3e e8 d5 e5 3d 14 81 95 bd 8f f6 3c b9
       0.23581272 0.1122244 -0.0730001 -0.00018020927
000110 9b 16 43 3e 72 96 e7 bb f8 c1 78 3e 62 4a 47 be
       0.19051592 -0.007067495 0.24292743 -0.19461969
000120 13 31 0b 3e bd e6 85 3e 24 52 f4 3d 87 fe d4 3d
       0.13592939 0.26152602 0.119297296 0.1040011
000130 ce d3 72 3c 9b b9 ad bc 68 b7 89 bd 4e e3 a0 3b
       0.014821006 -0.021206668 -0.06724435 0.0049099093
000140 96 80 9c bd 72 28 88 3d 81 56 73 3e 67 cc 21 3e
       -0.07641713 0.06648339 0.23763467 0.1580063
000150 ce a8 91 3d 65 1a 0f 3e 71 c5 18 be 4a 37 22 3e
       0.07112275 0.13974912 -0.14919068 0.15841404
000160 c6 7d 16 3d 28 6c 78 3e bd e5 b2 3d b6 5c 49 3d
       0.03674104 0.24260008 0.08735225 0.04916068
000170 8b bc 04 3e 8e 83 18 3d 9a 38 de 3d 21 43 8a 3d
       0.12962548 0.037234835 0.1085064 0.06751085
000180 4a ca 84 bd 18 a7 81 3e 2f 30 31 be 4d 5e ea 3d
       -0.06483896 0.25322795 -0.17303537 0.11443768

weight f4 [1, 100]
000000 76 40 8d bd 40 0e d8 3d 21 56 a3 bd a0 3d d6 ba
       -0.068970606 0.10549593 -0.07975412 -0.001634527
000010 4b ae 8f bd 12 68 c0 bd a4 98 ad bd 8d 8f 48 3d
       -0.070156656 -0.0939485 -0.084763795 0.048965026
000020 e0 bb 71 3d 4a 46 8f 3d a8 e3 b4 3d cd c1 2a bd
       0.059017062 0.069958284 0.088324845 -0.04168873
000030 7f 54 86 bd 78 c7 3a 3d d9 94 9f bd 78 1a 3b 3d
       -0.06559085 0.045600384 -0.07792062 0.04567954
000040 a6 70 24 bd 38 82 93 bd 8b f4 93 bd e5 94 59 bd
       -0.040146492 -0.07202572 -0.07224377 -0.053120513
000050 4e ab b3 3d 50 e5 cf 3d b4 bd c4 3d 1a f2 98 3c
       0.08772908 0.1015116 0.096064955 0.01867013
000060 05 79 04 3d bb 8e 90 3d 47 d0 b5 3d 46 4c a3 3c
       0.032341976 0.07058474 0.088776164 0.019933831
000070 9b ba fe 3c 0c 9b 49 bc 26 79 7e 3d 54 de d6 3c
       0.03109484 -0.012305032 0.062127255 0.026229061
000080 b8 1f af 3d ec a5 b1 bb 89 53 6f bd f1 a5 64 bc
       0.08550972 -0.0054213908 -0.058429275 -0.013955579
000090 c5 f8 bc bd a0 73 88 bd 41 4f 8a 3c 38 2e 97 bc
       -0.092271365 -0.06662679 0.016883494 -0.018454656
0000a0 69 3f 90 bc 69 da ca bc 18 73 ae bd ba 5e 9b 3d
       -0.017608361 -0.02476235 -0.08518046 0.07586427
0000b0 9e f0 50 3d 5f 02 96 3d 6b d4 33 bb d1 35 0e 3d
       0.05101072 0.07324671 -0.0027439843 0.034719292
0000c0 ff 06 3b bd a8 03 a3 bd 45 72 3c 3d 6e 8b 89 bd
       -0.04566097 -0.07959682 0.046007413 -0.06716047
0000d0 2d 34 8d 3d b7 f9 9e 3c 5d 2f bb bd db 9b 7a 3d
       0.06894717 0.019406183 -0.09139893 0.06118379
0000e0 ec d8 13 3d ae 28 df bb 68 35 ce 3c 6f 03 e1 3d
       0.036095545 -0.0068102693 0.02517195 0.10986983
0000f0 c4 30 80 bd b6 50 29 3d 9e 50 8e 3d 01 be d4 3d
       -0.06259301 0.041336738 0.0694897 0.10387803
000100 55 07 e3 3c 12 22 72 3d 84 60 a1 bd a3 1a 7a 3d
       0.027713457 0.059114523 -0.07879737 0.06106056
000110 75 93 37 3c c6 a7 5c bd 1f 3d 8c 3c b4 66 3b bd
       0.01120459 -0.05387094 0.017118989 -0.045752242
000120 f7 41 64 3d 33 2b 9b 3d 07 05 3d 3d 2d fe d2 3d
       0.05572697 0.07576599 0.046147373 0.103023864
000130 50 ca 57 3d 13 50 04 3d a6 60 af bd e6 e1 46 bd
       0.052683175 0.032302927 -0.08563356 -0.048555277
000140 08 2a 85 bd 58 69 a8 bc 01 ec c8 3d 81 b5 c1 3d
       -0.065021574 -0.020558044 0.09810639 0.09458447
000150 39 8c 88 3d 7d 2e ca 3d 68 56 26 bd 53 5f b6 3d
       0.0666737 0.09872148 -0.040609747 0.089049004
000160 31 6e 92 3d 00 54 87 3d 64 66 dd 3c e5 04 1f 3b
       0.071499236 0.066078186 0.027026363 0.0024264392
000170 55 8c 0c 3d b9 ba ee 3d 74 86 e1 3d 23 0a 11 3d
       0.03431352 0.11656708 0.11011973 0.035410058
000180 d7 84 d3 bc 1b 1c 76 3d fb cc a1 bc bf c7 a4 3d
       -0.025820179 0.060085397 -0.019751063 0.08045911
