tests/fixtures/drop_in_model_artifacts/torch_reg.pth (torch_old, 33617 bytes, 5 tensors)

weight f4 [50, 13]
0	0xbe9055b0	-0.28190374
1	0xbdb98f47	-0.09060531
2	0xbde631ae	-0.112399444
3	0x3e4ef204	0.20209509
4	0x3e703182	0.23456386
5	0xbe81d9a3	-0.25361356
6	0xbcd42af0	-0.02589938
7	0xbe3ec2f0	-0.1862905
8	0xbe8d4992	-0.27595192
9	0x3e4aa6d4	0.19790202
10	0x3e310c99	0.17289962
11	0x3e4af4fa	0.19820014
12	0x3e4a001c	0.19726604
13	0x3e5f8e8a	0.21831718
14	0xbd887dd4	-0.06664625
15	0xbe2d4f84	-0.16924864
16	0x3e59953c	0.21248335
17	0xbd9e1e08	-0.07720572
18	0x3d46d248	0.048540384
19	0xbd1dc7d0	-0.038520634
20	0xbd504c70	-0.050854146
21	0xbe6a7ef2	-0.22899988
22	0xbe5231ec	-0.20526856
23	0x3dd721ac	0.10504469
24	0xbd902560	-0.07038379
25	0x3e717976	0.2358149
26	0xbb23d252	-0.0024997187
27	0xbe142bee	-0.14469883
28	0x3db0aacc	0.08626327
29	0x3e4783fa	0.19483939
30	0xbe48f3dd	-0.19624276
31	0x3e56e2b4	0.20984918
32	0x3dabacd5	0.083825745
33	0x3de8881e	0.11354087
34	0xbe440137	-0.19141088
35	0xbc4d6744	-0.0125368275
36	0xbe5fe58c	-0.21864909
37	0x3c5c46a0	0.013444573
38	0x3e6dcc8b	0.23222558
39	0x3c3c83dd	0.011506048
40	0x3db4514b	0.08804568
41	0x3e87ac35	0.2649857
42	0xbe4a8d18	-0.19780385
43	0xbe5473de	-0.20747325
44	0xbe84f1d1	-0.2596574
45	0xbc51eb20	-0.012812406
46	0x3e67ed0a	0.22649017
47	0x3e5cea05	0.21573646
48	0xbe2e7dc5	-0.17040165
49	0x3dc02506	0.09382062
50	0x3e6ea2bd	0.23304267
51	0xbe8e593f	-0.27802464
52	0x3e198da5	0.1499544
53	0x3e6df972	0.23239687
54	0xbce73561	-0.028223695
55	0x3ddf48a0	0.10902524
56	0xbe7a8529	-0.24464859
57	0xbe81fb67	-0.25387117
58	0x3c6fbc21	0.014632256
59	0x3e1d4c5d	0.15361162
60	0x3e0b18e1	0.1358371
61	0x3db615bb	0.088908635
62	0x3e0cec9c	0.13762134
63	0xbde3e7d8	-0.11128205
64	0xbdab932a	-0.08377679
65	0xbea3dbfb	-0.3200377
66	0x3e5a2f18	0.21307027
67	0x3daa41fb	0.08313366
68	0xbdfc93e8	-0.123328984
69	0xbe08bd98	-0.13353574
70	0x3e72c16b	0.23706596
71	0x3da4dc8d	0.08049879
72	0xbe69a32e	-0.22816154
73	0xbd3350a7	-0.043778088
74	0x3d7a0621	0.061041
75	0xbe8be45f	-0.2732267
76	0x3e081d0c	0.1329233
77	0x3daa8aa3	0.08327224
78	0x3e1adacf	0.15122531
79	0x3ddceb44	0.10787061
80	0xbd1f1b0e	-0.03884416
81	0xbe1ca601	-0.152977
82	0x3e856f9d	0.26061717
83	0xbe805dfa	-0.25071698
84	0xbe45197b	-0.19248001
85	0x3e2e7abc	0.17039007
86	0x3e41d864	0.18930203
87	0x3d921f1c	0.0713484
88	0x3dcdb6f4	0.10044661
89	0x3d97091b	0.073747836
90	0xbe0ec0e0	-0.13940763
91	0x3def9cca	0.11699827
92	0x3e5097dd	0.20370431
93	0x3dfd7ade	0.12376951
94	0xbe6e2915	-0.23257859
95	0x3ca63e3d	0.02029335
96	0x3e32fdaa	0.17479578
97	0x3e360eae	0.17779037
98	0xbe85392e	-0.26020187
99	0xbe63c1ef	-0.22241949
100	0xbde078cd	-0.10960541
101	0x3e0a64ab	0.13514964
102	0x3d5e69ad	0.0543
103	0xbe51e213	-0.20496397
104	0xbe8aa6d3	-0.27080402
105	0xbe778577	-0.24172007
106	0x3d935cb4	0.07195416
107	0x3c861a90	0.016370088
108	0x3e127460	0.14302206
109	0x3e3682f7	0.17823397
110	0x3dea7dff	0.11449813
111	0xbe7bbe40	-0.24584293
112	0xbe124db4	-0.14287454
113	0xbab642e7	-0.0013905436
114	0xbca28400	-0.019838333
115	0xbe7f84f4	-0.24953061
116	0x3dcc8475	0.09986202
117	0xbe7fb5ff	-0.2497177
118	0x3c97d270	0.018532962
119	0x3d8b9b27	0.06816702
120	0x3e0f8203	0.1401444
121	0x3e543a34	0.20725328
122	0xbe599a68	-0.21250308
123	0xbd16cb14	-0.036814764
124	0x3e82b65a	0.25529748
125	0x3e0e9211	0.13922907
126	0x3e00db00	0.12583542
127	0x3e287cc3	0.16453843
128	0xbe79c526	-0.24391612
129	0x3e6555c6	0.22396001
130	0x3e282659	0.16420878
131	0x3dd8e5bb	0.105906926
132	0xbe11207c	-0.14172548
133	0xbd2f105a	-0.042740203
134	0x3e3559fd	0.17710109
135	0xbe456970	-0.19278502
136	0x3dba2891	0.09089769
137	0x3dd8c67f	0.10584735
138	0xbe71bdf9	-0.23607625
139	0xbd50906e	-0.05091899
140	0x3e0f5a74	0.13999349
141	0x3e6d4475	0.23170646
142	0x3d9b99ef	0.0759772
143	0xbb051a99	-0.0020310043
144	0x3e24365b	0.1603636
145	0x3ddc9f14	0.10772529
146	0x3d5b3e0f	0.05352598
147	0x3e55c0a7	0.20874272
148	0xbe4bfc0d	-0.19920368
149	0x3e104d92	0.1409209
150	0x3d8d6b5d	0.069052435
151	0x3e8727de	0.26397604
152	0xbe965747	-0.29363462
153	0xbe8e3cbe	-0.27780718
154	0x3e0ef235	0.13959582
155	0x3e526452	0.20546082
156	0xbe5d8fa8	-0.21636832
157	0x3d280bc0	0.04102683
158	0xbd86e77e	-0.065871224
159	0x3a521c00	0.00080150366
160	0xbe02e3ee	-0.12782261
161	0xbda885f6	-0.08228676
162	0x3e3b8d84	0.18315703
163	0xbe55c0f8	-0.20874393
164	0xbe148b91	-0.14506365
165	0xbe3b90b6	-0.18316922
166	0xbc158bc0	-0.009127557
167	0xbbdb7900	-0.006697774
168	0xbc1a1d00	-0.009406328
169	0xbbdd58ec	-0.006754985
170	0x3e87f3df	0.26553246
171	0x3e4a84db	0.19777243
172	0x3e8e7934	0.27826846
173	0xbe4790ec	-0.19488877
174	0x3df201b5	0.11816732
175	0xbe071cd5	-0.13194592
176	0x3e313cfd	0.17308421
177	0x3e2be137	0.16785131
178	0xbe5fc226	-0.21851406
179	0x3c02f8e3	0.0079939095
180	0x3e7f54b4	0.24934655
181	0x3e14b6e7	0.14522897
182	0xbd3e7167	-0.046494868
183	0x3e11d540	0.14241505
184	0x3e74883e	0.23880097
185	0x3e8153ff	0.25259396
186	0x3e2632be	0.16230294
187	0xbd1cacf9	-0.038250897
188	0x3cc9fb78	0.024656042
189	0xbe8af639	-0.27140978
190	0x3e7f2fea	0.24920622
191	0xbc8cbe9a	-0.01718073
192	0xbd9b14e8	-0.07572347
193	0x3df7d264	0.12100676
194	0x3dc3ea78	0.09566206
195	0x3d97a1a7	0.074038796
196	0x3d9c1537	0.07621234
197	0xbdcf336a	-0.10117228
198	0x3e44fb5a	0.19236508
199	0xbe3da39f	-0.18519448
200	0x3e0caedb	0.13738577
201	0x3dbd5249	0.0924421
202	0x3e916ab0	0.2840171
203	0xbe25f6c3	-0.16207413
204	0xbd8d4f8a	-0.068999365
205	0xbe364a7a	-0.17801848
206	0x3e03601e	0.12829635
207	0xbe846aed	-0.25862828
208	0x3987d1d2	0.00025905535
209	0x3e535f5a	0.20641842
210	0x3d2556e6	0.040366076
211	0xbc91ca23	-0.017796582
212	0xbdc7ae3c	-0.097500294
213	0x3da7a735	0.08186189
214	0x3de9e73f	0.1142106
215	0xbe7deeba	-0.24798098
216	0x3df70999	0.120623775
217	0xbdcf3230	-0.101169944
218	0x3dfaa467	0.122383885
219	0x3e498c75	0.19682486
220	0xbdda1fe9	-0.10650618
221	0xbd7700e8	-0.0603036
222	0x3d35d66e	0.04439395
223	0x3cbf101c	0.023323111
224	0xbe783186	-0.24237642
225	0x3e52bbaa	0.205794
226	0xbd6c4cb9	-0.057690356
227	0xbe35ebfa	-0.17765799
228	0x3e7dbd7d	0.24779315
229	0xbcab35be	-0.02089965
230	0xbe3e2bf3	-0.18571453
231	0x3dcc739f	0.099829905
232	0x3df9b688	0.12193018
233	0xbcaa0f5a	-0.020759273
234	0x3e88b6dd	0.26702014
235	0xbe8d3c8a	-0.2758525
236	0xbcd53da0	-0.026030362
237	0x3dcbe894	0.0995647
238	0x3e838983	0.2569085
239	0xbd341550	-0.043965638
240	0x3e85b0cb	0.26111445
241	0x3e8315b5	0.256025
242	0xbbdafbc0	-0.006682843
243	0xbe3c34e0	-0.18379545
244	0xbd293ca8	-0.041317612
245	0x3c72e4a0	0.014825016
246	0x3d4957c0	0.04915595
247	0x3d4086da	0.047003604
248	0x3e39ef2c	0.18157643
249	0x3e397f38	0.18114936
250	0x3b40f072	0.0029440192
251	0xbe050990	-0.12991929
252	0x3e20df92	0.15710285
253	0xbd6fa819	-0.05850992
254	0xbe5b1039	-0.21392907
255	0xbd7a5cbd	-0.0611236

bias f4 [50]
0	0x3e71c324	0.23609596
1	0xbe1b9877	-0.1519488
2	0xbc8d27da	-0.017230917
3	0xbe61c691	-0.22048403
4	0x3e71c93d	0.23611923
5	0xbe8d933d	-0.27651396
6	0x3d890a5f	0.06691431
7	0x3e602132	0.21887663
8	0x3e875c3c	0.26437557
9	0x3de373c4	0.11106065
10	0x3e4f50d8	0.20245683
11	0xbd919956	-0.07109325
12	0xbe3edc24	-0.18638664
13	0xbd8f4130	-0.069948554
14	0x3e02aa00	0.12760162
15	0xbc64206e	-0.013923747
16	0xbe842c8d	-0.2581524
17	0x3e000e7f	0.1250553
18	0x3e3c09a8	0.18363059
19	0x3ce4e933	0.02794323
20	0x3de33c22	0.11095454
21	0x3c746fcf	0.014919235
22	0x3e0f30ac	0.1398341
23	0x3dafb13c	0.08578727
24	0x3cea6af0	0.028615445
25	0x3de32864	0.11091688
26	0xbca55f4f	-0.020187048
27	0xbcdffcc0	-0.0273422
28	0xbdb3ac6a	-0.0877312
29	0xbe0fa8c2	-0.1402922
30	0x3e883786	0.2660486
31	0x3e301719	0.17196311
32	0x3d303c6d	0.043026377
33	0x3da82c9c	0.082116336
34	0xbdf3b35c	-0.118994445
35	0x3d0caecc	0.034346387
36	0xbe6fb262	-0.23407891
37	0xbe03b3ed	-0.12861605
38	0x3e0b00cb	0.13574521
39	0x3d93d4d2	0.07218327
40	0xbe10480e	-0.14089987
41	0x3d5442c3	0.05182148
42	0x3d2f35e4	0.042776003
43	0x3ceedb00	0.029157162
44	0xbda01aba	-0.07817598
45	0xbd0d7f38	-0.034545153
46	0x3e4cc81f	0.19998215
47	0x3e22fc44	0.15916544
48	0x3e8481f7	0.25880405
49	0xbe2690b9	-0.16266145

weight f4 [100, 50]
0	0xbc592432	-0.013253259
1	0x3c375bc0	0.0111913085
2	0xbd893b42	-0.06700756
3	0x3b6b4360	0.0035898313
4	0xbc7fbd7c	-0.015609141
5	0xbdb2b3b7	-0.08725684
6	0xbd0ce8e6	-0.034401797
7	0x3e0075f8	0.12545002
8	0xbdf016a6	-0.1172307
9	0x3b566369	0.0032713062
10	0x3d6362ef	0.055514272
11	0x3d8f7a10	0.070057034
12	0xbd96223e	-0.0733075
13	0x3c5b96ef	0.013402685
14	0xbd8b1134	-0.067903906
15	0xbc98178a	-0.018565912
16	0x3de4a124	0.11163548
17	0x3c5b4f01	0.013385535
18	0xbd4011ca	-0.046891965
19	0xbdde76dc	-0.108625144
20	0x3d050dba	0.032483794
21	0xbdfb4fb1	-0.12271059
22	0xbda307f8	-0.07960504
23	0xbdaa130d	-0.08304415
24	0xbcde1484	-0.027109392
25	0x3d5a5988	0.05330804
26	0x3dd22459	0.10260839
27	0x3d40daec	0.04708378
28	0xbb490ec0	-0.0030678958
29	0xbd0311b7	-0.031999316
30	0xbc6ab25a	-0.014324749
31	0x3de691ec	0.11258301
32	0xbd8f6dd8	-0.07003373
33	0x3d4496a9	0.047995243
34	0x3dc6ea74	0.09712687
35	0x3da658a8	0.081223786
36	0x3d26bf0b	0.040709537
37	0xbdfe15c6	-0.12406497
38	0x3c9ffb5d	0.019529039
39	0x3c3ec6de	0.011644093
40	0xbe0772dd	-0.1322741
41	0xbdad036f	-0.084479205
42	0x3cace17e	0.021103617
43	0xbdcf28d8	-0.10115212
44	0x3d9da058	0.07696599
45	0xbe034864	-0.12820584
46	0xbdeeff5d	-0.116698004
47	0xbd7a53e8	-0.061115175
48	0xbde126c5	-0.10993723
49	0x3da889a6	0.08229379
50	0xbd4bd5da	-0.04976449
51	0x3cac3fd0	0.021026522
52	0xbc686dd6	-0.014186343
53	0x3ccaa880	0.02473855
54	0xbd14740e	-0.03624349
55	0xbdddccab	-0.10830053
56	0xbcfd25e6	-0.03090186
57	0x3d8b639b	0.068061076
58	0xbdfd0022	-0.12353541
59	0x3db80c82	0.08986761
60	0x3c87adfc	0.016562454
61	0xbcc9f646	-0.024653565
62	0xbda8ab44	-0.08235791
63	0xbe0bf062	-0.13665918
64	0xbde20a28	-0.110370934
65	0xbdbe66af	-0.09296929
66	0xbd1e87e7	-0.038703825
67	0x3e09c1fb	0.13452904
68	0x3d764b14	0.060130194
69	0xbe08afc2	-0.13348296
70	0x3c4dc819	0.012559914
71	0x3ca90c26	0.020635676
72	0xbc98562a	-0.018595774
73	0xbb81df00	-0.0039633512
74	0x3dacfbbc	0.08446452
75	0xbd4c8500	-0.049931526
76	0x3db6074a	0.08888109
77	0xbe0153bb	-0.12629597
78	0xbdcc4f54	-0.09976068
79	0xbe15fa2e	-0.14646217
80	0xba9429fd	-0.0011304017
81	0xbe1cbab6	-0.153056
82	0xbdb407fb	-0.08790585
83	0xbcdbecdc	-0.026846342
84	0x3cc6f710	0.02428773
85	0xbdf6eeb8	-0.12057251
86	0xbc90f7e2	-0.017696325
87	0xbd8b50c3	-0.068025135
88	0xbdaef475	-0.0854272
89	0x3de39c53	0.11113801
90	0xbd728fd6	-0.059219204
91	0xbe11fb7d	-0.14256091
92	0x3d88fb77	0.06688588
93	0x3da19f4c	0.078917116
94	0x3d28d6d1	0.04122049
95	0xbc997576	-0.018732768
96	0xbcf2baac	-0.029630028
97	0xbbab7d60	-0.0052334517
98	0xbcbd192c	-0.023083292
99	0xbdd1e9f6	-0.10249703
100	0xbdf27920	-0.11839509
101	0x3dc6dee8	0.09710485
102	0x3c41df22	0.011832984
103	0xbdd6a999	-0.10481567
104	0xbcbe3a86	-0.023221266
105	0xbdbc166a	-0.09183963
106	0x3deccf88	0.11563021
107	0x3d4ecbf5	0.050487477
108	0x3e05a83e	0.1305246
109	0x3c9c6acb	0.019093892
110	0x3db6e4d8	0.08930367
111	0x3db57d69	0.08861811
112	0xbda872a0	-0.08224988
113	0xbdf7e3bc	-0.12103984
114	0x3dd3d0d1	0.10342563
115	0x3e029a6b	0.12754218
116	0x3d27db7c	0.0409808
117	0x3db844f2	0.08997525
118	0x3c536fb0	0.012905046
119	0xbde27aa0	-0.11058545
120	0xbc137c75	-0.009001841
121	0x3c2101d0	0.009827092
122	0x3e0ffdf3	0.14061718
123	0x3bb47320	0.005506888
124	0xbda7f5d4	-0.08201185
125	0xbd8b52c9	-0.068028994
126	0xbd88f199	-0.06686706
127	0x3dc4f019	0.096161075
128	0xbd932d5b	-0.07186385
129	0x3e18b406	0.14912423
130	0x3d943eba	0.07238527
131	0xbbd0324e	-0.006353653
132	0xbd92bb0f	-0.07164585
133	0xbdeaa90a	-0.11458023
134	0xbbaac060	-0.005210921
135	0xbda2a8c7	-0.07942348
136	0x3e013cd2	0.12620857
137	0xbdd76d20	-0.10518861
138	0xbdf55d52	-0.1198069
139	0xbdb8de53	-0.0902678
140	0x3ddd8b65	0.10817603
141	0xbe089391	-0.13337542
142	0xbd8b0adf	-0.06789183
143	0x3e0d3d8d	0.13793011
144	0xbcd1e7ea	-0.02562328
145	0xbdf1854d	-0.11793003
146	0xbd8c7d98	-0.068598926
147	0xbdd4518a	-0.10367115
148	0x3e07c15b	0.13257353
149	0x3d10ff9c	0.035400018
150	0x3daa415e	0.08313249
151	0xbdc6a79a	-0.09699936
152	0xbdf97e9a	-0.121823505
153	0xbd7bd12e	-0.061478786
154	0x3cba635d	0.022752458
155	0xbdc00a58	-0.09376973
156	0x3d3c94b2	0.046040244
157	0x3d51c582	0.05121375
158	0x3d4abbd5	0.049495537
159	0x3df392a4	0.11893204
160	0x3e0a2ff7	0.1349486
161	0x3cbf4c61	0.02335185
162	0x3d3a12e8	0.045428187
163	0xbd7ca2e4	-0.061678782
164	0x3c91a759	0.017779993
165	0xbd6e6b54	-0.058207825
166	0xbd8461e5	-0.064639844
167	0x3c8a9491	0.016916545
168	0x3da2961c	0.07938787
169	0xbc9157ca	-0.017742056
170	0x3de7102a	0.1128238
171	0x3cfbce82	0.030738119
172	0xbdd0d755	-0.10197321
173	0x3d8af92e	0.067858085
174	0x3d67b2a0	0.056566834
175	0xbe049ea2	-0.12951139
176	0x3d8273a2	0.063697115
177	0x3e02a5ed	0.12758608
178	0xbd36a6a4	-0.044592515
179	0x3d94a1da	0.07257433
180	0x3ca6b237	0.020348651
181	0x3d9b0585	0.07569412
182	0xbdab1fc7	-0.083556704
183	0x3d609d9f	0.05483782
184	0x3de4d42a	0.111732796
185	0x3dc726dc	0.09724209
186	0x3e03cd57	0.128713
187	0x3a297a00	0.0006465018
188	0x3db2c94e	0.08729802
189	0xbcd49d85	-0.025954017
190	0x3b56e065	0.0032787558
191	0xba87f07a	-0.001037135
192	0xbc8afba8	-0.016965702
193	0xbd9605ab	-0.073253
194	0xbdf393ab	-0.118934
195	0xbe144079	-0.1447772
196	0xbc233798	-0.009961985
197	0x3c7d6940	0.015466988
198	0xbc2acc10	-0.010424629
199	0xbcbe12fc	-0.023202412
200	0x3de5d9bf	0.112231724
201	0x3e06d303	0.13166432
202	0x3e06e6bd	0.13173957
203	0x3e098df8	0.13433063
204	0xbdf3131a	-0.11868878
205	0xbdf6acbf	-0.120446675
206	0xbdaaa23a	-0.083317235
207	0x3e03afd3	0.1286004
208	0xbd8eb548	-0.069681704
209	0xbd69b0ba	-0.057053305
210	0x3dceb3ef	0.10092913
211	0x3d931dd5	0.071834244
212	0xbd3b1fde	-0.045684688
213	0xbdacf720	-0.08445573
214	0x3de5f2ca	0.11227949
215	0x3da91775	0.08256427
216	0xbceb8de6	-0.028754186
217	0x3df14aaa	0.11781819
218	0xbddceac4	-0.107869655
219	0xbc3b9d61	-0.011451096
220	0x3b01bece	0.0019797566
221	0x3c52e47f	0.0128718605
222	0x3dd8e3b9	0.1059031
223	0xbdb2c594	-0.08729091
224	0x3d6eca20	0.05829823
225	0xbce24670	-0.027621478
226	0xbe161f3c	-0.14660352
227	0xbd832b90	-0.06404793
228	0xbd95d2dc	-0.07315609
229	0x3da19a13	0.078907155
230	0x3cf37efe	0.02972364
231	0x3e09cf87	0.13458072
232	0x3e01b504	0.12666708
233	0xbda9993c	-0.0828118
234	0xbdc891b4	-0.09793416
235	0xbbca5418	-0.0061745755
236	0x3dc18aa3	0.09450271
237	0x3deae7c6	0.114699885
238	0xbab19d78	-0.0013550958
239	0xbd0a516d	-0.03376906
240	0xbd7ba25e	-0.061434142
241	0x3db8963f	0.09013032
242	0xbd544e31	-0.05183238
243	0x3dda08f6	0.106462404
244	0xbd9647d9	-0.073379226
245	0xbd2871a6	-0.04112401
246	0xbd8514a2	-0.06498076
247	0xbc1f3530	-0.009717271
248	0x3ca04da8	0.01956828
249	0x3d31a308	0.04336837
250	0x3d43dd28	0.047818333
251	0xbd644724	-0.055731907
252	0xbd940e1f	-0.07229256
253	0x3dd5f269	0.10446627
254	0x391dc8a4	0.00015047431
255	0x3b4f5b83	0.0031640239

bias f4 [100]
0	0xbbc9b1b2	-0.006155216
1	0x3d1304e8	0.03589335
2	0xbde1f6f0	-0.11033428
3	0xbdfbbd72	-0.12291993
4	0xbc4151e5	-0.01179931
5	0x3cecb191	0.028893264
6	0x3d266719	0.040625665
7	0xbdf5a47b	-0.11994263
8	0x3db5ac90	0.08870804
9	0xbd2a910f	-0.041642245
10	0x3da826d1	0.08210529
11	0x3b6b8f83	0.0035943694
12	0x3dfa431b	0.122198306
13	0xbc8879ae	-0.016659584
14	0x3de65199	0.11246032
15	0x3a86f334	0.0010295869
16	0x3d000de5	0.03126325
17	0xbcc5af11	-0.02413133
18	0xbc32f71a	-0.010923171
19	0x3e0ca601	0.137352
20	0x3e06ebc6	0.13175878
21	0xbd3140fe	-0.043274872
22	0xbe12e210	-0.14344049
23	0xbd93b1e7	-0.072116666
24	0xbcc7229d	-0.024308497
25	0xbd324ac9	-0.043528352
26	0x3d9dbb6a	0.07701762
27	0x3d42b7c5	0.047538538
28	0xbde9ec5c	-0.11422035
29	0x3dd44a77	0.103657655
30	0x3d84d53d	0.064859845
31	0x3c9099f4	0.017651536
32	0xbd06f4fb	-0.032948475
33	0x3d2f67d1	0.042823616
34	0xbe13afaf	-0.14422487
35	0xbc72d378	-0.014820926
36	0xbe144ef1	-0.14483239
37	0xbdcd82a6	-0.10034685
38	0x3d72a1cf	0.059236344
39	0xbd8c6557	-0.068552665
40	0xbd958786	-0.0730124
41	0x3d8377f5	0.06419364
42	0x3e1ff47b	0.15620606
43	0xbd175439	-0.036945555
44	0x3d4f77ec	0.050651476
45	0xbdd71c1c	-0.10503408
46	0x3c5cc8e5	0.013475631
47	0xbcba2f10	-0.02272752
48	0xbcc17265	-0.023614118
49	0x3c110091	0.008850233
50	0xbc527641	-0.012845577
51	0xbe13c835	-0.14431842
52	0xbdb92e30	-0.09042013
53	0x3d9147e8	0.07093793
54	0x3dffc3a3	0.124884866
55	0xbd71bc26	-0.059017323
56	0xbc971cec	-0.018446408
57	0x3d9120cd	0.070863344
58	0xbae970b8	-0.0017810082
59	0xbdf606a0	-0.12012982
60	0x3d6ff63b	0.058584433
61	0xbcae9f99	-0.021316336
62	0xbe0b68e8	-0.13614237
63	0xbd273483	-0.040821563
64	0xbd4c2f10	-0.04984957
65	0xbd7ca9a4	-0.06168522
66	0xbd824973	-0.063616656
67	0xbdd6baec	-0.10484871
68	0x3dea87e3	0.114516996
69	0x3c845910	0.01615575
70	0xbd3dbd44	-0.046323076
71	0xbd5e74f0	-0.05431074
72	0x3daef196	0.085421726
73	0x3d482629	0.048864517
74	0xbe1ecfde	-0.15508983
75	0xbde32731	-0.110914595
76	0xbe0c7bf5	-0.13719161
77	0x3d8edd8a	0.06975849
78	0x3d8216c9	0.06352002
79	0xbcb7dcfa	-0.022444237
80	0x3dc1d508	0.094644606
81	0xbc5060d2	-0.012718396
82	0x3dcfe539	0.101511426
83	0xbd2ac398	-0.04169044
84	0xbd640fda	-0.05567918
85	0x3d9e4f5a	0.07729979
86	0x3e14c040	0.14526463
87	0xbb001c8e	-0.001954827
88	0x3d23e891	0.040016714
89	0xbdf2cbee	-0.11855303
90	0x3d1e4f7c	0.03865002
91	0xbdc3a109	-0.095521994
92	0xbd13510e	-0.03596597
93	0xba1c326d	-0.0005958442
94	0xbd5a6baa	-0.053325333
95	0x3d042c21	0.032268647
96	0x3d8b5bf8	0.06804651
97	0xbdea0cad	-0.11428199
98	0x3d397871	0.045280878
99	0xbdafdfb6	-0.08587591

weight f4 [1, 100]
0	0xbdcefa87	-0.10106378
1	0xbdd6c979	-0.104876466
2	0x3d7db644	0.0619414
3	0x3d1818bb	0.03713296
4	0x3d3c59a9	0.045983944
5	0xbda28528	-0.07935554
6	0x3d588a2a	0.05286614
7	0xbd3b1961	-0.0456785
8	0x3bbfbc8f	0.0058513354
9	0xbd074e99	-0.03303394
10	0x3d36c6e7	0.04462328
11	0xbb54d812	-0.003247742
12	0x3ab2cdaf	0.0013641621
13	0x3b8ce0a7	0.0042992416
14	0x3dbc7a92	0.09203066
15	0x3cb20b06	0.021733772
16	0x3bb93505	0.0056520724
17	0x3d7f70d1	0.06236345
18	0x3dbde53b	0.09272238
19	0x3db7bc41	0.089714535
20	0x3cbbe572	0.022936556
21	0x3c841f7e	0.016128298
22	0xbd61ee08	-0.055158645
23	0xbc0e9ae7	-0.008703924
24	0x3d68aa2e	0.05680292
25	0x3c199697	0.009374282
26	0xbd9f47e0	-0.07777381
27	0xbb99a270	-0.0046885535
28	0xbc322317	-0.010872624
29	0xbd3bdba1	-0.04586375
30	0xbd784f8d	-0.06062274
31	0x3cde4f33	0.027137375
32	0x3d3672ef	0.044543203
33	0xbc473a9a	-0.012159968
34	0xbb2aeea0	-0.0026082173
35	0x388824d2	6.491844e-05
36	0xbd9249de	-0.07142995
37	0xbd96edf9	-0.073696084
38	0x3dca0c08	0.09865576
39	0xbd587ba6	-0.052852295
40	0x3c0d769c	0.008634236
41	0x3d5302d3	0.051516365
42	0x3d95077d	0.07276819
43	0x3dafd5e2	0.08585717
44	0xbdc61c8a	-0.09673412
45	0xbbbf4e67	-0.0058382037
46	0x3dc97ce7	0.09838276
47	0x3d79b0b1	0.06095952
48	0xbd4c77d3	-0.04991896
49	0x3d625148	0.055253297
50	0xbd4ae9dc	-0.049539432
51	0xbc401378	-0.011723392
52	0xbd97fe32	-0.07421531
53	0x3da2d90f	0.07951557
54	0x3cdd7052	0.027031098
55	0x3cc5982e	0.024120416
56	0x3d135901	0.035973553
57	0xbbe04364	-0.006843971
58	0xbd9a3d70	-0.075312495
59	0xbd15d246	-0.036577486
60	0x3db77c21	0.089592226
61	0x3d78c67b	0.06073616
62	0x3d94c28f	0.072636716
63	0x3cbf965a	0.023387123
64	0xbd80f252	-0.06296219
65	0x3d773a75	0.060358483
66	0x3d799d97	0.060941305
67	0xbd0c45b8	-0.034246176
68	0xbce067a4	-0.02739317
69	0x3d28db40	0.041224718
70	0xbd1b77ba	-0.037955977
71	0xbdad85a6	-0.08472757
72	0x3dab3523	0.083597444
73	0x3d5e2159	0.05423102
74	0x3b448b8c	0.0029990403
75	0xbcb2d9b0	-0.021832317
76	0xbda2455f	-0.07923388
77	0xbc805569	-0.015665727
78	0x3d517b82	0.051143177
79	0xbab1be62	-0.0013560767
80	0x3d699655	0.057028133
81	0xbd4cd5a9	-0.05000845
82	0x3c9a897f	0.018864391
83	0x3d9f4473	0.077767275
84	0x3cd54673	0.02603457
85	0x3904ea85	0.00012675866
86	0x3dab193a	0.08354421
87	0x3c333b10	0.010939375
88	0x3c34046e	0.010987384
89	0xbd934abb	-0.07191988
90	0x3d262add	0.04056822
91	0xbd000115	-0.031251032
92	0xbc2acb5d	-0.010424462
93	0xbd8e705e	-0.06955026
94	0xbd3e6c31	-0.046489898
95	0x3d41dfb9	0.0473325
96	0xbbbc735a	-0.0057510557
97	0xbca2f57a	-0.019892443
98	0xbd978e60	-0.07400203
99	0xbd319ee5	-0.043364424
