tests/fixtures/drop_in_model_artifacts/torch_bin.pth (torch_old, 32793 bytes, 5 tensors)

weight f4 [50, 5]
000000 4c 03 2d be 98 65 f0 3e 8c b0 5c 3e bf 02 1c be
       -0.16895789 0.4695251 0.21551722 -0.15235423
000010 b1 3b a9 3d fa fc 6a be 43 ab 10 3e b6 ac 05 3e
       0.08263338 -0.22948065 0.14127831 0.13054165
000020 27 83 c7 3e 1f 21 a3 be 38 50 18 bd 66 f9 b0 be
       0.3896725 -0.31861207 -0.037185878 -0.34565276
000030 c8 68 79 be 4c b8 37 be e0 1d b6 3e 02 c9 8f 3e
       -0.24356377 -0.17941397 0.35569668 0.28083044
000040 c3 c1 8a be 4b fc aa be 1e 6a 00 3d 0b c0 1c be
       -0.27100953 -0.3339561 0.0313512 -0.15307634
000050 52 c6 bd 3e ae d4 c7 3e 98 e0 cc 3e ee 9f 74 3e
       0.3706537 0.3902945 0.400151 0.23889133
000060 33 08 9e bc af 8f 67 be 08 51 83 3e c8 59 80 3e
       -0.019291019 -0.22613405 0.2564776 0.25068498
000070 6a 0f 85 3e 10 24 0b 3e 50 b4 88 be c0 62 e2 3c
       0.25988322 0.13587976 -0.26700068 0.027634978
000080 50 20 2d bd d3 0b b0 be 7c ec 36 3e 51 0b 32 be
       -0.042267144 -0.3438402 0.17863649 -0.1738713
000090 b9 3e b2 3d 26 84 e4 3d 16 cc 92 be d3 63 a4 be
       0.0870337 0.11158018 -0.2867133 -0.3210741
0000a0 d5 eb 03 be a6 c3 72 3e ca c4 a1 3e fb 3e a7 bd
       -0.12882932 0.23707446 0.3159545 -0.081663094
0000b0 50 35 cb bd be 0b 4a 3e 5f f5 34 bd f1 c3 4a 3e
       -0.09922278 0.19731042 -0.044179317 0.19801308
0000c0 51 9b 57 be 0c c2 a6 be 56 3a a5 3e 6c 51 2b bd
       -0.21055342 -0.3256992 0.3227107 -0.041825697
0000d0 f7 71 6a 3e e8 8c c8 bd 5d be 28 be b6 52 3d be
       0.22895037 -0.09792501 -0.16478868 -0.18488583
0000e0 a3 ea 35 3e 77 13 7e 3e 5e b0 ad 3d e1 c6 82 3e
       0.17765288 0.24812113 0.08480905 0.25542358
0000f0 77 91 eb 3d 9c 5c 96 3e 4a e0 66 be f0 a6 0a 3e
       0.115023546 0.2936753 -0.22546497 0.13540244
000100 ac e9 60 3e de 1b 31 be 98 c3 cc 3d 40 e9 cc 3d
       0.21964139 -0.17295787 0.09998244 0.100054264
000110 ab 46 d7 be 05 53 4a be a8 1b c9 be 5a 1c bc 3e
       -0.42046103 -0.19758232 -0.39278913 0.3674038
000120 f4 bf da 3e 91 78 11 3e be 47 41 bd 54 7e 21 be
       0.42724574 0.14206149 -0.04718756 -0.15770847
000130 8a 9e a2 3e 1e 21 e8 bd 30 02 8b bd 05 62 e9 3e
       0.3176158 -0.113344416 -0.067875266 0.45582595
000140 16 0d 41 be d0 dc b7 bd e0 89 81 bc b4 b6 46 3e
       -0.18852648 -0.089776635 -0.015812814 0.19405633
000150 94 af 0c 3e 1b c2 c6 3e 88 de a4 3d 03 42 8e 3e
       0.13738853 0.38819966 0.08050257 0.27784738
000160 cc 63 d0 be cb b3 c9 be 0d d2 48 3e 61 5d f5 bd
       -0.4070114 -0.39394984 0.19611378 -0.11980701
000170 0b cf 0e 3e 9e 0f b5 3e c0 1c 65 3e 42 c9 20 bc
       0.13946168 0.35363477 0.22374249 -0.009813609
000180 d1 c7 bd 3e 32 ed e1 be d1 f2 69 3d 49 87 11 be
       0.3706651 -0.44126278 0.057116333 -0.14211763
000190 7c 91 0b be 7f da b8 3d 32 98 a5 3e d6 80 16 be
       -0.13629717 0.0902605 0.32342678 -0.14697585
0001a0 89 b9 ac 3e e2 5a ce be 84 96 1a 3d cb c4 e4 3e
       0.33735302 -0.40303713 0.0377412 0.4468139
0001b0 c2 03 38 3e ba e1 ee bc 15 2b 69 3e 3b 60 25 bd
       0.17970183 -0.02916037 0.2277034 -0.040374976
0001c0 ec 5c 71 be 41 47 e5 bd 1a f2 4e 3e 1e ad 04 3e
       -0.23570603 -0.11195231 0.20209542 0.12956664
0001d0 58 b1 1b bd 57 1b f0 be 52 01 34 be 34 b9 04 3d
       -0.038010925 -0.4689586 -0.17578629 0.032403186
0001e0 38 42 3f be 20 b3 47 3d 0a e1 a5 be 28 67 9a be
       -0.18677604 0.04875481 -0.32398254 -0.30156827
0001f0 d0 81 a2 bc 30 92 97 3d 73 89 7e 3e 2e 53 dd be
       -0.01983729 0.0740093 0.2485712 -0.43227524
000200 4c 47 64 be 35 dc 85 3d c0 83 70 bd 9c 96 9c bd
       -0.22292823 0.06536142 -0.058719397 -0.07645914
000210 b8 73 4f bd c0 9f a8 3d d0 0b b4 3e 8e eb dd 3e
       -0.050647467 0.08233595 0.35165262 0.43343776
000220 6b ee 05 3e 6c fa d7 3e 43 71 dd 3e 38 4f 2e be
       0.1307923 0.42183244 0.43250474 -0.17022407
000230 81 48 b4 be 7d 1a 26 be f9 50 b7 3e e8 a3 8c be
       -0.35211566 -0.16221042 0.35803965 -0.274688
000240 77 eb d8 bc 14 ec f9 bd 92 52 cd be e0 49 c3 bc
       -0.026479466 -0.122032315 -0.4010206 -0.023838937
000250 64 c2 b3 3e 5e be c9 3e 8b 96 ee 3d 3c df 8b bc
       0.35109246 0.3940305 0.116498075 -0.01707422
000260 f7 c7 1f be 73 f0 f4 bd ea 48 90 be f2 42 60 be
       -0.15603624 -0.119599245 -0.2818063 -0.21900538
000270 c6 29 0b be 04 69 17 3e 64 66 73 3e e8 f6 f7 3d
       -0.13590154 0.14786154 0.23769528 0.121076405
000280 c9 2a dd be 90 8d b9 be e0 26 6a bd dc a0 41 be
       -0.43196705 -0.36240816 -0.05716598 -0.18909019
000290 1e 52 85 3e 90 c4 5f be 41 de e0 3e 4c 97 53 be
       0.26039213 -0.21852326 0.43919566 -0.20663184
0002a0 cf f4 bc 3c ce 41 bc bc b3 cf 99 3d d2 05 d5 be
       0.023065953 -0.022980597 0.075103186 -0.41606003
0002b0 66 57 02 bd 1b 33 aa 3d b2 40 f8 3e f3 50 cf 3e
       -0.03182163 0.08310529 0.4848686 0.40491447
0002c0 13 f3 18 3e c4 77 b8 be 05 73 8b 3e 23 c1 c1 3e
       0.14936475 -0.36028874 0.2723619 0.37842664
0002d0 b7 3c c2 be c3 f6 c9 3e 7e 90 8b be e7 7f 8b bb
       -0.37936947 0.39446077 -0.27258676 -0.0042571905
0002e0 e1 df a2 be 16 77 05 be 31 1b 83 3e 03 6f 8a 3e
       -0.3181143 -0.13033709 0.25606683 0.2703782
0002f0 76 ed 60 be 4d 03 01 3e ca 24 42 bc ec 13 d8 3e
       -0.21965584 0.12598915 -0.0118495915 0.422027
000300 5d b1 d0 3e 1d e5 cd be c5 a1 b3 be 91 54 88 3d
       0.40760317 -0.40213862 -0.35084358 0.06656755
000310 32 34 fc 3c 44 f4 aa 3e ae a9 a2 3e f3 e9 ed bc
       0.030786607 0.33389485 0.3177008 -0.02904222
000320 40 bf 87 bb 14 89 24 be c0 94 a7 bc fe 5d e1 be
       -0.004142672 -0.16067916 -0.020456672 -0.44017023
000330 b8 57 ed bd 1d cf e7 bd 22 30 af 3e f9 57 8f be
       -0.11588997 -0.113188006 0.3421641 -0.27996805
000340 d3 44 da be 20 a6 48 3e c8 c0 35 3e b5 c1 b9 3e
       -0.42630634 0.19594622 0.17749321 0.362806
000350 8b 2c 96 3d e0 cc 0b 3e 2c c6 7a 3e 9c f2 73 3e
       0.07332715 0.13652372 0.24489659 0.23823017
000360 a6 e9 d5 be 60 8d 48 bd 47 73 5c 3d 73 8a 3e be
       -0.41779822 -0.04896295 0.053820875 -0.18607502
000370 f4 60 b8 3e 8d 5a 63 be fe db 97 be 7a c8 cb 3e
       0.3601147 -0.22202511 -0.29660028 0.3980139
000380 9d 82 cd 3d a8 6e 12 be 90 c3 43 3e 71 21 af be
       0.10034678 -0.14300025 0.1911757 -0.342052
000390 56 06 8c be d8 95 16 3e ab fa fc bd 86 b1 e8 3d
       -0.27348584 0.14705598 -0.123524986 0.11361985
0003a0 c1 75 a9 3e 7c c6 36 3d d1 49 9c bd a9 0d ac 3e
       0.33097652 0.044622883 -0.07631267 0.33604172
0003b0 b7 2f b0 3e 5c 0b f5 3d 3f 8d 0c 3e a1 f1 b6 bd
       0.34411404 0.11965057 0.13725756 -0.08932806
0003c0 41 0f 91 3e f3 04 b4 3e e7 35 c4 be d0 9e cc 3e
       0.2833195 0.35160026 -0.38322374 0.39964914
0003d0 ba 9a ec 3d ae 06 94 3e f5 61 81 be fa aa a3 3e
       0.11552949 0.28911346 -0.25270048 0.31966382
0003e0 75 36 cb be 9a fe 36 bc
       -0.39689985 -0.0111691

bias f4 [50]
000000 99 06 86 3e d1 e9 c1 be e0 21 b7 bd 0b 5b ed be
       0.2617691 -0.378737 -0.08942008 -0.46358523
000010 9a c0 a6 bd 08 f9 87 3e ec 78 b1 3e 8e cc 63 ba
       -0.081422046 0.26557183 0.3466257 -0.0008689844
000020 bb 77 e0 3e 84 55 d1 3e 6e 63 b8 3e 83 2e 90 3d
       0.43841347 0.40885556 0.3601336 0.070401214
000030 01 23 ea be 76 04 98 be 66 40 f3 bd b7 23 a2 3e
       -0.4572983 -0.29690903 -0.118775174 0.31667873
000040 33 cb 9e be 71 bd dc 3e de a9 de 3e aa ae 86 3e
       -0.31014404 0.43113282 0.43488973 0.26305133
000050 53 60 ec be 9e 32 0b be 25 4f b8 bd 1c 93 f3 be
       -0.4616724 -0.13593528 -0.089994706 -0.47573173
000060 f5 20 83 be 7b 98 a0 be bc 48 49 3e e2 5b b8 be
       -0.25611082 -0.31366333 0.19656652 -0.360076
000070 f2 fd 7c 3e e5 76 bb be 35 55 44 be b2 23 7d be
       0.24706247 -0.36614147 -0.19173129 -0.24720648
000080 20 89 b6 3e 0c 17 74 3e 14 44 d2 3d 84 f7 a6 be
       0.35651493 0.23836917 0.10266891 -0.32610714
000090 4d 31 f8 3e 50 c6 3a 3e 0d 97 d0 be d0 da 7d be
       0.48475114 0.18239713 -0.40740243 -0.24790502
0000a0 74 f7 8b 3e d5 16 20 be 27 36 c0 3d ea 1a ea 3c
       0.2733723 -0.1563371 0.09385329 0.028577287
0000b0 40 32 d7 be 60 a2 9a 3d de 60 b3 be b6 0e 2c 3e
       -0.42030525 0.07550502 -0.3503484 0.16802487
0000c0 07 65 48 3e f0 02 19 bc
       0.19569789 -0.009339079

weight f4 [100, 50]
000000 9b 72 e3 3d 54 e4 d6 bc 36 34 06 be 84 f3 a5 bc
       0.11105844 -0.026231922 -0.13105854 -0.020257719
000010 84 d8 0e 3e 94 17 3b 3e 30 48 71 3d d6 b9 48 3d
       0.13949782 0.18270713 0.058906734 0.049005352
000020 5c 34 14 bd 1e fe a6 3d c5 81 13 3e 35 28 0e 3e
       -0.036182746 0.08153938 0.14404972 0.13882525
000030 7a 02 07 3e dc bf 80 3d 34 1c 79 3d 00 0e ed 3d
       0.13184538 0.06286594 0.060817912 0.11574936
000040 f0 74 7f bc 7b 98 9c b9 1e a3 cd bd 46 fe d6 3d
       -0.015591845 -0.00029868245 -0.10040878 0.104977176
000050 84 95 9d 3d b3 dc c0 bd 00 40 00 3d c4 47 1b be
       0.076945335 -0.09417095 0.031311035 -0.15164095
000060 de 5b f7 3d 4c 58 7b 3d 14 a7 a6 bc 1b a1 5a bd
       0.12078069 0.061363503 -0.020343341 -0.0533763
000070 9a 82 11 bd bc 89 e3 bc c1 bb 10 bd 5e be a6 bd
       -0.035524942 -0.027775638 -0.035335306 -0.081417784
000080 88 b1 f0 bc ca a7 94 3c 16 02 1e bc 83 ba 9b bd
       -0.029381528 0.018146414 -0.009644052 -0.07603934
000090 cd 20 83 3d 7a 18 33 bc 12 3c df 3c fe 7e cb 3d
       0.06402741 -0.010931129 0.027250323 0.09936331
0000a0 58 83 49 3d 23 9d 04 bd 7b 59 04 bd f5 ae 13 be
       0.049197525 -0.03237642 -0.032311898 -0.1442221
0000b0 22 6e b7 bd b0 a6 59 3c 41 e8 64 bd ea 10 be 3d
       -0.08956553 0.01328437 -0.055885557 0.0928057
0000c0 aa 64 b1 3d e3 13 9a bd 09 2f 45 3c 7d 30 c2 3c
       0.08661778 -0.07523324 0.01203514 0.023704762
0000d0 62 1f 64 bd ef 12 03 3e f4 18 8b bd de 3d 37 3e
       -0.05569399 0.12800191 -0.06791869 0.17894694
0000e0 30 d8 c4 3d f3 c8 7d 3d 34 e2 4b 3c ca 33 bc 3d
       0.09611547 0.06195922 0.012444068 0.091895655
0000f0 24 1e 2a 3d 4e 47 a0 3d 29 84 dc bd f0 60 0a 3d
       0.04153265 0.078261 -0.10767395 0.033783853
000100 d2 0b 87 bd d1 2d 6d bd a1 0c 0e be 23 7e de 3d
       -0.065940514 -0.057905022 -0.13872005 0.108639024
000110 af 17 2d 3d d2 bf ab bd 1a 71 bc bd cf 68 05 3e
       0.042258915 -0.08386196 -0.0920126 0.13028263
000120 1e 26 fa 3d 52 c8 cb bd 00 0e c1 3a 54 9f f5 3d
       0.122143015 -0.099503174 0.0014728904 0.1199328
000130 02 d3 f4 3d 0c 0a 42 3b e2 b0 32 bd 80 83 a5 bb
       0.11954309 0.002960804 -0.04362572 -0.0050510764
000140 71 5a d1 bd 48 b9 b9 3c 44 78 c7 3d 9f b5 ef 3c
       -0.102223285 0.022671357 0.09739736 0.029261408
000150 2f 30 1f 3d f2 91 fb 3c eb a7 6d 3d 99 8a f6 3d
       0.03886431 0.03070924 0.058021467 0.12038154
000160 94 e9 ea 3d 7c f8 15 3d 84 d3 10 bd ee bd 4d 3d
       0.11470333 0.036613926 -0.035357967 0.05022996
000170 02 e7 08 3e ea 9b 0f 3d 83 2c 07 3e 60 da b6 bd
       0.13369372 0.0350608 0.13200574 -0.089283705
000180 b9 ad 15 3d 8c 87 37 bd a4 ba ef ba ad 3b a4 bc
       0.036542628 -0.044807002 -0.0018289876 -0.020047987
000190 10 5d e6 39 18 78 44 3d 5e 6f 00 bd a7 83 1d bd
       0.00043938356 0.047966093 -0.031356208 -0.03845563
0001a0 bd e5 2a 3c 16 b4 83 bd ad 74 03 3e 16 b3 7e 3d
       0.01043075 -0.06430833 0.12837477 0.06218251
0001b0 19 a9 ba 3c a7 72 5f bd 3c c3 41 3d dc fa 0b 3e
       0.02278571 -0.0545527 0.04730533 0.13669914
0001c0 b8 b5 f5 bc 4e 3e e6 3d f0 ee 46 3d 48 1c 7c 3d
       -0.029993877 0.112423524 0.048567712 0.06155041
0001d0 0b ab 9e bd be 24 d2 3b e1 98 89 bc 22 57 16 3e
       -0.077474676 0.0064130714 -0.016796531 0.14681676
0001e0 eb 02 c0 bd 8d ed 7f bd 24 13 8c ba 5c a9 b2 bd
       -0.093755566 -0.062482405 -0.0010686857 -0.08723709
0001f0 5d 77 0b 3e 07 99 c6 bd 98 b7 80 3d 84 1b a1 3d
       0.13619752 -0.096971564 0.06285018 0.07866576
000200 62 db c9 3c 00 7c 12 3d 60 d3 15 bc 6e 9e e0 bd
       0.024640743 0.035762787 -0.009144634 -0.10967718
000210 9e 6c ec 3d a0 f9 06 3e 74 23 0c be fe e5 e1 3d
       0.115441546 0.13181162 -0.136854 0.11030196
000220 47 8b 92 bd 6f 11 10 3d 57 d9 30 bc 70 78 aa 3d
       -0.07155471 0.035172876 -0.010794005 0.08323753
000230 e5 29 98 bd 34 23 c6 3c e7 3c 67 3b 9e b9 38 bd
       -0.07429866 0.024186708 0.0035284103 -0.045098893
000240 3b c9 a4 3d 46 55 b5 bd a0 7c 08 3e 9c 30 97 bc
       0.08046194 -0.08854155 0.1332879 -0.018455796
000250 48 e3 72 bc 83 90 a5 bc d7 b5 b6 bd 89 72 0d be
       -0.014824696 -0.02021051 -0.08921402 -0.13813223
000260 20 47 e7 3b c2 0b b9 3d 6c a7 09 bc 93 55 7d bd
       0.0070580393 0.09035446 -0.008401733 -0.061849188
000270 48 50 96 3c 2f ba a6 bd d2 1d e9 3c b8 2d 5f 3c
       0.018348828 -0.081409805 0.028456602 0.01362174
000280 0a 0a 7a bc 6e 6a b4 3c 33 5d 0d 3e a4 80 f0 bd
       -0.015261183 0.022023406 0.13805084 -0.11743286
000290 34 90 19 be 36 3b 01 bd 14 6d ad bd 12 1f a6 3d
       -0.14996415 -0.03155061 -0.084680706 0.08111395
0002a0 b0 07 65 bd 40 ba c1 3d db 52 e0 3d 72 7b c2 3d
       -0.055915534 0.094593525 0.109533034 0.094962016
0002b0 9b 36 03 be b9 aa 3d bd 48 b0 c5 3c 53 68 07 3e
       -0.12813799 -0.046305392 0.024131909 0.1322339
0002c0 ac d1 f0 bc 80 50 13 bd d5 61 b7 bb e8 9b fe bd
       -0.029396854 -0.035965443 -0.0055963793 -0.124320805
0002d0 13 36 dd bc a5 ff 0a 3e 7b 7a 0f be e8 68 2f bc
       -0.027003324 0.13574083 -0.14011566 -0.010706164
0002e0 39 ce 06 bd 7f 8e 01 3e 0e c9 cb bb 35 f7 27 be
       -0.032911513 0.12652014 -0.006219036 -0.16402896
0002f0 5a 8e 77 3c 01 0b f7 bd 98 c1 01 be 34 d9 28 3d
       0.015109623 -0.12062646 -0.12671506 0.041222766
000300 33 b3 6f 3d 3e 76 0a 3e fd cc 59 bc 40 ef d8 3c
       0.058520507 0.13521668 -0.013293502 0.02648127
000310 dd 11 73 bc 8f fa 8a bd a9 4a 0e 3d e1 71 b6 3b
       -0.014835802 -0.067860715 0.03473917 0.0055677746
000320 71 1c 81 bd aa 90 52 3c d8 b2 8e 3d 76 e0 04 3e
       -0.06304253 0.012851873 0.069677055 0.1297625
000330 39 90 3e bd 04 0b 98 38 0c 69 74 3d 07 e2 ad bd
       -0.04652426 7.2499766e-05 0.059670493 -0.08490377
000340 32 73 6a bb d5 fc f9 3d 93 50 a8 bd 1f 36 0f 3e
       -0.0035774228 0.12206427 -0.08218493 0.1398549
000350 67 22 d0 bd 47 b8 01 be ca 72 d5 bc 7c 5e 23 3b
       -0.10162812 -0.12667952 -0.026055712 0.0024928143
000360 78 47 81 bc 2f c9 09 3e 19 55 f0 bc e8 6d 15 3e
       -0.01578115 0.13455652 -0.029337453 0.14592707
000370 44 e2 a7 3d 5f cd 05 3e 89 18 f3 3d d9 d2 bf bd
       0.081974536 0.13066624 0.11869914 -0.09366388
000380 46 79 96 3d 27 48 48 3c 0f c6 06 be b9 94 ea bd
       0.0734735 0.012224234 -0.13161491 -0.11454148
000390 bd c3 12 3e 04 70 8e bc c1 b5 b8 3d 5e c7 29 bd
       0.1433248 -0.017387398 0.09019042 -0.041449897
0003a0 46 36 c7 3d 1b b7 9d bc 48 a3 2c be 9d b0 e9 3d
       0.09727149 -0.01925235 -0.16859162 0.114106394
0003b0 c5 4d 19 bd 5f 89 f7 3d ff 78 36 3e 08 59 ff b8
       -0.037427682 0.12086748 0.17819594 -0.00012175931
0003c0 dd ed 8d bd 47 cf c7 bc 17 32 fd bd ac 0e 4d 3d
       -0.069301344 -0.02439083 -0.123630695 0.05006282
0003d0 c1 c1 00 be 45 75 0c 3e 90 82 a1 3d 62 6a 71 bd
       -0.12573911 0.1371661 0.07886231 -0.058939345
0003e0 b0 85 a9 bc 0b c7 02 be d2 1e 6f 3d f3 9f 75 3d
       -0.02069363 -0.12771241 0.058379002 0.059966993
0003f0 d2 bf 9c 3d 19 10 f3 bd 2f ae 00 3c 4a 70 02 3e
       0.07653774 -0.11868305 0.007854029 0.12738147

bias f4 [100]
000000 e1 69 62 bd e6 2a ed 3d 68 68 cd bc b3 b7 05 3d
       -0.055276755 0.11580448 -0.025074199 0.032645892
000010 c9 cc 40 bc 0c 50 03 3d 7f 64 6e bd 64 a8 2c 3c
       -0.011767575 0.03205876 -0.05820131 0.010538194
000020 53 2f 0b 3e 3c 08 6d 3d ba a8 96 bd d4 20 db bc
       0.13592272 0.05786918 -0.07356401 -0.026749052
000030 4b 00 32 3e 3d f3 31 3d a5 c5 78 3c 28 ef ed bc
       0.17382924 0.04344486 0.015183841 -0.029044703
000040 12 79 35 3c 91 ae f5 3d 4c 73 9a bd 76 78 a7 bd
       0.011076229 0.119961865 -0.075415224 -0.08177273
000050 94 bd f9 3d 73 97 b1 3d 8b 46 06 be d9 24 2d bd
       0.12194362 0.08671465 -0.13112848 -0.04227147
000060 ec 08 f9 bd ce d9 9a bd ee d0 86 bd d7 da bc bd
       -0.12159905 -0.07561074 -0.06582819 -0.09221428
000070 c8 ce 30 bd 03 11 a5 bd f4 c8 92 bd 82 20 8b bd
       -0.043165952 -0.08059885 -0.07167235 -0.0679331
000080 6b 6e c3 bd d3 db b7 3b 0c c4 1b be 49 a3 9f 3d
       -0.09542545 0.005610922 -0.15211505 0.07794816
000090 1a b2 e6 3d 42 a0 b1 3d 2c cc a0 bd 3f e0 19 be
       0.11264439 0.08673145 -0.07851443 -0.1502695
0000a0 b4 5b c3 3d e4 b2 13 3e 57 5a 8b bd b4 27 13 be
       0.09538975 0.1442371 -0.0680434 -0.14370614
0000b0 30 c4 a4 bc 6c ee ae bd f9 b0 b7 3d 6c 5c f2 bd
       -0.02011308 -0.08541569 0.08969302 -0.11834034
0000c0 26 3e ed bc 4a f2 eb 3c d5 b4 0c be 37 ee b9 bd
       -0.028960299 0.028802056 -0.13740857 -0.09078639
0000d0 42 c9 84 bd b8 2e ee 3c cf a8 30 be 78 5d bb bc
       -0.064836994 0.029075012 -0.17251895 -0.022871718
0000e0 e1 23 30 3d 57 68 a5 3c 2a 33 ee bd 46 9c bd 39
       0.043002967 0.020191355 -0.116308525 0.00036165322
0000f0 24 95 9c bd 34 55 0c 3e cd 3b a5 3d 9c 0d ca 3d
       -0.07645634 0.13704377 0.08068047 0.09865877
000100 13 38 b1 3d ca d0 c7 3c 95 a6 dd bb f4 bb 3f 3d
       0.086532734 0.02439155 -0.006764243 0.046810105
000110 21 cf 1d bd a3 ca 75 3d 19 62 c7 3c 14 aa c2 3d
       -0.03852761 0.060007703 0.024338769 0.09505096
000120 ba da 13 3e 99 ba 8e 3c d0 f9 e6 3d 05 43 0c 3d
       0.14438906 0.017422961 0.11278117 0.034243602
000130 e0 f1 60 bd e9 8e 44 3c 44 61 34 be 59 8a a0 bb
       -0.05491817 0.011996963 -0.17615229 -0.004899305
000140 79 81 06 3e 23 f0 a9 bd cd 6c 16 bc 5a aa f4 3d
       0.13135327 -0.082977556 -0.009181214 0.119465545
000150 64 a0 98 3d ba 44 3f bd 27 31 15 be ee 93 8a 3d
       0.07452467 -0.046696402 -0.14569531 0.067664966
000160 bc a3 1a 3a 07 5e 77 3d d5 0e c6 3d 09 52 b1 bd
       0.0005899032 0.060392406 0.09670798 -0.08658225
000170 45 5a dc bd 7d 0c 03 3e 65 92 d4 bd 53 ae c7 3d
       -0.10759405 0.12797733 -0.10379485 0.097500466
000180 67 0e 2a be be 90 d5 3d 37 62 ca 3c a5 99 50 3d
       -0.16607057 0.10427998 0.024705036 0.050927777

weight f4 [1, 100]
000000 98 21 48 bd cd f3 04 bd 32 6c 2d bd 76 7f 8b 3d
       -0.048860162 -0.03245907 -0.04233951 0.068114206
000010 17 0e 7a bd 4c f9 81 bd ed 96 ba 3d ab 01 95 bd
       -0.061048593 -0.06346378 0.09110818 -0.07275709
000020 95 5a af bd bf b6 4d bb c1 40 9f 3d 95 ab 93 3d
       -0.08562199 -0.0031389443 0.07776023 0.07210461
000030 1e 49 99 bd f5 ba 92 3d 6e dc 62 3d 4f 19 c4 bd
       -0.07484649 0.071645655 0.055386 -0.0957514
000040 ed 61 c5 bb 51 1b 8c bd 74 01 22 bd 0b 5c bb bd
       -0.0060236366 -0.06841148 -0.039552167 -0.09148415
000050 36 1e d3 bc c4 a6 9a bd c7 4f 3e 3c 41 58 27 3b
       -0.025771242 -0.07551339 0.0116157 0.002553478
000060 cc 1e ba 3d fb 35 1a bd f0 e3 a9 bd e6 7f 04 3d
       0.09087905 -0.037649136 -0.08295429 0.032348536
000070 a5 85 c4 bc c2 b1 73 3d c2 e3 a7 bd 62 b8 75 bd
       -0.023989508 0.059495695 -0.08197738 -0.059990294
000080 1e 49 95 3c 23 29 95 3d 88 3d 58 3d de 5a 28 3d
       0.018223342 0.07283237 0.052793056 0.041102283
000090 0b da dc bb c4 a1 a8 3d 3c fb 8b 3d ce d2 a1 3c
       -0.00673986 0.08233979 0.068350285 0.01975384
0000a0 56 12 93 bd 74 77 66 bd dc a2 90 bd eb b0 69 3c
       -0.07181232 -0.056266263 -0.07062313 0.014263372
0000b0 24 bf 7b bd 1a e0 e4 bc e3 e5 6d bb db b3 dc 3c
       -0.061461583 -0.027938891 -0.0036300353 0.02694123
0000c0 99 3a 0c 3d c6 98 9a 3d 71 6f cb 3d 4d 1a 86 3c
       0.03423557 0.075486705 0.09933365 0.016369963
0000d0 0a ba 84 bc 19 a0 04 bd 74 86 48 3d b1 a8 bd 3d
       -0.016201992 -0.032379244 0.04895635 0.09260691
0000e0 b4 c4 60 bb 7d 62 75 3d 06 4e 14 3d 1a 21 44 3c
       -0.0034296932 0.05990838 0.03620722 0.011970783
0000f0 99 4a b6 3d 4c 47 bf bc ea 47 b9 bd a3 70 71 3c
       0.08900947 -0.023349427 -0.0904692 0.014736327
000100 38 d8 95 bd 64 0a ab 3d fc b7 28 3d ae 2a 39 bd
       -0.07316631 0.08351591 0.041191086 -0.04520672
000110 77 bf b0 bd 62 ad 23 bd f0 30 b8 3c f0 03 5d bd
       -0.08630269 -0.039960273 0.022484273 -0.053958833
000120 0b 15 39 bd a1 84 cd bd ea 69 8f bd f7 16 ba bd
       -0.045186084 -0.100350626 -0.070026234 -0.090864114
000130 29 ee 5b bd 5c f2 b6 bd 31 c1 30 3d 90 de e0 3d
       -0.053693924 -0.08932945 0.04315299 0.109799504
000140 84 7d 6e bc 74 4d 8c 3c d3 25 e8 bc 63 9d 2c bc
       -0.014556292 0.017126776 -0.028338348 -0.010535571
000150 b9 9f b4 3d a9 c9 c1 3c 15 ea 44 3d e3 52 63 bc
       0.08819527 0.02365573 0.0480748 -0.013874742
000160 b1 af 92 bd 19 4f 70 bd aa dd 97 3d f7 3e 13 3d
       -0.07162417 -0.058669183 0.07415326 0.03594872
000170 cc 4e a3 3d ab 38 d3 bd 78 13 89 bb 8d 90 08 bd
       0.07974014 -0.10313543 -0.004183229 -0.03334098
000180 fa 12 70 3d 3c bd e2 bd 17 e2 f4 bc b5 80 da 3c
       0.058611847 -0.1107125 -0.029892964 0.0266727
