tests/fixtures/drop_in_model_artifacts/torch_reg.pth (torch_old, 33640 bytes, 5 tensors)

weight f4 [50, 13]
0.23093848 -0.13320357 0.12156791 0.096765056 0.012563035 -0.009296769 0.0812712 0.15005489
-0.027575046 0.11277191 -0.15879112 -0.14676772 -0.14178367 -0.21584815 -0.22834861 0.10532348
0.28482264 0.24429046 0.27057388 0.22984947 0.075281285 -0.2603239 0.05286984 0.2509796
-0.14651462 0.023681255 0.031994577 -0.20948546 -0.12603332 0.22437598 0.047900546 0.23238781
-0.24248497 0.21457009 0.22870952 0.0048698974 -0.2321619 0.23951735 -0.057387542 -0.18154329
-0.15699491 -0.028659295 -0.051387988 0.14553478 -0.21679056 -0.073319614 -0.10121961 -0.045038227
-0.08282575 -0.14967202 0.149803 0.19377817 -0.0011826383 -0.13025855 -0.1845062 0.18138781
0.24010316 -0.024452556 0.08254497 0.101708025 0.097176336 0.06988225 -0.117460266 -0.09006209
-0.048643336 0.13423356 0.024602603 -0.12465803 0.22549637 -0.16435084 -0.09260057 -0.031054385
0.266326 -0.24545823 0.13526611 -0.231245 0.2538964 -0.27664885 -0.13308795 -0.04213786
-0.15894514 -0.04268296 -0.27455476 -0.060225174 -0.021744281 -0.056622297 0.004158646 -0.1972884
-0.20543309 -0.081445724 -0.048841953 0.1295219 -0.02826893 -0.09180592 0.011882373 0.19142202
-0.23311897 -0.3123947 -0.26768818 -0.047981374 0.14385785 0.23878643 0.073624186 -0.3033513
-0.17356105 -0.17356297 0.22311068 0.15724206 -0.24145454 -0.10263123 -0.13877252 -0.2297914
-0.15850882 -0.0337511 -0.24516632 0.13406111 0.031681843 0.074359745 0.017688245 0.045472443
0.16396052 0.14388984 -0.030305803 -0.13410935 0.13885576 0.059500277 -0.0834914 0.05308923
-0.031007096 0.16788697 0.018522821 -0.23703577 0.0008400259 -0.1452378 0.24329454 -0.26593417
-0.20086694 -0.27797446 0.19104183 0.16934413 -0.18637593 0.11037656 -0.23648785 0.119799465
-0.08797778 -0.05624077 -0.087188676 0.25610918 0.21010086 -0.14738064 0.076902084 0.09379822
0.08425435 0.18082337 -0.27696574 -0.2654985 -0.06287808 -0.092940584 -0.1399052 -0.16391984
0.26095238 0.19544762 0.12324475 0.25155362 -0.18712717 0.090216085 0.056411702 0.095551044
0.07977082 0.1696256 0.038402647 0.11283007 0.32942465 -0.14653476 -0.120725475 0.19661118
0.20226093 -0.051068913 -0.13972656 0.024082545 0.19620891 -0.12285134 -0.2134507 -0.19394568
-0.05989689 0.10724378 -0.28273463 -0.203567 -0.23064646 -0.16775993 -0.2336645 0.14036904
-0.22556143 -0.22531676 0.1554858 0.12840132 0.019889735 -0.20679484 -0.13331576 -0.17290214
0.27550206 -0.1173401 -0.10999145 -0.22771798 0.013313122 -0.20432325 0.030326491 -0.06261127
-0.21248381 0.25117669 -0.18407853 0.046784963 0.2431442 0.0049632546 -0.13774812 -0.081667215
-0.13837744 0.20864327 -0.060723606 -0.23401193 -0.17534189 -0.06795799 -0.09328425 0.13497218
0.019452563 -0.14018662 0.07625198 0.1796183 -0.2660713 0.15049131 0.13149416 -0.16392449
-0.13311665 -0.13305996 -0.28044865 0.2707504 0.18111558 0.0070520025 0.17981863 -0.051495112
0.14561304 0.21869874 0.09416566 0.15491605 0.16687955 -0.0064815558 -0.2033942 0.24072227
-0.26542386 -0.28028807 -0.10561729 0.16097654 -0.18824677 -0.0315937 -0.16022296 -0.13064702
00000000: 237b 6c3e 8466 08be 99f8 f83d c22c c63d
00000010: 30d5 4d3c 7a51 18bc 8471 a63d fda7 193e
00000020: 10e5 e1bc f6f4 e63d 249a 22be 474a 16be
00000030: bd2f 11be 4c07 5dbe 38d4 69be d6b3 d73d
00000040: 46d4 913e 4727 7a3e a988 8a3e a95d 6b3e
00000050: 132d 9a3d 2d49 85be 0c8e 583d 6680 803e
00000060: ee07 16be 31ff c13c bf0c 033d 5b83 56be
00000070: e10e 01be d1c2 653e 5d33 443d 12f7 6d3e
00000080: fb4d 78be 43b8 5b3e d432 6a3e a993 9f3b
00000090: d9bb 6dbe 0944 753e 330f 6bbd 7ce6 39be
000000a0: 46c3 20be e6c6 eabc 367c 52bd 1207 153e
000000b0: 58fe 5dbe 9828 96bd 3a4c cfbd 017a 38bd
000000c0: 8ca0 a9bd 9f43 19be f565 193e c96d 463e
000000d0: c202 9bba 7f62 05be 31ef 3cbe babd 393e
000000e0: 9add 753e ba50 c8bc 560d a93d 4c4c d03d
000000f0: 6304 c73d 6d1e 8f3d 028f f0bd 7972 b8bd
00000100: 3c3e 47bd 8674 093e 668b c93c b64c ffbd
00000110: 85e8 663e 964b 28be 5ea5 bdbd c465 febc
00000120: e25b 883e 6759 7bbe 3383 0a3e 7dcb 6cbe
00000130: b5fe 813e eba4 8dbe 3548 08be c098 2cbd
00000140: 84c2 22be 54d4 2ebd 7192 8cbe acae 76bd
00000150: 1021 b2bc c8ec 67bd 4045 883b f805 4abe
00000160: 0d5d 52be 04cd a6bd 800e 48bd 64a1 043e
00000170: 3e94 e7bc be04 bcbd 49ae 423c 2204 443e
00000180: bdb6 6ebe 33f2 9fbe 6d0e 89be 1e88 44bd
00000190: 794f 133e 6e84 743e 47c8 963d dd50 9bbe
000001a0: fdb9 31be 7eba 31be 2077 643e 1004 213e
000001b0: dc3f 77be 5330 d2bd 621a 0ebe 704e 6bbe
000001c0: 2350 22be 983e 0abd e10c 7bbe 5147 093e
000001d0: d2c4 013d ec49 983d f0e6 903c 5041 3a3d
000001e0: 44e5 273e dc57 133e e043 f8bc f653 09be
000001f0: 3430 0e3e 90b6 733d 8afd aabd 1874 593d
00000200: 9802 febc 90ea 2b3e 2cbd 973c 81b9 72be
00000210: 2f35 5c3a 38b9 14be 3422 793e 8628 88be
00000220: 10b0 4dbe ab52 8ebe 78a0 433e 8c68 2d3e
00000230: 55d9 3ebe 1b0d e23d df29 72be 6c59 f53d
00000240: b22d b4bd b95c 66bd fa8f b2bd be20 833e
00000250: ae24 573e f3ea 16be d77e 9d3d 4819 c03d
00000260: 8b8d ac3d c329 393e 74ce 8dbe 6bef 87be
00000270: 39c6 80bd a257 bebd 4f43 0fbe 9ada 27be
00000280: 8d9b 853e 6c23 483e be67 fc3d a3cb 803e
00000290: 449e 3fbe 36c3 b83d f50f 673d 44b0 c33d
000002a0: e25e a33d 55b2 2d3e 184c 1d3d 7413 e73d
000002b0: 59aa a83e 350d 16be eb3e f7bd 7154 493e
000002c0: 7d1d 4f3e a32d 51bd 7b14 0fbe c248 c53c
000002d0: fdea 483e 7c99 fbbd d292 5abe b299 46be
000002e0: 7156 75bd a0a2 db3d 98c2 90be de73 50be
000002f0: 962e 6cbe 42c9 2bbe bf45 6fbe e7bc 0f3e
00000300: 93f9 66be 70b9 66be ab37 1f3e a37b 033e
00000310: ccef a23c 07c2 53be ed83 08be 420d 31be
00000320: 9b0e 8d3e 0250 f0bd 3343 e1bd e72e 69be
00000330: 481f 5a3c 1d3a 51be 436f f83c 563a 80bd
00000340: 5b95 59be 3b9a 803e 157f 3cbe 97a1 3f3d
00000350: cbfa 783e cca2 a23b d80d 0dbe 2441 a7bd
00000360: d1b2 0dbe 95a6 553e 51b9 78bd d3a0 6fbe
00000370: d38c 33be 8f2d 8bbd d00b bfbd 2636 0a3e
00000380: fb5a 9f3c 158d 0fbe 002a 9c3d dced 373e
00000390: 7f3a 88be 651a 1a3e 68a6 063e d2db 27be
000003a0: bb4f 08be df40 08be f796 8fbe cc9f 8a3e
000003b0: 5d76 393e 7c14 e73b 6022 383e 8aec 52bd
000003c0: 961b 153e 90f2 5f3e edd9 c03d 50a2 1e3e
000003d0: 79e2 2a3e 3b63 d4bb 9246 50be e67f 763e
000003e0: a3e5 87be eb81 8fbe e14d d8bd 09d7 243e
000003f0: c3c3 40be 6568 01bd 7d11 24be 55c8 05be

bias f4 [50]
-0.007192535 0.04419184 -0.079738446 -0.09469943 0.031202473 -0.21077478 0.20446458 -0.3040733
-0.0030993079 -0.14416815 0.057748564 0.15344384 0.13001865 -0.2348958 0.21488817 -0.013480924
-0.0474874 0.24791698 -0.13876611 0.23112147 0.13783176 -0.17560771 0.08521321 0.17856307
0.05700794 0.021472413 -0.040835053 -0.24672614 -0.03512172 0.09649114 -0.1132581 0.18659656
0.10058019 -0.04559336 0.2259117 0.17426978 0.013261274 0.032323215 -0.24239406 0.245855
-0.061613906 -0.15055765 0.09929282 -0.027241083 0.056270372 0.03090066 -0.03593602 -0.24459329
-0.05228061 -0.08107102
00000000: 5baf ebbb 8102 353d e94d a3bd c6f1 c1bd
00000010: 549c ff3c 58d5 57be 2a5f 513e 7faf 9bbe
00000020: c21d 4bbb d1a0 13be c289 6c3d 6220 1d3e
00000030: 9c23 053e 8688 70be a50b 5c3e 18df 5cbc
00000040: 2682 42bd f3dd 7d3e b418 0ebe 1bab 6c3e
00000050: c523 0d3e 82d2 33be 4384 ae3d 3dd9 363e
00000060: 2881 693d eae6 af3c a842 27bd c7a5 7cbe
00000070: cbdb 0fbd 269d c53d ddf3 e7bd 2b13 3f3e
00000080: fdfc cd3d 1ac0 3abd 6655 673e c773 323e
00000090: d145 593c 5965 043d 2636 78be 6ac1 7b3e
000000a0: dd5e 7cbd c92b 1abe 095a cb3d b128 dfbc
000000b0: c37b 663d 6223 fd3c a631 13bd aa76 7abe
000000c0: 3124 56bd 9008 a6bd

weight f4 [100, 50]
0.0096070655 0.13553871 0.0032739586 0.11181383 -0.05856232 0.03464934 0.022729725 0.10283847
0.14148208 -0.094818205 0.040555123 0.035543952 0.038618784 0.02252732 0.007476194 0.01217987
-0.101953074 0.08329544 0.00874494 0.10925461 0.00054107554 -0.02046097 -0.078183144 0.03802666
-0.025832899 0.03514043 -0.06526811 0.12870972 -0.082952954 -0.06325419 -0.032207295 -0.0631921
0.071269065 0.012484494 -0.004078001 0.0913977 -0.044413347 -0.11774249 0.046307996 -0.06651476
0.077124216 0.04743305 -0.040860847 -0.019178992 -0.13201636 -0.0514291 0.09883049 0.002794699
-0.11510871 -0.07151776 -0.077959895 0.12698127 0.07768437 0.121200554 0.01015779 0.10709154
-0.037561104 -0.038400553 -0.015957845 0.10087505 0.08785363 -0.048413374 -0.13715954 -0.07170121
-0.1490761 -0.078985095 -0.026241573 0.11428196 0.114430726 -0.08691148 -0.0023104069 0.030794298
0.114534326 -0.061311126 -0.023326598 -0.049202144 -0.1027551 -0.112859644 0.088091314 -0.10077654
-0.12730193 0.0015951062 0.009614885 -0.008460251 0.002663955 -0.033656217 -0.008307097 -0.04029583
-0.0644307 0.13893364 0.06314361 -0.052271657 -0.12863396 -0.13102372 0.12798613 -0.13203195
0.12317199 -0.046889924 -0.099144764 -0.030924253 0.067831 -0.09944868 -0.07592338 -0.008330687
0.03117527 -0.035120815 -0.012794614 -0.09607815 -0.1268437 0.12977396 0.12444352 0.11337369
-0.096822925 -0.049739078 0.12606844 -0.14097695 0.02953996 -0.10437626 0.0041778 -0.10064521
-0.14605653 0.10475259 0.10635283 -0.08869974 -0.03971439 0.007345952 -0.09908453 0.05595156
0.03589199 -0.0118661765 0.044067618 -0.008113873 -0.11625363 0.07159709 0.11345263 0.072952114
-0.16227496 -0.10144241 -0.035457723 0.08190012 -0.09448714 0.080913335 -0.032713026 -0.075491875
0.1029162 0.11381525 0.028697345 -0.08250851 -0.1192642 -0.005288154 0.13689509 0.04345874
0.1080775 0.0781442 -0.033098586 -0.14173056 0.11184178 0.014996171 0.03885444 0.10730635
-0.07704186 -0.019238727 -0.00941098 0.05202582 0.13249896 0.13266042 -0.09256459 0.080779
0.0007161761 0.06587369 -0.09387454 0.0010352335 0.0634776 0.14047273 0.018601045 0.101438485
0.05491343 0.09206193 -0.09859689 0.10187463 -0.053537033 -0.060688764 -0.10238414 0.14519563
0.04384081 -0.11891574 -0.02159792 0.027137086 -0.011155501 0.034209132 -0.04936409 -0.13652234
0.046071496 -0.0046145716 -0.06210596 0.13633592 -0.031042317 -0.09173621 0.10933791 -0.095288835
0.08857431 -0.03898943 0.117868684 0.02220339 -0.08781388 -0.14212637 0.053019047 -0.021296132
0.023435416 0.14106594 0.008948613 -0.07437677 0.044115085 -0.033741448 0.011021138 0.025210783
-0.013646249 -0.045481633 -0.0749035 -0.002287949 -0.016493736 -0.13445188 -0.12820736 0.06430991
0.062361047 0.010394802 -0.06990701 -0.12595169 -0.051294368 0.10301808 0.03620988 -0.11547574
-0.066446334 0.11805173 -0.09608664 0.1320228 -0.12747474 0.07139266 0.113971815 -0.12167413
-0.08263776 0.035688296 0.1009059 -0.11447792 -0.11456143 0.009268838 -0.108114175 -0.089923546
-0.09958331 -0.067305826 -0.054680172 -0.04989037 0.07873186 0.0550089 0.047118943 0.0061255484
00000000: f466 1d3c a9ca 0a3e e98f 563b a6fe e43d
00000010: 0bdf 6fbd 77ec 0d3d b033 ba3c fa9c d23d
00000020: aee0 103e 0c30 c2bd 211d 263d 8996 113d
00000030: bb2e 1e3d 378b b83c dcfa f43b 148e 473c
00000040: c6cc d0bd cd96 aa3d f046 0f3c e2c0 df3d
00000050: f7d6 0d3a c49d a7bc 7c1e a0bd d8c1 1b3d
00000060: 849f d3bc 69ef 0f3d 49ab 85bd 7bcc 033e
00000070: 3de3 a9bd 6a8b 81bd cceb 03bd dc6a 81bd
00000080: 84f5 913d c38b 4c3c c0a0 85bb b82e bb3d
00000090: c5ea 35bd f922 f1bd 74ad 3d3d e438 88bd
000000a0: 4df3 9d3d 2849 423d b45d 27bd 431d 9dbc
000000b0: 4c2f 07be 52a7 52bd a467 ca3d 4527 373b
000000c0: 1ebe ebbd e777 92bd 70a9 9fbd 6107 023e
000000d0: fc18 9f3d ff37 f83d dc6c 263c cf52 db3d
000000e0: acd9 19bd e649 1dbd 07ba 82bc 9497 ce3d
000000f0: 9bec b33d 1a4d 46bd 8d73 0cbe 16d8 92bd
00000100: 68a7 18be f0c2 a1bd 91f8 d6bc a90c ea3d
00000110: a85a ea3d a5fe b1bd 326a 17bb 5344 fc3c
00000120: f990 ea3d 6021 7bbd 6c17 bfbc 3088 49bd
00000130: 4471 d2bd f522 e7bd 3869 b43d ee63 cebd
00000140: 705b 02be e212 d13a c087 1d3c dd9c 0abc
00000150: c095 2e3b 1adb 09bd 7d1a 08bc 3e0d 25bd
00000160: 3ef4 83bd 9f44 0e3e 7051 813d ce1a 56bd
00000170: 9fb8 03be 152b 06be cc0e 033e 6233 07be
00000180: 9941 fc3d a60f 40bd 690c cbbd dc54 fdbc
00000190: fbea 8a3d c0ab cbbd b87d 9bbd 6f7d 08bc
000001a0: 4863 ff3c d8da 0fbd 80a0 51bc 9fc4 c4bd
000001b0: 51e3 01be 77e3 043e 3fdc fe3d 7730 e83d
000001c0: 194b c6bd 34bb 4bbd 1618 013e 435c 10be
000001d0: c9fd f13c 38c3 d5bd ede5 883b 131f cebd
000001e0: d88f 15be 8788 d63d 83cf d93d 36a8 b5bd
000001f0: 8eab 22bd 50b6 f03b d4ec cabd 772d 653d
00000200: 7b03 133d 5a6a 42bc 3f80 343d 0df0 04bc
00000210: 6216 eebd 7fa1 923d da59 e83d eb67 953d
00000220: 682b 26be 0ac1 cfbd 1e3c 11bd 40bb a73d
00000230: 7982 c1bd e4b5 a53d 18fe 05bd 7c9b 9abd
00000240: bbc5 d23d f817 e93d b216 eb3c 39fa a8bd
00000250: ca40 f4bd 4048 adbb 3a2e 0c3e cb01 323d
00000260: bc57 dd3d 110a a03d 6292 07bd d121 11be
00000270: 4e0d e53d 80b2 753c d525 1f3d 6ec3 db3d
00000280: 1fc8 9dbd 899a 9dbc 8330 1abc 0719 553d
00000290: cfad 073e 22d8 073e 8192 bdbd 766f a53d
000002a0: c4bd 3b3a c9e8 863d 4b41 c0bd acb0 873a
000002b0: 8b00 823d 15d8 0f3e 3861 983c fbbe cf3d
000002c0: e8ec 603d f78a bc3d 2bed c9bd a5a3 d03d
000002d0: a649 5bbd c894 78bd c7ae d1bd 2aae 143e
000002e0: 6c92 333d 188a f3bd 1fee b0bc 984e de3c
000002f0: 90c5 36bc e01e 0c3d 0032 4abd 83cc 0bbe
00000300: 77b5 3c3d d535 97bb d262 7ebd a59b 0b3e
00000310: 754c febc 32e0 bbbd 8eec df3d cb26 c3bd
00000320: 7366 b53d 61b3 1fbd 2365 f13d e2e3 b53c
00000330: c3d7 b3bd 9389 11be 802a 593d 3a75 aebc
00000340: a1fb bf3c 9773 103e 349d 123c d952 98bd
00000350: 05b2 343d 7934 0abd 0192 343c d886 ce3c
00000360: 8494 5fbc f34a 3abd 0267 99bd 6af1 15bb
00000370: df1d 87bc c1ad 09be ca48 03be eab4 833d
00000380: 4c6e 7f3d f64e 2a3c 682b 8fbd 7bf9 00be
00000390: 0b1a 52bd 25fb d23d d050 143d 8b7e ecbd
000003a0: 0415 88bd 1bc5 f13d 13c9 c4bd fc30 073e
000003b0: bd88 02be 5136 923d 0e6a e93d 4930 f9bd
000003c0: fc3d a9bd e42d 123d c1a7 ce3d 6673 eabd
000003d0: 2f9f eabd 53dc 173c f76a ddbd d629 b8bd
000003e0: 56f2 cbbd a3d7 89bd 51f8 5fbd d859 4cbd
000003f0: 2b3e a13d 0351 613d cbff 403d d3b8 c83b

bias f4 [100]
0.14224428 0.1221003 -0.01934681 0.11893537 -0.00070825516 0.041256875 0.092603624 0.055177715
0.1503851 -0.12086061 -0.0912232 0.05961982 -0.033053074 0.0017030285 0.022312995 -0.12941624
-0.015699647 -0.044323254 -0.10194121 0.07686148 -0.11652972 0.045796815 -0.007521509 0.055554453
-0.07677894 -0.112604566 0.052023448 0.010838545 0.08623854 0.07718542 -0.14845917 0.00093676685
0.0722394 0.0056281285 0.08909141 0.03990194 -0.14295778 -0.09853417 -0.094617516 -0.12310858
0.10185039 -0.04115519 0.04785214 0.059945654 -0.07336428 -0.11037446 -0.105351225 0.06717076
0.053396508 0.08958773 -0.077707894 -0.013327087 -0.08741432 -0.005504407 0.09152291 0.13752891
-0.059531745 -0.1238511 -0.032844104 -0.06303863 0.047755472 0.040882498 0.11563801 -0.024702031
0.058808465 0.11902828 -0.014348674 0.034986198 -0.088358074 0.10493514 0.14224608 -0.09009583
0.10849326 -0.09663912 0.08499342 -0.06215477 -0.10421761 -0.05227051 -0.018116815 0.09052857
-0.078242324 -0.024499228 0.00433646 0.040091466 0.07111777 -0.11258727 0.019552885 0.15028644
0.08396528 0.13667609 -0.00012710856 0.10694021 0.00031856704 -0.02690543 -0.08966525 -0.008332055
-0.11515883 0.15261936 0.14135854 -0.117793664
00000000: 7ca8 113e b90f fa3d 347d 9ebc 6394 f33d
00000010: 33aa 39ba f8fc 283d f8a6 bd3d 0702 623d
00000020: 8dfe 193e c485 f7bd 3bd3 babd ea33 743d
00000030: a962 07bd 2738 df3a bec9 b63c b185 04be
00000040: 8c9c 80bc 4d8c 35bd 8ec6 d0bd 8d69 9d3d
00000050: 22a7 eebd 7195 3b3d fe76 f6bb 118d 633d
00000060: 473e 9dbd 399d e6bd 8a16 553d 2794 313c
00000070: d59d b03d 6413 9e3d ae05 18be 5c91 753a
00000080: 40f2 933d 2a6c b83b 8f75 b63d 3770 233d
00000090: 8663 12be 48cc c9bd d4c6 c1bd 5a20 fcbd
000000a0: f096 d03d 5892 28bd 9b00 443d 9389 753d
000000b0: 0340 96bd 010c e2bd 62c2 d7bd d390 893d
000000c0: 4cb6 5a3d c679 b73d 5125 9fbd db59 5abc
000000d0: 4706 b3bd 505e b4bb 5d70 bb3d 61d4 0c3e
000000e0: 8fd7 73bd a5a5 fdbd 8a87 06bd 661a 81bd
000000f0: 3e9b 433d 6874 273d 9fd3 ec3d ea5b cabc
00000100: 25e1 703d 19c5 f33d b316 6bbc b04d 0f3d
00000110: 14f5 b4bd 3ce8 d63d f5a8 113e 2a84 b8bd
00000120: b731 de3d bbea c5bd 0811 ae3d 0096 7ebd
00000130: 0b70 d5bd 9a19 56bd b769 94bc 0b67 b93d
00000140: 833d a0bd 9bb2 c8bc dd18 8e3b f336 243d
00000150: 32a6 913d 2894 e6bd 5f2d a03c b0e4 193e
00000160: fdf5 ab3d d1f4 0b3e 7248 05b9 7803 db3d
00000170: 5805 a739 c768 dcbc 6aa2 b7bd 2c83 08bc
00000180: 65d8 ebbd 4048 1c3e 4bc0 103e ce3d f1bd

weight f4 [1, 100]
0.083928205 -0.041525852 -0.008363718 0.093953155 -0.06959164 0.054959465 -0.05542782 -0.079009935
0.015987027 0.049871087 0.018399525 0.01820127 -0.038230136 0.09071498 0.030885108 -0.08143079
-0.034427647 0.041816965 0.090278 0.003979616 0.009850235 0.022774111 0.018766258 -0.04756466
0.07349386 -0.04813098 -0.013276596 -0.013336714 -0.010650229 0.048678543 -0.017550815 -0.022900444
0.003701181 0.08111148 -0.05405615 -0.07385846 -0.023821296 0.009790213 0.050863333 0.08791192
0.013725195 0.07377505 -0.026510887 -0.035665512 0.03807362 -0.02447877 0.08733869 0.03356112
0.07578491 -0.058923703 -0.048398186 0.0069256267 0.024620583 0.02914946 0.082145505 0.007847633
-0.017164271 -0.07779696 -0.069849424 -0.061994556 0.035029013 0.0014394673 0.076422796 -0.08382981
0.012196455 -0.080597386 -0.06671693 0.080302596 0.05653532 0.04815705 0.04643565 0.057510104
-0.0363261 0.034328777 0.071289115 0.08165239 -0.088641234 -0.014616498 -0.06365281 -0.008694305
0.0002701055 0.031017797 0.07986502 0.006818914 0.034265663 -0.0075432933 0.0436854 0.017064922
0.058364075 0.08470537 -0.031627968 -0.06335709 0.009957353 -0.05891298 0.076725096 0.07731449
0.01868512 0.017245924 0.037944738 0.059612263
00000000: 8de2 ab3d 0317 2abd fa07 09bc 836a c03d
00000010: 1086 8ebd 2d1d 613d 4808 63bd f6cf a1bd
00000020: 3af7 823c a045 4c3d 9aba 963c d41a 953c
00000030: 3497 1cbd c7c8 b93d c402 fd3c 30c5 a6bd
00000040: 0104 0dbd 4448 2b3d ace3 b83d 7067 823b
00000050: e162 213c c690 ba3c b2bb 993c 29d3 42bd
00000060: f383 963d fe24 45bd 1486 59bc 3c82 5abc
00000070: 4c7e 2ebc 2763 473d bac6 8fbc b699 bbbc
00000080: 838f 723b c71d a63d fb69 5dbd 1b43 97bd
00000090: e124 c3bc 2167 203c 1256 503d 2a0b b43d
000000a0: a4df 603c 6017 973d 5c2d d9bc 0016 12bd
000000b0: 16f3 1b3d b487 c8bc a1de b23d 6377 093d
000000c0: 1e35 9b3d fb59 71bd 2d3d 46bd 5ef0 e23b
000000d0: 1bb1 c93c d9ca ee3c e73b a83d 5c93 003c
000000e0: 169c 8cbc 0354 9fbd 370d 8fbd 01ee 7dbd
000000f0: 957a 0f3d 82ac bc3a 8e83 9c3d f7ae abbd
00000100: a4d3 473c 3e10 a5bd e3a2 88bd b075 a43d
00000110: 9491 673d 5440 453d 4f33 3e3d b78f 6b3d
00000120: adca 14bd 559c 0c3d 0700 923d 5e39 a73d
00000130: 8989 b5bd 097a 6fbc 685c 82bd 8f72 0ebc
00000140: f29c 8d39 0919 fe3c 4690 a33d 3271 df3b
00000150: 275a 0c3d bb2d f7bb 76ef 323d bccb 8b3c
00000160: 2b0f 6f3d 027a ad3d 548c 01bd 5dc1 81bd
00000170: 2a24 233c bd4e 71bd 0c22 9d3d 0f57 9e3d
00000180: 8911 993c 5347 8d3c f16b 1b3d fd2b 743d
