model_templates/python3_onnx_binary/binary_iris.onnx (onnx, 4492 bytes, 6 tensors)

fc1.weight f4 [25, 4]
0	0xbef3a048	-0.47583222
1	0x3e75aa1c	0.23990673
2	0x3dd2edaf	0.10299241
3	0x3ed5a6b2	0.4172874
4	0xbee8cf3c	-0.45470607
5	0x3cdba900	0.026813984
6	0xbeba2284	-0.36354458
7	0xbe9a2368	-0.30105138
8	0xbef5c0b6	-0.4799859
9	0x3e1c76e0	0.15279722
10	0xbe949b1e	-0.29024595
11	0x3dfa9168	0.12234765
12	0xbea18c54	-0.31552374
13	0xbe6a5514	-0.22884017
14	0x3ef930c8	0.4867003
15	0xbe175af8	-0.14780796
16	0x3cf71a00	0.030163765
17	0xbea42f28	-0.32067227
18	0xbefe63e0	-0.49685574
19	0xbe402a48	-0.18766129
20	0xbcb47220	-0.022027075
21	0x3a9fb13b	0.0012183556
22	0x3ea69fa5	0.32543674
23	0x3f3cbc4a	0.73724806
24	0xbeb83ea0	-0.3598528
25	0x3e9fee78	0.31236625
26	0xbb86bf00	-0.0041121244
27	0xbed2ef34	-0.41198123
28	0xbec18b9a	-0.3780182
29	0xbe2974dc	-0.16548485
30	0x3e271bc8	0.16319191
31	0x3c9ad180	0.018898726
32	0x3ea65453	0.3248621
33	0x3f0cc4ec	0.5498798
34	0xbf228c5b	-0.63495415
35	0xbea4fd33	-0.32224426
36	0x3de439e8	0.11143857
37	0xbdbeeb19	-0.09322185
38	0x3ee5d2a4	0.4488727
39	0xbe710845	-0.23538311
40	0x3ebcbc9d	0.3686265
41	0x3e8fb12b	0.28064856
42	0x3e3dc537	0.18532263
43	0x3e9ff099	0.3123825
44	0x3e01cc40	0.12675571
45	0x3ec88084	0.3916055
46	0x3f05c8aa	0.52259314
47	0xbd3e658e	-0.04648357
48	0xbeb0d364	-0.34536278
49	0x3e249fac	0.16076535
50	0xbe75dcec	-0.24010056
51	0x3dc2bca8	0.095086396
52	0x3efd481f	0.49469087
53	0x3ee0cf10	0.43907976
54	0xbed6302e	-0.41833633
55	0x3e8d29e1	0.27571014
56	0xbee5a42c	-0.44851816
57	0xbdc6ebe8	-0.09712964
58	0x3e822f28	0.25426602
59	0xbecaa434	-0.39578402
60	0x3eb54a57	0.3540828
61	0x3ec01ded	0.37522832
62	0xbee361c4	-0.44410527
63	0xbddb357a	-0.10703559
64	0x3eeb94d3	0.4601198
65	0x3efeea0c	0.4978794
66	0xbf0b4a88	-0.544106
67	0x3e9170b9	0.28406313
68	0x3f14c470	0.5811224
69	0xbef6083d	-0.4805316
70	0x3ebf9373	0.37417182
71	0xbe0a7fc1	-0.13525297
72	0xbd613c50	-0.05498916
73	0xbe85eea4	-0.2615863
74	0xbed39362	-0.41323382
75	0xbed1bee4	-0.4096595
76	0x3e1c887a	0.15286437
77	0x3dbef672	0.093243495
78	0xbe26ff64	-0.16308361
79	0xbbd37226	-0.0064528165
80	0x3e091784	0.13387877
81	0x3edbf839	0.42962816
82	0xbdeb2ac9	-0.1148277
83	0xbef5d553	-0.48014316
84	0x3edbb939	0.4291475
85	0x3e332d43	0.17497735
86	0xbf28376a	-0.65709555
87	0xbbe96f41	-0.007123858
88	0x3e01f6f2	0.12691858
89	0xbe5a909c	-0.21344227
90	0x3f2c3f4d	0.6728409
91	0xbdcadc10	-0.09905255
92	0xbe8e5ef6	-0.27806824
93	0x3e3f3940	0.18674183
94	0x3e299ee0	0.16564512
95	0xbeab5a6e	-0.3346743
96	0x3dcf99b8	0.101367414
97	0xbec7ade2	-0.3899985
98	0xbe769f64	-0.2408424
99	0x3e832ab4	0.25618517

fc1.bias f4 [25]
0	0xbddbe653	-0.1073729
1	0xbea2a5b8	-0.31767058
2	0xbefbf3a6	-0.49209327
3	0x3d41bac0	0.04729724
4	0xbef30ce6	-0.47470778
5	0x3ed9f18e	0.42567104
6	0xbd418490	-0.047245562
7	0xbeb3e2de	-0.35134023
8	0xbe4fd11d	-0.20294614
9	0xbe9f8425	-0.31155506
10	0x3e9935a2	0.2992373
11	0x3e612f04	0.21990591
12	0xbedb43a8	-0.42825055
13	0xbea3b62b	-0.3197492
14	0x3e17d0b4	0.14825708
15	0xbe3faefa	-0.18719092
16	0x3db03dab	0.08605512
17	0xbedf2d5a	-0.43589288
18	0x3e0973d8	0.13423097
19	0x3bede771	0.007260256
20	0x3daf3247	0.085545115
21	0x3ea1d42f	0.31607196
22	0xbc4b847c	-0.012421723
23	0x3df94498	0.12171286
24	0x3e8aa1d4	0.2707659

fc2.weight f4 [30, 25]
0	0x3c23229a	0.00995698
1	0xbe22356f	-0.15840696
2	0x3e15fc52	0.14647034
3	0x3d2d5673	0.042318773
4	0xbe0bef1d	-0.13665433
5	0x3e0def45	0.13860805
6	0x3e1f986d	0.1558549
7	0xbe22f20f	-0.1591265
8	0x3e020efd	0.1270103
9	0xbcb1e323	-0.021714753
10	0xbd38e55d	-0.045140613
11	0x3d9e1ae3	0.07719972
12	0xbe2ffca8	-0.17186224
13	0xbe349146	-0.17633542
14	0x3e12df6a	0.14343038
15	0x3e0aa5df	0.13539837
16	0xbe68fded	-0.22753115
17	0xbdece95f	-0.115679495
18	0x3de858aa	0.11345036
19	0xbdda96ce	-0.10673295
20	0xbc9cbd47	-0.019133223
21	0xbc8ca590	-0.01716879
22	0xbe835b5f	-0.25655648
23	0x3e308cc0	0.17241192
24	0x3d828843	0.06373646
25	0xbd8e8ea9	-0.06960804
26	0xbd5f3833	-0.054496955
27	0x3d99f327	0.07517081
28	0x3e0ec5ad	0.13942595
29	0xbdc37360	-0.095434904
30	0xbed6b913	-0.41938075
31	0xbd77a1ba	-0.06045697
32	0xbe1d413b	-0.15356915
33	0x3ec384d5	0.3818728
34	0xbeb19c67	-0.34689638
35	0x3db84ccd	0.089990236
36	0xbdd985bd	-0.10621212
37	0x3dfacfc3	0.12246659
38	0x3e0fb0e6	0.14032325
39	0xbd71dd07	-0.05904868
40	0x3e470140	0.1943407
41	0x3e0ddcd7	0.13853775
42	0xbe217f27	-0.15771161
43	0x3e26b9b2	0.16281775
44	0x3d403392	0.04692418
45	0x3e932786	0.2874109
46	0x3eacbcef	0.33737895
47	0xbd3513c5	-0.044208307
48	0x3d2ccb47	0.042186048
49	0xbdb2a450	-0.08722746
50	0x3e67ae4f	0.22625087
51	0x3cb2e9f3	0.021840071
52	0xbc5debe7	-0.013545013
53	0xbde075a7	-0.109599404
54	0xbdbeaabd	-0.093099095
55	0x3edc056f	0.42972896
56	0x3daea1e0	0.08526969
57	0xbe42c3df	-0.19020031
58	0xbebcf3ca	-0.36904746
59	0x3e351b29	0.17686142
60	0x3dda7929	0.10667641
61	0x3e9808be	0.2969417
62	0x3e46ea0b	0.19425218
63	0x3e47619e	0.19470832
64	0xbd80e22a	-0.06293137
65	0xbe1a5ce5	-0.15074499
66	0xbe6d19ba	-0.23154345
67	0x3e95cf5f	0.29259774
68	0x3d61149a	0.054951288
69	0xbe01bcd1	-0.12669684
70	0x3df8ac72	0.12142266
71	0xbcad494b	-0.021153113
72	0x3e60cf20	0.21954012
73	0xbe04c59d	-0.12966008
74	0x3e28a22f	0.16468118
75	0xbd4767c0	-0.048682928
76	0xbe2e0a05	-0.1699601
77	0x3e028323	0.12745337
78	0xbd1d3c9a	-0.038387872
79	0xbdf53bd7	-0.11974304
80	0x3d7b04b3	0.06128378
81	0x3e2e86a8	0.17043555
82	0x3c978f33	0.0185009
83	0xbd5ced53	-0.053937268
84	0xbc455600	-0.01204443
85	0xbdbcf7fd	-0.092269875
86	0xbd024f40	-0.03181386
87	0xbe2d152a	-0.16902605
88	0x3d7c9247	0.06166294
89	0xba1d9667	-0.00060114864
90	0xbce021c0	-0.027359843
91	0xbdf8a203	-0.12140276
92	0x3d2fca07	0.042917278
93	0xbdeb7f23	-0.11498859
94	0xbdcdbcfd	-0.10045812
95	0xbe01db08	-0.1268121
96	0xbe362073	-0.17785816
97	0xbe072227	-0.13196622
98	0x3e08d7b7	0.13363539
99	0xbe48ea98	-0.1962074
100	0x3d9d1d10	0.07671559
101	0xbd321660	-0.04347837
102	0x3d3a5487	0.045490768
103	0x3dc3553a	0.0953774
104	0xbda66b87	-0.08125978
105	0xbdf3a8ad	-0.11897407
106	0xbe188a98	-0.1489662
107	0xbd7bc5ad	-0.061467815
108	0x3ac08ccd	0.0014690399
109	0x3dea949d	0.11454127
110	0x3e35de2a	0.1776053
111	0xbd6cc020	-0.057800412
112	0x3e1f1695	0.15535958
113	0xbddb666a	-0.10712893
114	0x3e0dacf8	0.13835514
115	0x3c735e4d	0.014854026
116	0xbe4a697d	-0.19766803
117	0xbe017de7	-0.12645684
118	0xbe413a47	-0.18869887
119	0x3cad39da	0.02114575
120	0xbd97dca3	-0.0741513
121	0xbd35a36d	-0.044345308
122	0xbde8d95a	-0.113695815
123	0x3e2c2fb7	0.16815077
124	0xbd7c80ed	-0.06164639
125	0x3c2bb48e	0.010480059
126	0x3dd2939d	0.10282061
127	0xbd639aa0	-0.055567384
128	0xba0e4800	-0.0005427599
129	0xbde32d1a	-0.11092587
130	0x3e97942c	0.29605234
131	0x3cbaa667	0.022784425
132	0xbdd46810	-0.10371411
133	0xbe4b9926	-0.1988264
134	0x3eccda79	0.4001043
135	0x3e76f3f5	0.241165
136	0xbdaf673b	-0.085646115
137	0xbd5af06d	-0.053451944
138	0x3e26a6e6	0.16274604
139	0xbe34fd8d	-0.17674847
140	0xbd0bf8bb	-0.034172755
141	0xbe0c0fcc	-0.13677901
142	0x3e22c795	0.15896447
143	0xbd420e00	-0.047376633
144	0xbca807f0	-0.020511597
145	0x3a4badfa	0.000776976
146	0xbec52e18	-0.3851173
147	0x3e800df9	0.2501066
148	0xbe41ea40	-0.18937016
149	0xbe3e72ff	-0.18598555
150	0x3c32f300	0.0109221935
151	0xbdbaf100	-0.09127998
152	0xbb9b6c33	-0.004743123
153	0x3e4c614b	0.1995899
154	0x3d73e7d3	0.059547257
155	0xbe48936b	-0.19587485
156	0xbc4b399a	-0.01240387
157	0x3d0a31a0	0.033738732
158	0x3e99f5f8	0.30070472
159	0xbe2ca5ef	-0.16860174
160	0xbe3291ff	-0.17438506
161	0x3d2d8838	0.042366236
162	0x3dc8ced7	0.098050766
163	0x3e596047	0.21228133
164	0xbd653627	-0.055959847
165	0x3e8c4ddd	0.27403155
166	0x3e85ac78	0.26108146
167	0x3d9420fc	0.07232854
168	0x3963599a	0.00021681786
169	0x3e002011	0.12512232
170	0x3de264b6	0.11054365
171	0x3e461a2c	0.19345921
172	0xbe8e4db8	-0.2779367
173	0xbe03df13	-0.12878065
174	0xbe10ad7b	-0.14128678
175	0xbc7aee00	-0.015315533
176	0x3d059c60	0.032619834
177	0xbdfd24a0	-0.12360501
178	0xbccac500	-0.02475214
179	0x3d75217a	0.05984638
180	0x3cb5bf80	0.02218604
181	0xbc4d6db3	-0.012538361
182	0xbd7b0793	-0.06128652
183	0x3d7b47f3	0.061347913
184	0xbe08b5d3	-0.1335061
185	0xbe2de0af	-0.16980241
186	0xbe280713	-0.16408949
187	0x3dd2cd4d	0.10293064
188	0x3e1ccafd	0.15311809
189	0x3b90089a	0.0043955566
190	0x3de3b340	0.111181736
191	0x3d9a6ed0	0.07540667
192	0xbdb727f0	-0.08943164
193	0x3e04895a	0.1294302
194	0x3d62ffa7	0.05541959
195	0x3d897373	0.06711473
196	0xbe206adf	-0.15665768
197	0x3e464612	0.19362667
198	0xbd8b8837	-0.0681309
199	0x3daad680	0.08341694
200	0xbdd8865b	-0.10572501
201	0x3e025773	0.12728672
202	0x3e4091a7	0.18805562
203	0x3d95b173	0.073092364
204	0x3d5b156d	0.05348723
205	0xbe7bcf34	-0.2459076
206	0x3dc47c93	0.09594073
207	0xbe35d6a7	-0.17757665
208	0x3e46f26e	0.19428417
209	0xbdda8c54	-0.10671297
210	0xbd858d4d	-0.065210916
211	0x3c675b88	0.014120944
212	0x3e39bc57	0.18138252
213	0x3cc40c80	0.023931742
214	0xbe3f9ef8	-0.18712986
215	0x3eb47ca0	0.3525133
216	0x3e9d50e5	0.3072578
217	0xbe869097	-0.26282188
218	0x3c8788da	0.016544748
219	0x3e45791e	0.19284484
220	0x3d0fe394	0.035129145
221	0x3ec985b9	0.39359835
222	0x3a607474	0.0008562275
223	0xbe1daa95	-0.15397103
224	0x3d44fc33	0.04809208
225	0x3c2262cf	0.009911253
226	0x3dc9b06d	0.09848104
227	0xbd188333	-0.037234496
228	0xbc9446f3	-0.018100237
229	0x3d4be840	0.049782038
230	0x3e908963	0.28229818
231	0xbd18b92d	-0.037285972
232	0x3c5fa91a	0.013651157
233	0xbe502bd3	-0.20329218
234	0x3e42782f	0.18991159
235	0x3df37056	0.11886661
236	0x3d9d4ec9	0.07681043
237	0xbe4c8eab	-0.19976299
238	0xbe50ddee	-0.2039716
239	0x3d32b37a	0.043628193
240	0xbe63c51e	-0.22243163
241	0x3d6b85ad	0.05750053
242	0x3ea01906	0.3126909
243	0xbe49585a	-0.1966261
244	0xbd0c1b13	-0.034205507
245	0x3d447a15	0.04796799
246	0xba8c4c46	-0.0010703884
247	0x3e38a34f	0.18031047
248	0xbe2ae973	-0.16690616
249	0xbe3eba62	-0.18625787
250	0x3e65c4fa	0.22438422
251	0x3e306eaf	0.17229722
252	0xbe43e9d7	-0.19132172
253	0xbe4018ed	-0.18759508
254	0xbdd06e1d	-0.101772524
255	0x3ea21561	0.31656936

fc2.bias f4 [30]
0	0xbe30bc04	-0.17259222
1	0x3de1dc1c	0.11028311
2	0xbe28d8e5	-0.16488989
3	0xbd472040	-0.04861474
4	0xbd768013	-0.060180735
5	0xbcf725ed	-0.030169452
6	0x3dc91d25	0.09820012
7	0xbb2042cd	-0.002445388
8	0x3db63673	0.08897104
9	0x3d758659	0.059942577
10	0x3ddb6d4a	0.107142046
11	0x3de4eb78	0.111777246
12	0xbd0559c9	-0.03255633
13	0xbb8f6fa3	-0.004377322
14	0x3cab86b3	0.020938253
15	0x3e02bdeb	0.1276776
16	0xbe7ca918	-0.24673879
17	0x3cd8040f	0.026369123
18	0x3dfe64fa	0.124216035
19	0x3e0a55c7	0.13509284
20	0x3da64980	0.08119488
21	0xbe440aa8	-0.1914469
22	0xbe51bb39	-0.20481576
23	0xbd0ce753	-0.034400295
24	0xbd28edff	-0.041242596
25	0x3e86c1ec	0.26319826
26	0x3dc2374a	0.09483202
27	0xbdfba603	-0.122875236
28	0xbd625b24	-0.0552627
29	0x3e1a28d7	0.15054642

out.weight f4 [2, 30]
0	0xbd169a4c	-0.036768243
1	0x3e4cb561	0.19991066
2	0xbe3ef156	-0.1864675
3	0x3e37f50b	0.1796457
4	0xbd7712a8	-0.060320526
5	0xbe46b817	-0.19406162
6	0x3ec3fa5d	0.3827695
7	0x3c64d867	0.01396761
8	0x3e512899	0.20425643
9	0x3cbccf66	0.023048114
10	0xbec337b0	-0.38128424
11	0xbeaf1ae3	-0.342002
12	0xbdac2bdf	-0.08406805
13	0xbd92c916	-0.0716726
14	0xbd24fd54	-0.040280655
15	0x3ec75d46	0.3893835
16	0x3d53c3de	0.051700465
17	0x3ea496c8	0.32146287
18	0x3e1d8c81	0.15385629
19	0x3e3a03f8	0.18165576
20	0xbcff7261	-0.03118247
21	0x3e1bfbe2	0.15232804
22	0xbdcc2b35	-0.099691786
23	0xbd006f8c	-0.03135638
24	0x3d760709	0.060065303
25	0x3e9deff6	0.30847138
26	0xbe1faf8c	-0.1559431
27	0x3e1d6a1b	0.15372507
28	0x3ec76673	0.3894535
29	0x3df7cfe5	0.121001996
30	0xbe1db35c	-0.15400451
31	0xbe762377	-0.24036966
32	0x3ed75753	0.4205881
33	0x3e07d596	0.1326507
34	0xbdc08b81	-0.09401608
35	0x3eb52813	0.35382137
36	0xbea5b934	-0.3236786
37	0xbd6066a6	-0.054785393
38	0xbe97e5a2	-0.29667383
39	0x3e78ec31	0.2430885
40	0x3ec7de2a	0.39036685
41	0x3e8d7891	0.27631047
42	0x3c992dc6	0.018698584
43	0x3d687851	0.056755368
44	0xbe0eff4f	-0.1396458
45	0xbe9bb0cf	-0.30408332
46	0xbda99700	-0.08280754
47	0xbea7704a	-0.32702857
48	0xbdf37a36	-0.11888544
49	0xbe3ac7e2	-0.18240312
50	0xbc675094	-0.014118332
51	0x3e1fe5eb	0.1561505
52	0x3c4bb2ef	0.012432798
53	0x3d29f818	0.041496366
54	0xbb7c7a0b	-0.0038524892
55	0xbe743e4b	-0.23851888
56	0x3de979ea	0.114002064
57	0x3d9b9082	0.07595922
58	0xbe4786e5	-0.19485052
59	0xbde5c9cd	-0.11220131

out.bias f4 [2]
0	0x3dff794f	0.1247431
1	0xbd7eb455	-0.062183697
