model_templates/python3_onnx_multiclass/artifact.pth (torch, 3671 bytes, 4 tensors)

weight f4 [20, 10]
0	0xbf3045cd	-0.6885651
1	0xbc394478	-0.011307828
2	0xbe721590	-0.23641038
3	0xbe01ea28	-0.1268698
4	0x3d670749	0.056403432
5	0x3f62beb6	0.8857225
6	0xbebfddcd	-0.37473908
7	0xbd6460e3	-0.05575646
8	0xbc688f57	-0.014194331
9	0x3c130ede	0.008975713
10	0x3e44a6bf	0.19204234
11	0xbf135b45	-0.5756114
12	0xbea84cb4	-0.3287102
13	0xbe1dcd9e	-0.15410468
14	0xbe29e5a2	-0.16591504
15	0xbeaeb262	-0.3412047
16	0xbedd560b	-0.43229708
17	0xbd81da8c	-0.06340513
18	0x3d282036	0.041046344
19	0xbda049b0	-0.07826555
20	0x3ea449a6	0.3208744
21	0x3f1827e4	0.5943587
22	0x3d697d3d	0.057004202
23	0x3ec08d0a	0.37607604
24	0xbc2156f1	-0.009847389
25	0xbefaba7f	-0.4897041
26	0x3f2c45f9	0.6729427
27	0xbe521f04	-0.20519644
28	0xbe684509	-0.22682585
29	0xbd06689f	-0.03281462
30	0xbdf2319d	-0.11825869
31	0x3f00d020	0.50317574
32	0xbd159ee6	-0.03652849
33	0x3d11952d	0.035542656
34	0xbe91cd84	-0.28477108
35	0xbf5ebf29	-0.8701044
36	0x3e83ab83	0.2571679
37	0x3ed2878b	0.41119036
38	0x3d1ec1f9	0.038759205
39	0x3e45fd39	0.19334878
40	0xbc0b5272	-0.008503543
41	0xbd57638c	-0.05258517
42	0x3e0dcdb5	0.13848002
43	0xbe803538	-0.25040603
44	0xbde19940	-0.11015558
45	0xbe8836a7	-0.26604196
46	0x3f56e922	0.8394948
47	0x3f2d5eea	0.6772295
48	0xbeafed98	-0.34360957
49	0xbd5833a3	-0.05278362
50	0x3e909799	0.2824066
51	0x3e22e6fa	0.15908423
52	0x3e2394cf	0.15974735
53	0x3d8e9b3b	0.069632016
54	0x3ea0e029	0.3142102
55	0xbf278748	-0.654408
56	0x3e45511f	0.19269226
57	0xbe861b82	-0.26192862
58	0xbea1ede8	-0.3162682
59	0xbe374dd3	-0.17900781
60	0x3e3a1527	0.18172131
61	0x3f04256b	0.51619595
62	0xbd78b89d	-0.060722936
63	0x3e617030	0.22015452
64	0x3e1d7cca	0.15379634
65	0xbeab191c	-0.33417594
66	0x3e9fca68	0.3120911
67	0x3d12d413	0.03584678
68	0x3de666cd	0.112500764
69	0x3e8c90cd	0.27454224
70	0x3e1c9c68	0.15294039
71	0x3e0cc516	0.13747057
72	0x3e707a2f	0.2348411
73	0x3e9d142d	0.30679455
74	0x3e7fcc60	0.24980307
75	0xbe34cac5	-0.17655475
76	0x3efef406	0.4979555
77	0xbba31e9c	-0.004978014
78	0xbc6feaa6	-0.014643347
79	0xbe35b5f2	-0.17745188
80	0x3d0b80d1	0.034058396
81	0x3f009990	0.5023432
82	0x3ed1e892	0.4099775
83	0xbe4de5eb	-0.20107238
84	0x3cbab4a4	0.022791214
85	0xbf017f2a	-0.5058466
86	0x3ed3aee7	0.41344377
87	0x3e2c4dda	0.16826573
88	0x3d4b8168	0.04968396
89	0xbdd157b2	-0.10221805
90	0x3e398b4a	0.18119541
91	0x3ef1d469	0.4723237
92	0x3eb40bda	0.35165292
93	0x3dccbefc	0.09997365
94	0xbe49e28b	-0.19715326
95	0xbf579bda	-0.84222186
96	0x3f3b7267	0.7322144
97	0x3eaf02ec	0.34181917
98	0xbe9ef1cf	-0.3104386
99	0xbe92493b	-0.28571495
100	0x3e958257	0.29201004
101	0xbe824049	-0.2543967
102	0xbeb26db6	-0.34849328
103	0xbe516dc9	-0.20452036
104	0xbeecc553	-0.46244296
105	0xbe9c6886	-0.30548495
106	0xbf128c50	-0.5724535
107	0xbed156ce	-0.4088654
108	0x3e0cfe23	0.1376882
109	0x3da13dae	0.078730926
110	0x3d051592	0.032491274
111	0xbdcd6ffc	-0.10031125
112	0xbe924b38	-0.28573012
113	0x3e7f3251	0.24921538
114	0x3e84dac6	0.2594816
115	0xbed98c70	-0.42489958
116	0xbead0533	-0.3379303
117	0x3cc52af7	0.024068339
118	0x3e120fa3	0.14263777
119	0x3cd4dab6	0.025983196
120	0x3e19ac89	0.15007223
121	0xbed49e77	-0.4152715
122	0xbe51423e	-0.20435426
123	0x3d83188a	0.06401165
124	0xbe23be07	-0.15990458
125	0xbe3c8697	-0.18410717
126	0xbf097f26	-0.5370964
127	0xbea532b4	-0.32265246
128	0x3d1d67f1	0.038429204
129	0xbe59175a	-0.21200314
130	0x3e06ede8	0.13176692
131	0xbee849ed	-0.453689
132	0xbe89205d	-0.26782504
133	0x3c9ef748	0.019405022
134	0x3e0dce79	0.13848294
135	0xbe934c01	-0.28768924
136	0xbedb417f	-0.42823407
137	0xbe04ceee	-0.12969562
138	0x3e53a961	0.20670082
139	0x3e26c342	0.16285422
140	0x3e9de4a3	0.30838498
141	0xbc45ac36	-0.012064984
142	0x3ea9700d	0.330933
143	0xbdf92fb7	-0.12167304
144	0xbee306ab	-0.44341025
145	0xbeece184	-0.46265805
146	0x3de3b10c	0.111177534
147	0xbd412460	-0.04715383
148	0xbdae077e	-0.08497523
149	0xbe66fade	-0.22556636
150	0x3e035059	0.12823619
151	0xbf4cf991	-0.8006831
152	0xbe69d0df	-0.22833584
153	0x3de270a2	0.11056639
154	0x3dc9506a	0.09829791
155	0xbef72ef5	-0.48278013
156	0xbed89674	-0.42302287
157	0xbf0123a3	-0.50445
158	0x3e55a6af	0.20864366
159	0xbda6b622	-0.08140208
160	0x3e25892d	0.1616561
161	0xbf216090	-0.6303797
162	0xbeb80d34	-0.35947573
163	0xbe95d272	-0.2926212
164	0xbe287f21	-0.16454746
165	0xbebaee52	-0.3650995
166	0xbf1eab55	-0.6198018
167	0xba90fc05	-0.0011061436
168	0xbe14bf2f	-0.14526056
169	0xbbd0d6e4	-0.006373273
170	0xbea3f896	-0.32025594
171	0x3d6748f0	0.056466043
172	0x3e64849f	0.22316216
173	0x3def1ad3	0.11675038
174	0xbe301d21	-0.17198612
175	0x3f659133	0.8967468
176	0x3d0bf98f	0.034173544
177	0xbd67306b	-0.05644266
178	0x3df33fcf	0.11877405
179	0xbeb5c302	-0.35500342
180	0x3e5a4636	0.21315846
181	0x3e980060	0.29687786
182	0x3ea473cf	0.32119605
183	0x3da124e5	0.07868365
184	0x3dcf9af0	0.10136974
185	0xbf062942	-0.52406704
186	0x3f02b30a	0.5105444
187	0x3e7da367	0.24769364
188	0xbeddba75	-0.43306318
189	0x3e75cc66	0.24003753
190	0x3ee3c989	0.44489697
191	0x3f0e31ac	0.55544543
192	0xbe95baea	-0.29244167
193	0x3de89fea	0.11358626
194	0xbe9c1363	-0.3048354
195	0xbf0e2a21	-0.55533034
196	0x3e1df0a3	0.15423827
197	0x3e64eca3	0.22355895
198	0xbe7233ba	-0.23652545
199	0x3d199b0b	0.037501376

bias f4 [20]
0	0x3ea53922	0.3227015
1	0x3f0b298c	0.5436027
2	0x3e46b2f7	0.19404207
3	0x3e3be885	0.18350418
4	0xbd1e7f37	-0.03869554
5	0x3f1cdb03	0.61271685
6	0x3e054d12	0.13017681
7	0x3f010b8b	0.5040824
8	0x3efa8cbe	0.48935503
9	0x3ef8dbc9	0.48605183
10	0x3ecb08ec	0.39655244
11	0x3d30f774	0.04320474
12	0x3e8c38c1	0.2738705
13	0x3ea46a2c	0.32112253
14	0x3e848900	0.25885773
15	0x3ed2c851	0.41168454
16	0x3e71e076	0.23620781
17	0xbd106354	-0.035250977
18	0x3f1f9f20	0.6235218
19	0x3e0f8fff	0.14019774

weight f4 [3, 20]
0	0xbe88fe1d	-0.26756373
1	0x3f1a8cd8	0.6037116
2	0xbe669ffc	-0.22521967
3	0xbe91b4c3	-0.28458223
4	0xbf043b79	-0.5165325
5	0xbd29d726	-0.041464947
6	0xbee94505	-0.4556047
7	0xbded7357	-0.11594265
8	0xbec4a778	-0.3840902
9	0xbecf52ac	-0.4049276
10	0x3e47eaf7	0.19523226
11	0x3e650d7c	0.22368425
12	0x3ec79594	0.38981307
13	0x3efd87f2	0.4951778
14	0x3c7fdc26	0.015616452
15	0x3e971d24	0.2951442
16	0x3f03441c	0.512758
17	0xbea12085	-0.31470123
18	0xbe87d7d9	-0.26531866
19	0xbdf6b260	-0.12045741
20	0x3f1a4423	0.6026022
21	0xbe7e1db7	-0.24816023
22	0xbe9cb132	-0.3060394
23	0xbe91bca3	-0.2846423
24	0xbd456776	-0.04819437
25	0xbf042e81	-0.5163346
26	0xbc8f59c2	-0.017498855
27	0xbe97e089	-0.29663494
28	0xbe0a54d0	-0.13508916
29	0xbea8f9db	-0.33003125
30	0xbece18e7	-0.40253374
31	0xbe54dcd2	-0.20787361
32	0xbdeb8e1e	-0.11501716
33	0xbee2a670	-0.44267607
34	0xbec37f0a	-0.3818286
35	0xbeff28f8	-0.49835944
36	0xbf325d7b	-0.6967389
37	0x3edbed53	0.42954502
38	0xbec1f15b	-0.37879452
39	0xbec4fe25	-0.38475147
40	0xbf076bd5	-0.52898914
41	0xbe288348	-0.1645633
42	0x3ed839f3	0.42231712
43	0x3efea27b	0.49733338
44	0x3f0d2766	0.5513824
45	0x3e0939f0	0.13401008
46	0x3e8021ab	0.25025687
47	0x3e2b5c01	0.16734315
48	0x3eefc24c	0.46827924
49	0x3ed8397e	0.42231363
50	0xbe11b238	-0.14228141
51	0xbd06a1c9	-0.032869134
52	0xbef3a2c1	-0.4758511
53	0xbe205a00	-0.15659332
54	0x3d652fcb	0.055953782
55	0xbf14cb81	-0.5812302
56	0xbe128db5	-0.1431187
57	0xbe9d3a71	-0.3070865
58	0x3e8f106c	0.27942216
59	0x3e9ed5f4	0.31022608

bias f4 [3]
0	0x3ddb088f	0.10694992
1	0xbe98799e	-0.29780287
2	0xbe0b770b	-0.1361963
