model_templates/inference/python3_pytorch_multiclass/artifact.pth (torch, 3579 bytes, 4 tensors)

weight f4 [20, 10]
00000000: faed c83e 0191 2d3f c476 debd 7522 c93e
00000010: 1759 fa3d 0e19 58bf 9cde 373f 43a9 9f3e
00000020: 3d92 5fbe 32fd 56be 3b9b 51bf a716 56be
00000030: 1fd3 4bbe 1b2d 823d 5f8c 943d 10ae 4a3f
00000040: dda5 e5be af1e cebe ec38 4b3d 75dd e5bd
00000050: d2e2 083e 3984 0dbf b6ed fbbd b3d4 32be
00000060: 9863 33be d4c1 c9be f5bd d5be cc0d f2be
00000070: c2df b0bc fb36 85bd ba74 d13e a50c 593e
00000080: 7a7f e63e 71fd 543e 6c60 c03d 6168 babe
00000090: 750a 183f 2650 ba3e 768d 15be 2db0 0c3e
000000a0: 5576 a13d 1715 80be 21ed 47be 01a7 4a3c
000000b0: f455 533e 6c7a 91bd ce7a 14bf bd75 21be
000000c0: a118 b53d 3012 adbe 846e 1b3e 4a71 80be
000000d0: a564 e1be 26a6 55be e1c3 2cbe abd4 b9be
000000e0: 51ef abbe 74fb 77be 9b6c b53e f201 22be
000000f0: 8a93 4d3e e9d8 f5be 2b76 9dbe a114 b83c
00000100: de74 e53d 61e2 0abe 08ce 10bf 3eb9 cdbe
00000110: 4b2c d23d ecc5 87bd eed5 cfbb d711 07bc
00000120: 4ac9 f8be f15d 183e 39da a1be ca14 45bf
00000130: 8689 85be ce94 58be 235b 533d 8e45 043f
00000140: ce96 0fbe 55b6 8fbe aad5 3bbe fe76 bcbd
00000150: 1266 863c 729c 073f 74e5 f2be 15aa 00bf
00000160: 44a8 a53d ab5d e83d bad7 ba3e f399 293e
00000170: ab23 b13e 8020 eb3e 554a af3e 944f 45be
00000180: 78e3 e6bd 4de0 6fbe 61f6 953e 22e3 853e
00000190: 286a 2e3e 02b6 b73e 9244 c03e 6b4c dabe
000001a0: 2098 47be 0304 c4be 95d5 fd3d 2006 353e
000001b0: 6591 573d d039 173d 8c7f 7dbd eb44 f7be
000001c0: 72a8 9fbe 7204 29bd 27af 603d cac2 603c
000001d0: 6e4a 5cbe 6733 cdbe 6921 103e 60df 32bd
000001e0: 535c 4d3d c3be e53e 3579 703e d6e9 993e
000001f0: 5932 96be 31b8 4bbf 3e5a b93e 2f26 ff3e
00000200: 43f8 503d b94d 083e 7a72 e4be 128b 3dbc
00000210: 5c9b b43e afee 05be 01da b23b dbbc 213f
00000220: a75b ed3e 2204 253f 4020 d8bd 5186 cc3d
00000230: a84a 7a3d d3ef be3e 27ac 9d3e 4efc 8ebe
00000240: ca0a 213d b90f 1ebf f704 383f 51b9 233f
00000250: ca86 89bd ea98 50bd ce4b 8a3d cdad 073f
00000260: 85a0 043f 2b78 94bd 3922 bc3d 4d9f c9be
00000270: 12de 2b3f 614b f13e 97c5 bebe f4d6 fd3e
00000280: df56 463e ebaa 31bf 9ef2 b6be b283 12be
00000290: bece 323e d160 ebbe cf68 8abe 80a3 90be
000002a0: 99a9 49bd 697f 1c3d 03c4 8a3e cd4b 3dbf
000002b0: 6fba c83d 0106 ca3e 65ea 8abe 7240 c6be
000002c0: 391e 68be fa6c 08bf c8ce 7e3e ce01 b03e
000002d0: afcb 3e3e a9bf 08bf d928 84bc 0748 943e
000002e0: fd71 883e bc2e ba3d 7d3d 4cbe 8fd9 56bd
000002f0: c698 423e ca45 403e 3c3f 9c3b 2743 65bd
00000300: 8f35 0c3e 758a e0bd 5578 a23c e3e9 2cbf
00000310: 11dd 33be 7530 8a3e 8caf 90be bdba 9dbe
0.39244062 0.67799383 -0.108624965 0.392841 0.12224024 -0.8441323 0.7182405 0.31183824
-0.21833129 -0.20995024 -0.8187749 -0.20907079 -0.19904755 0.063562594 0.07253336 0.7917185
-0.44853106 -0.40257785 0.04961483 -0.1122388 0.13367775 -0.5527988 -0.12301199 -0.17463951
-0.17518461 -0.39405692 -0.41746488 -0.4727615 -0.021591071 -0.06504627 0.40909368 0.2119623
0.45019132 0.20799805 0.09393391 -0.3640776 0.59390956 0.36389273 -0.14604744 0.1373908
0.07883898 -0.2501609 -0.19524051 0.012368918 0.20638257 -0.07103428 -0.57999885 -0.1576757
0.08842588 -0.33802938 0.15178877 -0.25086433 -0.44022098 -0.20864162 -0.16871597 -0.36295065
-0.3358102 -0.24217016 0.35434422 -0.15821055 0.20075813 -0.48017052 -0.30754218 0.022470774
0.11203931 -0.13562919 -0.5656438 -0.4018039 0.102623545 -0.066295475 -0.006342641 -0.008243999
-0.4859107 0.14879586 -0.31611803 -0.76984847 -0.26081485 -0.21150514 0.051600587 0.5166863
-0.14022371 -0.28068796 -0.18343225 -0.092023835 0.016406093 0.5297309 -0.47440684 -0.50259525
0.08088735 0.11345991 0.3649271 0.16562633 0.34597525 0.45923233 0.34236398 -0.19268638
-0.11273855 -0.23425408 0.29289535 0.2614985 0.17032683 0.35881048 0.37552315 -0.42636427
-0.19491625 -0.3828431 0.12394253 0.17678118 0.052628893 0.03692037 -0.061889216 -0.48294768
-0.311832 -0.041264005 0.05485454 0.013718316 -0.21512768 -0.4007828 0.14075245 -0.04367006
0.050136875 0.44872102 0.23483737 0.30061215 -0.29335287 -0.7957793 0.36201662 0.4983382
0.05101801 0.13310899 -0.4461859 -0.0115688015 0.3527478 -0.13079332 0.005458117 0.63178796
0.46358988 0.6445943 -0.10553026 0.09986556 0.061106354 0.37292346 0.30795404 -0.27926868
0.03931693 -0.6174274 0.71882576 0.63954645 -0.06715162 -0.05092708 0.0675274 0.52999574
0.51807433 -0.07249483 0.09186215 -0.3937935 0.6713573 0.47127822 -0.37260124 0.4957806
0.19369076 -0.69401425 -0.35731977 -0.1430805 0.17461678 -0.45972303 -0.27033088 -0.2824974
-0.049234007 0.038207445 0.2710267 -0.7394379 0.098011844 0.39457706 -0.27131954 -0.38721043
-0.22667779 -0.53291285 0.24883568 0.34376377 0.18632387 -0.5341745 -0.016132759 0.28961203
0.26649466 0.09090945 -0.19945331 -0.052453574 0.19003591 0.18776622 0.0047682803 -0.055972245
0.13692306 -0.109639086 0.01983277 -0.6754438 -0.17564799 0.26990095 -0.28258932 -0.30806533

bias f4 [20]
00000000: d408 d93e f235 503e 7402 173f 131f 1f3f
00000010: d804 853e 5a43 f83e 4817 1c3f f96f 123e
00000020: 9390 f93e d929 c83d 0b89 dd3c a6ce 31bd
00000030: 52d2 b93e d483 ce3d e12e 163f 1734 ae3e
00000040: 4be3 b03e 88a7 923e af16 1d3e 47d9 0a3f
0.42389548 0.20333079 0.5898812 0.6215679 0.25980258 0.48488885 0.60973024 0.14300527
0.48743114 0.09773607 0.027042886 -0.043409966 0.36293274 0.10083738 0.5866528 0.34024116
0.3454841 0.2864344 0.15340684 0.5423779

weight f4 [3, 20]
00000000: bc06 eebe 9f38 8bbe 5cdf e13e f216 47be
00000010: abf1 203e 2554 f03e eed3 b53e b0b2 7e3d
00000020: 36d1 ce3e eafc cabd 8f56 1bbe c5ad 043e
00000030: 8b4e 0bbf 56ec a1be 1879 e0be 4a3d 0dbf
00000040: 201e 053f aeb4 153f 59ab d03e a76e c1bc
00000050: 20e0 f1be ac61 073f 0ba9 03bf 180c c2be
00000060: c59a e9bd c766 a6bd 657d 07bf 524b eabe
00000070: 780e 9a3e fdb4 dabe 3c45 393d eb56 4abd
00000080: 7a05 a0be 2798 e33e ae6c b5be b43b 0bbe
00000090: 55a6 18bf c980 94be 4c51 59bd 7af7 0dbf
000000a0: 24fa 9b3e 89a6 08bf f1a5 c0be 7364 043f
000000b0: f875 65be 9ba6 40bc ec42 c1be 5b4e a13d
000000c0: 3169 1ebf 64bc bb3e a254 d03e a3e8 d0be
000000d0: 2b48 1c3f efaf 223e b795 113f 7740 9a3e
000000e0: a04c 38be ada0 7a3d 6ee2 b8be 3550 f03d
-0.46489513 -0.27191636 0.44115722 -0.19442347 0.15717189 0.46939197 0.35513252 0.06218213
0.4039399 -0.09911521 -0.15169738 0.12956913 -0.5441672 -0.31625623 -0.43842387 -0.55171645
0.5199909 0.5847882 0.40755728 -0.023612333 -0.47241306 0.5288341 -0.51429814 -0.37899852
-0.11406473 -0.08125072 -0.5292571 -0.4576059 0.30089164 -0.42716208 0.045232043 -0.049399298
-0.31254178 0.4445202 -0.3543448 -0.13596994 -0.596288 -0.29004505 -0.053056046 -0.55455744
0.3046428 -0.5337911 -0.37626603 0.51715773 -0.22408283 -0.011758472 -0.3774637 0.07876273
-0.6187926 0.36667168 0.4068957 -0.40802488 0.6104762 0.15887426 0.5686907 0.30127308
-0.1799798 0.06118839 -0.36110252 0.11734048

bias f4 [3]
00000000: 24e0 0f3e 7959 2cbc 7d48 9c3e
0.14050347 -0.010519379 0.30524054
