model_templates/python3_pytorch_multiclass/artifact.pth (torch, 3579 bytes, 4 tensors)

weight f4 [20, 10]
0.23594573 0.31129563 0.36069167 -0.1133056 0.1837462 -0.18041947 0.49103233 0.111586474
-0.37292922 0.33171937 0.13199228 0.30355436 0.47503367 -0.13223448 -0.13561761 -0.26183906
0.31808412 0.5023385 0.02750391 -0.09729471 0.1559757 -0.7201629 -0.21591704 -0.18388356
0.15948915 -0.31068492 -0.38024518 -0.51812273 0.501205 0.29851478 0.036715686 0.21339764
0.35776523 0.15312147 0.042122185 -0.35561246 0.72835666 0.295546 -0.22676413 -0.13379215
0.23302361 0.5262596 0.43163484 -0.04223143 -0.14400184 -0.8097317 0.5350924 0.6123795
-0.44336885 0.0636566 0.40667516 -0.5357452 -0.4478157 0.30409643 0.61143386 -0.3479197
-0.17228249 -0.46626636 -0.42112556 0.3248033 -0.6641145 0.5762019 0.27578163 0.25133756
-0.11733959 0.37780765 0.29843587 0.2032733 0.038495697 0.039860066 0.21059664 0.54242456
-0.04583343 0.3317947 0.112431124 -0.47301656 0.63272834 0.3577105 0.10959205 -0.0897502
0.007830927 0.17752525 0.2791709 -0.20196648 -0.06395914 -0.060948633 0.13905233 0.29720882
0.20046195 -0.12626643 -0.011883065 0.3122225 -0.0042239656 -0.2736453 0.09117108 -0.6251899
0.4739042 0.31225654 0.17236882 -0.21304007 0.094487526 0.41212317 0.38757208 0.113964856
0.040632922 -0.56901014 0.5134933 0.3576037 -0.13277474 0.23438846 0.40000552 -0.52795714
0.18135865 0.018681727 -0.48869523 -0.6001171 -0.40762898 0.12543081 0.5930838 0.04345716
-0.79191244 -0.09935035 -0.07845138 -0.01708868 0.060359523 0.74068594 -0.10973663 -0.2336872
0.0451344 -0.07967846 -0.30711704 0.15747076 -0.2393816 -0.15265709 0.39930007 0.0078992015
-0.07362479 -0.4069885 -0.06749066 -0.060708 0.44197497 0.29125318 0.43806344 0.4387861
0.06954037 -0.18516046 -0.116177574 -0.14316322 -0.36230096 0.13866547 -0.05711073 0.13655238
0.3190637 -0.12014032 -0.36023554 -0.5439248 0.24725878 0.115132086 -0.35258433 0.26243287
0.23107694 -0.6037022 -0.25942057 -0.21567932 -0.23281765 -0.34309047 -0.42511028 -0.4619732
0.12024568 -0.024742637 -0.0022146353 -0.7026028 -0.394448 0.26323745 -0.06820831 -0.61887485
-0.17561741 -0.3890501 -0.10944941 -0.26372448 0.15933397 -0.7951911 -0.4074916 0.050393365
0.12533827 -0.19159918 -0.68881094 -0.55317724 0.0150271095 0.037483003 0.15768293 0.6962574
-0.041918207 0.20079556 -0.24351236 -0.7581129 0.6010931 0.34849977 -0.14981766 -0.05610517
00000000: c29b 713e 2462 9f3e 94ac b83e c40c e8bd
00000010: f727 3c3e e2bf 38be 9768 fb3e 7387 e43d
00000020: 94f0 bebe 1fd7 a93e fc28 073e 7a6b 9b3e
00000030: 9d37 f33e 7a68 07be 58df 0abe c50f 86be
00000040: ecdb a23e 4299 003f e14f e13c 7342 c7bd
00000050: 18b8 1f3e 995c 38bf 5b19 5dbe f94b 3cbe
00000060: 2051 233e 1812 9fbe 7faf c2be b1a3 04bf
00000070: f94e 003f eed6 983e 3063 163d e984 5a3e
00000080: 012d b73e e0cb 1c3e 5088 2c3d d612 b6be
00000090: 9575 3a3f ce51 973e db34 68be cf00 09be
000000a0: be9d 6e3e f3b8 063f 3eff dc3e ddfa 2cbd
000000b0: 3875 13be 944a 4fbf d1fb 083f e7c4 1c3f
000000c0: 3e01 e3be 645e 823d ba37 d03e 9926 09bf
000000d0: 1948 e5be 87b2 9b3e ee86 1c3f 8822 b2be
000000e0: d26a 30be 77ba eebe c59d d7be 9e4c a63e
000000f0: 6803 2abf f881 133f 4033 8d3e 51af 803e
00000100: bd4f f0bd 0170 c13e 96cc 983e e026 503e
00000110: aaad 1d3d 4f44 233d a5a6 573e 56dc 0a3f
00000120: d6bb 3bbd ffe0 a93e 4a42 e63d 3a2f f2be
00000130: 7cfa 213f d525 b73e cc71 e03d f4ce b7bd
00000140: 4a4d 003c 2ec9 353e 7def 8e3e 4dd0 4ebe
00000150: 02fd 82bd 46a5 79bd bc63 0e3e c12b 983e
00000160: e645 4d3e fd4b 01be 30b1 42bc a1db 9f3e
00000170: 3169 8abb 3d1b 8cbe e7b7 ba3d 720c 20bf
00000180: 92a3 f23e 17e0 9f3e 7481 303e 2d27 5abe
00000190: ad82 c13d cf01 d33e d96f c63e 6866 e93d
000001a0: b56e 263d a6aa 11bf 4c74 033f d517 b73e
000001b0: 1af6 07be 8703 703e 86cd cc3e 3328 07bf
000001c0: 15b6 393e 6c0a 993c 4336 fabe 46a1 19bf
000001d0: bfb4 d0be ef70 003e 57d4 173f 2300 323d
000001e0: c6ba 4abf 3278 cbbd 1eab a0bd 8ffd 8bbc
000001f0: 8c3b 773d 989d 3d3f 99bd e0bd b34b 6fbe
00000200: d9de 383d 762e a3bd 723e 9dbe 0440 213e
00000210: 7320 75be 2452 1cbe 0f71 cc3e a76b 013c
00000220: 98c8 96bd cc60 d0be 8b38 8abd f4a8 78bd
00000230: 8b4a e23e 231f 953e da49 e03e 92a8 e03e
00000240: 2e6b 8e3d b49a 3dbe 82ee edbd 6199 12be
00000250: 837f b9be 52fe 0d3e f1ec 69bd 63d4 0b3e
00000260: 515c a33e 210c f6bd cb70 b8be a83e 0bbf
00000270: 6831 7d3e 5fca eb3d ef85 b4be 9a5d 863e
00000280: 6f9f 6c3e 3a8c 1abf c6d2 84be 0adb 5cbe
00000290: c067 6ebe 8ea9 afbe 0ea8 d9be c087 ecbe
000002a0: 5e43 f63d 12b1 cabc 6a23 11bb c7dd 33bf
000002b0: 17f5 c9be 0fc7 863e ccb0 8bbd 956e 1ebf
000002c0: 0dd5 33be 9331 c7be 0327 e0bd e506 87be
000002d0: 7228 233e a591 4bbf bda2 d0be 4669 4e3d
000002e0: ad58 003e 9332 44be ea55 30bf 069d 0dbf
000002f0: 4434 763c c787 193d a277 213e ed3d 323f
00000300: 6db2 2bbd 5a9d 4d3e 4e5b 79be b013 42bf
00000310: 3de1 193f 906e b23e cd69 19be 89ce 65bd

bias f4 [20]
0.17892846 0.33559075 0.26960158 0.18339653 0.55535465 0.25957316 0.088279076 0.2300979
0.032480106 0.33369678 0.6568144 0.5262158 -0.006299808 -0.16347143 0.13235989 0.07433045
0.15889217 0.2625666 0.3259521 0.25671196
00000000: 0639 373e 8dd2 ab3e 3809 8a3e 4dcc 3b3e
00000010: b92b 0e3f c6e6 843e a9cb b43d c99e 6b3e
00000020: dc09 053d 4eda aa3e fd24 283f 14b6 063f
00000030: 9f6e cebb 0e65 27be 5a89 073e 903a 983d
00000040: a1b4 223e 216f 863e 32e3 a63e c06f 833e

weight f4 [3, 20]
-0.45784116 -0.43102348 0.52303964 -0.17646006 -0.3506097 0.39093325 -0.5365712 -0.35593668
-0.2031721 -0.045130853 -0.31345984 0.18329535 -0.37982222 0.17645644 -0.014681672 -0.114041455
0.53854877 0.53130424 0.36154166 -0.32395965 -0.26643872 -0.06788676 -0.3173106 -0.21654077
-0.2092248 -0.35818177 0.41549557 -0.12828878 0.045520347 -0.49418667 -0.29291946 -0.5186595
0.5655772 0.07834932 -0.38422552 -0.5296565 -0.5582707 -0.5632992 -0.56727463 -0.027797459
0.4513118 0.26478097 -0.31296697 0.5464854 0.42317712 -0.1215004 0.060823847 0.57733524
0.06499264 0.5122441 0.35764116 -0.12441089 -0.58772945 -0.1707668 0.29546693 0.30173016
-0.54889315 -0.16162431 -0.5440314 0.52419466
00000000: 286a eabe 1caf dcbe ede5 053f f2b1 34be
00000010: 1d83 b3be 6728 c83e bb5c 09bf 553d b6be
00000020: 590c 50be 21db 38bd cf7d a0be c7b1 3b3e
00000030: 0f78 c2be ffb0 343e 658b 70bc 918e e9bd
00000040: 55de 093f 8e03 083f fd1b b93e 0ade a5be
00000050: a86a 88be 3708 8bbd 8976 a2be ddbc 5dbe
00000060: 073f 56be 9a63 b7be d6bb d43e 225e 03be
00000070: 8b73 3a3d 0906 fdbe 8af9 95be dec6 04bf
00000080: abc9 103f 9c75 a03d 35b9 c4be 9297 07bf
00000090: d4ea 0ebf 6034 10bf e938 11bf 7fb7 e3bc
000000a0: 5712 e73e 5f91 873e 353d a0be 78e6 0b3f
000000b0: acaa d83e 34d5 f8bd 6d22 793d 3ecc 133f
000000c0: dc1a 853d 6e22 033f be1c b73e 23cb febd
000000d0: 7075 16bf 7edd 2ebe 7147 973e 607c 9a3e
000000e0: 4384 0cbf d880 25be a445 0bbf 9f31 063f

bias f4 [3]
0.30595303 0.019040413 -0.009307565
00000000: e0a5 9c3e a4fa 9b3c c27e 18bc
