model_templates/python3_pytorch_multiclass/artifact.pth (torch, 3551 bytes, 4 tensors)

weight f4 [20, 10]
-0.6885652 -0.011307858 -0.23641041 -0.12686978 0.056403406 0.8857225 -0.37473914 -0.055756476
-0.014194339 0.0089757135 0.19204235 -0.5756114 -0.32871023 -0.15410471 -0.16591503 -0.3412047
-0.43229714 -0.06340512 0.04104634 -0.07826553 0.32087436 0.59435874 0.057004217 0.37607598
-0.009847402 -0.4897041 0.6729427 -0.20519641 -0.22682588 -0.032814614 -0.118258715 0.50317574
-0.036528483 0.03554267 -0.28477108 -0.87010443 0.25716788 0.41119042 0.038759198 0.19334882
-0.008503586 -0.052585185 0.13848007 -0.25040603 -0.11015555 -0.26604193 0.83949494 0.6772296
-0.34360957 -0.0527836 0.28240657 0.15908423 0.15974735 0.069632 0.31421024 -0.6544079
0.1926923 -0.26192856 -0.31626824 -0.17900786 0.18172134 0.51619595 -0.060722936 0.22015451
0.15379634 -0.3341759 0.31209114 0.03584679 0.11250076 0.27454227 0.15294042 0.13747056
0.2348411 0.30679452 0.24980305 -0.17655478 0.4979555 -0.004978017 -0.014643338 -0.17745185
0.034058396 0.5023432 0.40997747 -0.20107238 0.022791216 -0.50584656 0.41344377 0.16826575
0.049683977 -0.10221806 0.1811954 0.4723237 0.35165295 0.09997369 -0.19715329 -0.8422219
0.7322145 0.34181917 -0.3104386 -0.28571495 0.29201 -0.25439674 -0.34849328 -0.2045204
-0.46244293 -0.30548498 -0.5724533 -0.40886548 0.13768822 0.078730926 0.03249128 -0.10031124
-0.28573015 0.24921541 0.2594816 -0.42489958 -0.3379303 0.02406833 0.14263779 0.025983186
0.1500722 -0.41527146 -0.20435426 0.064011626 -0.15990455 -0.18410711 -0.5370964 -0.3226524
0.038429216 -0.21200314 0.13176692 -0.45368904 -0.267825 0.019405013 0.13848293 -0.2876893
-0.42823407 -0.12969564 0.20670083 0.16285424 0.30838504 -0.012065021 0.33093303 -0.12167302
-0.44341025 -0.46265814 0.11117751 -0.047153838 -0.08497521 -0.22556636 0.12823616 -0.800683
-0.22833583 0.110566385 0.09829789 -0.48278007 -0.4230228 -0.50445 0.20864366 -0.08140209
0.16165608 -0.63037974 -0.3594757 -0.29262114 -0.16454746 -0.36509946 -0.6198019 -0.0011061307
-0.14526056 -0.0063732527 -0.32025588 0.056466043 0.22316222 0.1167504 -0.17198615 0.8967467
0.034173526 -0.05644263 0.11877411 -0.3550034 0.21315846 0.29687792 0.32119602 0.07868365
0.101369716 -0.52406704 0.5105444 0.24769369 -0.43306318 0.24003753 0.444897 0.5554455
-0.29244167 0.11358629 -0.30483547 -0.55533046 0.15423822 0.22355898 -0.23652542 0.03750138
00000000: cf45 30bf 9844 39bc 9215 72be 27ea 01be
00000010: 4207 673d b6be 623f cfdd bfbe e760 64bd
00000020: 5f8f 68bc df0e 133c c0a6 443e 455b 13bf
00000030: b54c a8be a0cd 1dbe a1e5 29be 62b2 aebe
00000040: 0d56 ddbe 8bda 81bd 3520 283d ae49 a0bd
00000050: a549 a43e e527 183f 417d 693d 088d c03e
00000060: ff56 21bc 7fba fabe f945 2c3f 021f 52be
00000070: 0b45 68be 9e68 06bd a031 f2bd 20d0 003f
00000080: e49e 15bd 3195 113d 84cd 91be 2abf 5ebf
00000090: 82ab 833e 8d87 d23e f7c1 1e3d 3cfd 453e
000000a0: a052 0bbc 9063 57bd b8cd 0d3e 3835 80be
000000b0: 3c99 e1bd a636 88be 24e9 563f eb5e 2d3f
000000c0: 98ed afbe 9e33 58bd 9897 903e fae6 223e
000000d0: cf94 233e 399b 8e3d 2ae0 a03e 4787 27bf
000000e0: 2151 453e 801b 86be e9ed a1be d64d 37be
000000f0: 2915 3a3e 6b25 043f 9db8 78bd 2f70 613e
00000100: ca7c 1d3e 1b19 abbe 69ca 9f3e 15d4 123d
00000110: cc66 e63d ce90 8c3e 6a9c 1c3e 15c5 0c3e
00000120: 2f7a 703e 2c14 9d3e 5fcc 7f3e c7ca 34be
00000130: 06f4 fe3e a21e a3bb 9cea 6fbc f0b5 35be
00000140: d180 0b3d 9099 003f 91e8 d13e ebe5 4dbe
00000150: a5b4 ba3c 297f 01bf e7ae d33e db4d 2c3e
00000160: 6d81 4b3d b457 d1bd 498b 393e 69d4 f13e
00000170: db0b b43e 02bf cc3d 8de2 49be db9b 57bf
00000180: 6972 3b3f ec02 af3e cff1 9ebe 3b49 92be
00000190: 5682 953e 4a40 82be b66d b2be cc6d 51be
000001a0: 52c5 ecbe 8768 9cbe 4d8c 12bf d156 d1be
000001b0: 24fe 0c3e ae3d a13d 9415 053d fb6f cdbd
000001c0: 394b 92be 5332 7f3e c6da 843e 708c d9be
000001d0: 3305 adbe f22a c53c a40f 123e b1da d43c
000001e0: 87ac 193e 769e d4be 3e42 51be 8718 833d
000001f0: 05be 23be 9386 3cbe 267f 09bf b232 a5be
00000200: f467 1d3d 5a17 59be e8ed 063e ee49 e8be
00000210: 5c20 89be 43f7 9e3c 78ce 0d3e 034c 93be
00000220: 7f41 dbbe efce 04be 62a9 533e 43c3 263e
00000230: a5e4 9d3e 5eac 45bc 0e70 a93e b42f f9bd
00000240: ab06 e3be 87e1 ecbe 09b1 e33d 6224 41bd
00000250: 7c07 aebd defa 66be 5750 033e 90f9 4cbf
00000260: ded0 69be a170 e23d 6750 c93d f32e f7be
00000270: 7296 d8be a323 01bf afa6 553e 24b6 a6bd
00000280: 2c89 253e 9160 21bf 330d b8be 70d2 95be
00000290: 217f 28be 51ee babe 56ab 1ebf 96fb 90ba
000002a0: 2fbf 14be b8d6 d0bb 94f8 a3be f048 673d
000002b0: a384 643e d51a ef3d 231d 30be 3191 653f
000002c0: 8af9 0b3d 6330 67bd d73f f33d 01c3 b5be
000002d0: 3646 5a3e 6200 983e ce73 a43e e524 a13d
000002e0: ed9a cf3d 4229 06bf 0ab3 023f 6aa3 7d3e
000002f0: 75ba ddbe 66cc 753e 8ac9 e33e ad31 0e3f
00000300: eaba 95be ee9f e83d 6513 9cbe 232a 0ebf
00000310: a0f0 1d3e a5ec 643e b833 72be 0c9b 193d

bias f4 [20]
0.32270157 0.5436027 0.19404212 0.18350418 -0.038695578 0.61271685 0.13017681 0.50408226
0.4893551 0.48605183 0.39655244 0.043204736 0.27387047 0.32112256 0.2588577 0.4116845
0.23620778 -0.035250995 0.6235218 0.14019774
00000000: 2439 a53e 8c29 0b3f fab2 463e 85e8 3b3e
00000010: 417f 1ebd 03db 1c3f 124d 053e 890b 013f
00000020: c08c fa3e c9db f83e ec08 cb3e 73f7 303d
00000030: c038 8c3e 2d6a a43e ff88 843e 50c8 d23e
00000040: 74e0 713e 5963 10bd 209f 1f3f ff8f 0f3e

weight f4 [3, 20]
-0.26756373 0.6037116 -0.2252197 -0.28458223 -0.51653254 -0.041464955 -0.4556047 -0.11594263
-0.3840902 -0.40492758 0.19523224 0.22368425 0.38981304 0.49517784 0.015616467 0.29514432
0.51275796 -0.3147012 -0.26531866 -0.12045739 0.6026021 -0.24816023 -0.3060394 -0.28464234
-0.04819434 -0.5163346 -0.017498864 -0.296635 -0.13508917 -0.3300313 -0.40253377 -0.20787361
-0.11501714 -0.44267604 -0.38182858 -0.49835938 -0.6967389 0.42954493 -0.37879452 -0.3847515
-0.5289892 -0.1645633 0.42231715 0.49733338 0.5513824 0.1340101 0.25025684 0.16734314
0.46827924 0.42231354 -0.14228143 -0.032869127 -0.4758511 -0.15659332 0.055953786 -0.58123016
-0.14311872 -0.30708644 0.2794222 0.31022605
00000000: 1dfe 88be d88c 1a3f fe9f 66be c3b4 91be
00000010: 7a3b 04bf 28d7 29bd 0545 e9be 5473 edbd
00000020: 78a7 c4be ab52 cfbe f6ea 473e 7c0d 653e
00000030: 9395 c73e f387 fd3e 36dc 7f3c 281d 973e
00000040: 1b44 033f 8420 a1be d9d7 87be 5db2 f6bd
00000050: 2244 1a3f b71d 7ebe 32b1 9cbe a4bc 91be
00000060: 6e67 45bd 812e 04bf c759 8fbc 8be0 97be
00000070: d154 0abe ddf9 a8be e818 cebe d2dc 54be
00000080: 1b8e ebbd 6fa6 e2be 097f c3be f628 ffbe
00000090: 7b5d 32bf 50ed db3e 5bf1 c1be 26fe c4be
000000a0: d66b 07bf 4883 28be f439 d83e 7ba2 fe3e
000000b0: 6627 0d3f f239 093e aa21 803e 005c 2b3e
000000c0: 4cc2 ef3e 7b39 d83e 39b2 11be c7a1 06bd
000000d0: c1a2 f3be 005a 20be cc2f 653d 80cb 14bf
000000e0: b78d 12be 6f3a 9dbe 6d10 8f3e f3d5 9e3e

bias f4 [3]
0.106949925 -0.29780287 -0.13619635
00000000: 9008 db3d 9e79 98be 0e77 0bbe
