tests/fixtures/custom_task_interface_pytorch_multiclass/torch_class.pth (torch, 5463 bytes, 4 tensors)

weight f4 [34, 17]
000000 00 01 ee ba b0 3a 05 3e 99 68 4c be 75 c6 36 be
       -0.0018158257 0.13010669 -0.19961776 -0.17849143
000010 a8 4f bf bd 80 32 85 3d a0 76 9d bb 54 eb 44 3e
       -0.09341365 0.06503773 -0.004805401 0.19230396
000020 40 52 b0 bc bc 6f 83 3d f8 1c 96 bd ec 45 43 bd
       -0.021523595 0.06417796 -0.07329744 -0.047674105
000030 59 44 6d be 68 7b 24 be ae c1 cc bd 40 33 13 3c
       -0.23170604 -0.16062701 -0.09997879 0.008984387
000040 3c 5e c4 3d 00 05 15 3e fe 5e 28 be ce 4c d8 bd
       0.09588286 0.14552689 -0.16442487 -0.10561524
000050 28 6a b4 3d 74 3b 4e 3e 7c 72 4c bd 1c d9 39 3e
       0.0880931 0.20139867 -0.04991387 0.18149227
000060 ac 1f 20 bd a0 3c d2 3c 82 e1 60 3e 98 64 66 be
       -0.039092705 0.025663674 0.21961024 -0.22499311
000070 8e 59 1c be 3c 80 7b bd 62 9e c1 bd 88 94 56 3e
       -0.15268537 -0.06140159 -0.09454037 0.20955098
000080 c8 fa 20 be 3e a7 e4 bd 0b 83 2d be da 99 68 be
       -0.15720665 -0.111647114 -0.1694452 -0.2271494
000090 c9 f9 10 be 9a 7c 55 3e 78 a4 dd 3d 3c be f0 3d
       -0.14157785 0.20848313 0.108223855 0.11755034
0000a0 c0 fb 50 3c 13 a8 fe bd 88 12 28 3d 9e e3 67 be
       0.012755334 -0.12434401 0.041033298 -0.22645423
0000b0 3a 74 33 be 04 09 00 be 90 b2 1c 3e de 9d 11 3e
       -0.17524806 -0.12503439 0.15302491 0.14220378
0000c0 2c 4a dc bd 70 61 0f bc cc d6 1e 3e 3e e6 76 3e
       -0.10756335 -0.008751258 0.15511626 0.24111268
0000d0 f4 22 c5 3d 68 34 06 3d 06 85 26 3e 9e 3b 12 be
       0.096258074 0.032764822 0.16261682 -0.14280555
0000e0 78 1e 39 3d 59 8d 40 be e7 21 2c be 00 4c 00 be
       0.045195073 -0.1880392 -0.16809808 -0.12528992
0000f0 cc bf e0 3d 20 c2 c7 3d 55 1d 13 be 7c 0f 96 3d
       0.10974082 0.09753823 -0.14366658 0.07327172
000100 3c 57 08 3e 70 c6 fa bc e0 b8 17 3c 78 2e 66 3d
       0.13314527 -0.0306122 0.009260386 0.05619666
000110 16 13 1a 3e 6e 78 6e 3e ac 63 3f be c0 07 b6 bd
       0.15046343 0.23288128 -0.18690366 -0.08888197
000120 90 36 c3 3d 8e c6 4d 3e 22 1f 58 3e 96 23 5b 3e
       0.09531891 0.20095274 0.21105626 0.21400294
000130 c8 b4 45 3d 6c f7 57 be 80 c6 b6 3c 86 5f 1b be
       0.04826811 -0.21090478 0.022311449 -0.15173158
000140 f4 74 67 be b2 a9 5c 3e 1c d7 3c 3e 16 be 77 be
       -0.22603208 0.21549109 0.18441433 -0.24193606
000150 08 f1 39 3d 40 5a 27 bd b4 7a 23 bd b0 5f e3 bd
       0.04539588 -0.040857553 -0.03991194 -0.11102235
000160 98 03 bf 3d 38 1a 13 be 34 17 b6 3d 18 31 fb 3d
       0.09326857 -0.1436547 0.088911444 0.12265223
000170 96 ca 31 3e fc b9 b9 3d a2 ce 75 be ab 1b 21 be
       0.17362437 0.09068677 -0.24004605 -0.1573321
000180 28 04 f8 3d e8 ec 4f 3d 2a bd 41 be 2d 02 0f be
       0.12110168 0.05076304 -0.18919817 -0.13965674
000190 24 a4 69 3e d8 58 27 3e 50 94 d8 bd bc 07 7a bd
       0.22816521 0.16342485 -0.10575163 -0.061042532
0001a0 7b 95 6c be 00 d9 8e bb ed 06 3b be 49 92 3f be
       -0.23103897 -0.0043593645 -0.1826436 -0.18708147
0001b0 10 f3 5a bc 70 28 15 3d 44 6b cb bd 82 5e 13 3e
       -0.013363615 0.036415517 -0.09932569 0.1439152
0001c0 77 22 17 be ea 59 61 3e dc 32 2a 3e 4e 6f 51 be
       -0.14759241 0.22006956 0.16620964 -0.20452616
0001d0 84 3f 77 bd c0 4d 33 3c 20 f1 10 3d 78 9d 6b 3d
       -0.060363308 0.01094383 0.035386205 0.05752322
0001e0 98 ec c2 3d 80 06 6e 3c 4c 5c f2 bd 04 0a eb 3d
       0.09517783 0.014527917 -0.118340105 0.1147652
0001f0 55 3c 6e be da 33 13 be 24 af 78 bd 9d f4 f1 bd
       -0.23265202 -0.14375249 -0.060713902 -0.118142344
000200 4a c4 ad bd f0 8e 4b be 14 51 53 bd e8 59 54 3d
       -0.08484705 -0.19878745 -0.051590994 0.051843554
000210 b6 cb 21 be 90 ed 4b bc 44 c9 31 3e b8 3f cc bc
       -0.15800366 -0.012446776 0.17361933 -0.024932727
000220 40 e0 dc 3b 50 67 ab bc 08 0d 49 3d 34 ea 1d 3e
       0.0067406 -0.020923287 0.049084693 0.15421373
000230 36 41 6b 3e 62 b8 1d 3e 02 cb 6b 3e 40 b1 8f bc
       0.22974095 0.15402368 0.2302666 -0.017540574
000240 9d 1a 5f be f4 7a eb bd 72 1b 29 3e 80 13 ce ba
       -0.21787496 -0.11498061 0.16514376 -0.0015722364
000250 ad e3 f6 bd 88 51 3e be c7 6c 68 be 6a 9d 51 be
       -0.120551445 -0.18585789 -0.22697745 -0.20470205
000260 d8 80 49 bd 40 33 08 3e 8e 45 06 3e dd 85 6f be
       -0.04919514 0.133008 0.1311247 -0.23390909
000270 9a eb 1a 3e 5f 57 42 be 3c 05 52 bd 4c 67 c9 bd
       0.15128937 -0.18978642 -0.051274523 -0.098341554
000280 58 59 3f bd 4c 0d 43 bd d8 dc 5e be be 70 56 be
       -0.046716064 -0.047620103 -0.21763933 -0.20941445
000290 64 73 1b bd 00 8e 4d 3b ec a4 e1 bd 84 1c bb 3d
       -0.037951842 0.0031365156 -0.110177845 0.09136298
0002a0 0b 89 5f be 50 16 86 bc d6 68 5a 3e f0 9a ca bd
       -0.21829621 -0.016368061 0.21329054 -0.09892833
0002b0 44 44 60 3e f0 e2 b3 3d cc 21 60 be 6e 22 1d 3e
       0.21901041 0.08783519 -0.21887892 0.15345165
0002c0 90 45 e5 bc 6e bc dd bd 5c 99 46 3e 18 b2 48 be
       -0.027987272 -0.10826956 0.1939444 -0.19599187
0002d0 f0 32 d5 3c 08 fe 4f bd c0 5a 31 3e 9c a7 8a 3d
       0.026025265 -0.050779372 0.17319775 0.0677025
0002e0 58 ac ee 3d 2c 6b af 3d d0 e4 6e bd 44 ec 50 bd
       0.11653966 0.08565363 -0.05832368 -0.05100657
0002f0 7c aa 4c be 0c 92 06 3e 8a 30 45 3e 82 ee 29 3e
       -0.1998691 0.1314165 0.19256797 0.1659489
000300 6e 2f 2f be 00 3a 31 3c 30 13 2f be 60 b7 08 be
       -0.17107937 0.010817051 -0.17097163 -0.13351202
000310 fc b7 10 be cc bf a9 3d b8 ff 13 be e0 63 ad bb
       -0.14132684 0.082885355 -0.14453018 -0.005291447
000320 80 2a 27 3c a8 18 20 3e d6 bc 3b be f0 7f 2a be
       0.010203004 0.15634406 -0.18333754 -0.16650367
000330 08 36 10 be 40 d5 2d 3e 0a 8d b2 bd 62 7c 51 3e
       -0.14083111 0.1697588 -0.08718307 0.20457605
000340 7c 9d b3 3d 50 96 fb 3c 80 a4 ec ba c8 61 44 bd
       0.08770272 0.030711323 -0.0018054396 -0.047944814
000350 70 48 f9 3c f0 d7 62 bd 00 5e df ba 30 82 fd 3c
       0.030430049 -0.055381715 -0.0017041564 0.030945867
000360 05 44 42 be e3 2b 02 be ca 8b 48 3e 89 8d 49 be
       -0.1897126 -0.12712054 0.19584575 -0.19682898
000370 10 ab 8e bc 10 af 75 3e 5c 6e b3 3d e0 03 e1 3b
       -0.017415553 0.23992562 0.08761284 0.006866917
000380 6a 3a 57 be 84 0f f6 3d 48 e6 30 be c2 ff 8c bd
       -0.21018377 0.12014678 -0.17275345 -0.068847194
000390 c2 a7 a6 bd 24 1d 13 bd c0 dc 2d 3b a6 d8 4c 3e
       -0.08137466 -0.035916463 0.0026529282 0.2000452
0003a0 40 09 f8 3c 7c 73 5e 3e 3a ec 17 3e b2 03 1d be
       0.030277848 0.21723741 0.14836207 -0.15333441
0003b0 1c c7 de 3d ee 8f 2f be fa 84 d2 bd 34 18 92 3d
       0.10877821 -0.17144749 -0.102792695 0.07133523
0003c0 bc 02 a4 3d f2 52 3a 3e 58 e6 9f bd 00 90 cb 39
       0.08008334 0.18195704 -0.078076065 0.00038826466
0003d0 34 b8 ff 3d 00 2f 70 be 92 8e 33 3e 1d 5f 4d be
       0.12486306 -0.23455429 0.17534855 -0.20055814
0003e0 00 12 5b 3b 28 e6 28 bd 7a cd 02 be 58 4d 03 3d
       0.0033427477 -0.04123512 -0.12773696 0.032056183
0003f0 e0 5e 4d 3e ec 32 91 bd a1 72 13 be 28 b4 b7 bd
       0.20055723 -0.07089791 -0.14399196 -0.08969909

bias f4 [34]
000000 e4 9d cb 3d 96 c4 71 3e e6 67 8d bd 20 a5 4d be
       0.099422246 0.23610148 -0.06904583 -0.20082521
000010 2e 46 61 be b0 f3 78 3d a0 71 96 bc 6e d5 fa bd
       -0.21999428 0.060779274 -0.018364727 -0.1224774
000020 90 cd 48 3d 90 a1 bc 3d ca 85 45 3e ce d1 40 3e
       0.049024165 0.09210503 0.19289318 0.18830034
000030 20 b3 14 bd 1a fe 5a be b0 6b 60 be 4a e3 67 3e
       -0.03630364 -0.21385995 -0.2191608 0.22645298
000040 18 93 db 3d 54 85 d8 3d 1c e2 56 be 64 fb 65 3e
       0.10721415 0.10572305 -0.20984691 0.22459179
000050 60 47 6b 3e 30 3b 60 3e 82 82 51 be e2 6b bb bd
       0.22976446 0.21897578 -0.20459941 -0.091514364
000060 83 cf 2a be 5e 2f 6b 3e 78 6d d5 bd cc c6 e2 bd
       -0.16680722 0.22967288 -0.1042127 -0.11073074
000070 fe 1d 02 3e 8e c6 e5 bd 62 a4 f4 bd f8 ca ad bc
       0.12706754 -0.11219512 -0.11945416 -0.021214947
000080 a8 f9 be bc e0 76 41 be
       -0.023312405 -0.18893003

weight f4 [3, 34]
000000 7d 67 12 3e 4d ef 9a bd 20 2c 79 3d 25 bf 18 3e
       0.1429729 -0.07565174 0.060833097 0.14916666
000010 6e 21 b1 3d 68 e8 c6 3c 41 6c 15 3e 90 db bc 3c
       0.08648954 0.024280742 0.14592077 0.023053914
000020 9b 7f a2 bd 9b 21 26 3e 18 42 26 3d 00 58 2b be
       -0.07934495 0.16223757 0.040590376 -0.16732788
000030 e2 fb 47 bd f0 3e ef bd 77 f8 19 3e 20 04 e8 bc
       -0.0488242 -0.11681926 0.15036188 -0.02832228
000040 b8 13 20 be b0 a2 30 bc 8e 93 dc 3d bc 7f 36 3d
       -0.15632522 -0.010780975 0.10770331 0.04455541
000050 d0 1e 5e 3d a8 7a 82 3c dc f1 82 3d c4 27 2b bd
       0.054228604 0.015927628 0.06393787 -0.04178597
000060 11 b8 8b bd fe 25 24 be 03 4c 04 be 3c 39 98 3d
       -0.06822217 -0.16030118 -0.12919621 0.074327916
000070 aa f7 cf bd f0 8e c9 3c f8 37 60 3d 70 f2 46 3c
       -0.1015466 0.02460429 0.054740876 0.012142763
000080 24 b8 e3 bd f7 f1 27 3e 52 3d cc bd 6d 71 10 3e
       -0.111191064 0.16400896 -0.099726334 0.14105769
000090 ec b3 0b be ac f9 28 bd c2 0e bf 3d 63 81 8f bd
       -0.13642853 -0.04125373 0.09328987 -0.070071004
0000a0 15 86 13 3e 59 b3 f1 bd e1 79 13 be 3d 60 9e bd
       0.14406617 -0.11801786 -0.14401962 -0.077332
0000b0 f8 1a e3 3c b9 b2 21 3e 56 ad a7 bd 08 38 7b 3d
       0.02772282 0.15790834 -0.08187358 0.061332732
0000c0 78 1c 30 bd 34 56 18 bd 47 21 01 3e 4b 19 08 be
       -0.0429959 -0.037191585 0.1261035 -0.13290899
0000d0 88 38 95 3c 47 26 25 3e 78 0d c1 bc 95 5a 08 3e
       0.018215433 0.16127883 -0.023565993 0.13315804
0000e0 a8 53 58 bd f1 5c 0d 3e 95 e0 29 be 50 7b ca bc
       -0.052814156 0.13804986 -0.16589577 -0.024717003
0000f0 c0 c4 f6 bc fc a7 63 3d fc cb 89 3d ff d6 06 3e
       -0.030123115 0.055580124 0.0672836 0.13167952
000100 18 50 d1 bc 20 d9 de bb 8e 86 f0 3d fc 10 3e bd
       -0.025550887 -0.0068007857 0.11744414 -0.046402916
000110 1b f3 19 3e 44 da e9 bd 98 06 98 bc 30 eb 16 bc
       0.15034144 -0.11418584 -0.018557832 -0.0092113465
000120 ce b8 9c 3d 7e 20 f0 3d 40 af de bc 45 7e 11 be
       0.07652436 0.117249474 -0.027183175 -0.14208324
000130 02 08 ae 3d a8 20 52 3d a6 16 8d 3d 70 a9 d8 bd
       0.08497621 0.051300675 0.068890855 -0.10579193
000140 aa 0c e2 3d 8d 55 26 3e 20 d0 73 3c 51 08 24 be
       0.11037572 0.16243573 0.014881164 -0.16018797
000150 2e 8f f6 3d aa 35 02 be bc 79 21 3d c8 28 cc 3c
       0.12039028 -0.12715784 0.039422736 0.02492179
000160 57 63 a4 bd c4 97 74 3d 4d 13 1d be d4 fd 1f 3d
       -0.0802676 0.059715047 -0.15339394 0.03906043
000170 7a a9 de bd 38 eb 97 bc 78 b6 b4 3c 25 9d 15 3e
       -0.10872169 -0.018544778 0.022059664 0.14610727
000180 1a 94 a7 bd 92 02 e1 3d d0 78 b2 bc f7 ce a6 bd
       -0.08182545 0.109868184 -0.021786124 -0.08144944
000190 d3 ec 18 be 2c 21 21 be
       -0.14934091 -0.1573531

bias f4 [3]
000000 cd 81 2b 3e 58 31 2f bd 10 59 0c 3c
       0.16748734 -0.042771667 0.008566156
